trunk/models/mappo/base_0712/actor.pt (torch, 101813 bytes, 16 tensors)

base.feature_norm.weight f4 [215]
000000 31 76 40 3f 8f 63 5d 3f 68 ec 48 3f a1 7b 5a 3f
       0.75180346 0.8648004 0.7848573 0.8534489
000010 43 59 5f 3f d1 eb 67 3f f8 ec 5d 3f c4 c4 46 3f
       0.8724558 0.905942 0.8668971 0.7764399
000020 46 ef 66 3f ee b7 c8 3f 3d d8 cc 3f f9 f0 f3 3f
       0.9020885 1.5681131 1.6003491 1.9057914
000030 69 98 9a 3f a4 71 42 3f 63 ae ec 3f 3b 94 de 3f
       1.2077762 0.7595465 1.8490719 1.7388986
000040 af e5 81 3f 61 c3 ed 3f 85 b6 34 3f d9 cd 01 40
       1.0148219 1.857525 0.70591 2.028189
000050 e4 1d d4 3f 07 d1 c9 3f 2b 4f 5a 3f c3 ea c3 3f
       1.6571622 1.5766915 0.8527705 1.5306019
000060 ec 9a c3 3f 5a 0c 0d 40 58 6e c7 3f be 9f d2 3f
       1.5281653 2.2038789 1.5580549 1.6455
000070 bd aa 86 3f b0 40 b3 3f 98 69 2c 40 06 df a8 3f
       1.0520855 1.4004116 2.693945 1.3193061
000080 57 16 67 3e de 7f ef 3f 2e d2 d8 3f 05 49 bb 3f
       0.22567116 1.8710897 1.6939142 1.4631659
000090 69 49 12 40 18 78 4c 3f a4 b5 71 3f 81 0a 76 3f
       2.2857306 0.7987075 0.94417787 0.9610978
0000a0 74 02 13 3f 79 22 3f 3f e3 32 80 3f a5 4a 05 3f
       0.5742562 0.74661976 1.0015529 0.52067024
0000b0 11 bc 91 3e a5 e9 58 3f f5 17 00 3f fd 80 4b 3f
       0.28463796 0.84731513 0.50036556 0.79493695
0000c0 f4 f1 8c 3f 18 0c 48 3e 01 e1 1d 3f 99 e9 6f 3f
       1.1011338 0.19535863 0.61671454 0.93715817
0000d0 af a5 1d 3f e9 af 81 3f a9 3e 8a 3f c1 c8 76 3f
       0.6158094 1.0131809 1.0800372 0.96400076
0000e0 88 34 3b 3f 66 9a 82 3f 52 f8 15 3f 50 a7 5d 3f
       0.7312703 1.0203369 0.5858203 0.86583424
0000f0 b7 1c f0 3e 0a 7e 22 3f d5 39 82 3f cb 70 00 3f
       0.46896908 0.6347357 1.0173899 0.5017211
000100 82 04 69 3f b8 18 f3 3e 9b 7e 44 3f b2 6e 73 3f
       0.91022503 0.47479796 0.76755685 0.9509078
000110 98 ab 53 3f 2f a6 5b 3f aa 1e 14 3f 4c cf 17 3f
       0.82683706 0.8580045 0.5785929 0.59300685
000120 9a e0 de 3e 56 ee 6a 3f 27 44 66 3f f5 c2 80 3f
       0.43530732 0.9176992 0.8994774 1.0059496
000130 79 82 81 3f ec 7f 2d 3f 6f 28 45 3f 8d 12 ca 3e
       1.0117942 0.6777332 0.7701482 0.39467278
000140 2d ac 87 3f 19 bb 0d 3f 36 9f 94 3f 7f 54 83 3f
       1.0599419 0.55363613 1.1611087 1.0260161
000150 bb 17 c4 3e 83 75 7c 3f 3b 05 35 3f 8b 26 87 3f
       0.38299355 0.9861681 0.70711106 1.0558637
000160 a2 09 4c 3f 45 09 66 3f 55 8a 93 3f e9 66 fe 3e
       0.797022 0.89857894 1.152659 0.4968789
000170 c6 18 30 3f f3 a9 71 3f 14 f5 de 3e fd 6c 27 3f
       0.687878 0.94399947 0.43546355 0.6540068
000180 55 09 83 3f 6c 8b 46 3f 2a f1 11 3f 11 03 80 3f
       1.0237223 0.7755649 0.5700861 1.0000936
000190 4a e0 7c 3f 05 e2 64 3f 5a dd 61 3f 30 4b 81 3f
       0.9877974 0.8940738 0.8822838 1.010107
0001a0 c3 3e 8f 3f 61 6a 26 3f 9e 26 66 3f 36 91 31 3f
       1.1191028 0.6500607 0.89902675 0.693622
0001b0 05 83 7a 3f 39 aa a4 3f b5 7e 4a 3f 39 69 89 3f
       0.9785617 1.2864448 0.7909959 1.0735236
0001c0 29 7f 17 3f c2 71 36 3f 6f 0a 29 3f b3 9c 56 3f
       0.59178406 0.7126733 0.66031545 0.83832854
0001d0 90 08 87 3f c8 4b ff 3e 4b 50 69 3f d6 0a 63 3f
       1.0549488 0.49862504 0.9113814 0.8868841
0001e0 ad 43 6d 3f 54 22 8e 3f c8 0d 45 3f 85 91 42 3f
       0.9268139 1.1104226 0.76974154 0.76003295
0001f0 28 f8 67 3f b7 2d 7f 3f d4 8b 87 3f a1 be 53 3f
       0.9061303 0.9967913 1.0589547 0.8271275
000200 a0 b8 2e 3f c5 b9 b8 3f a3 0f 24 3f 9d ef 80 3e
       0.68250465 1.4431692 0.6408636 0.2518281
000210 94 ee 3e 3f 99 08 56 3f 4e 23 67 3f 69 df 32 3f
       0.7458279 0.8360687 0.90288246 0.69872147
000220 79 f4 4b 3f 39 8d 25 3f 99 d6 c2 3e b5 9f 4e 3f
       0.7966991 0.64668614 0.3805435 0.80712444
000230 b3 d3 90 3f 73 97 96 3f 6c 92 92 3f 0e cc 31 3f
       1.1314605 1.1764969 1.1450934 0.6945199
000240 df 45 f0 3e 55 ec bf 3e 1f 3c 7e 3f 1c 31 8e 3f
       0.46928307 0.37484995 0.9931049 1.1108737
000250 5f f2 4b 3f 93 84 4d 3f 3a ca 0f 3f 61 b7 31 3f
       0.79666704 0.8028042 0.5616795 0.6942044
000260 d1 73 36 3e fa 1e 86 3f a5 5e 37 3f 09 38 94 3f
       0.17817618 1.0478203 0.7162879 1.15796
000270 b2 4c 62 3f 0f f7 22 3f 7a 47 3a 3f 52 0c 3e 3f
       0.8839828 0.6365823 0.72765315 0.7423755
000280 f6 97 07 3f d8 0f 8d 3f c1 57 47 3f 64 31 96 3f
       0.5296625 1.102046 0.77868277 1.1733823
000290 7f 70 68 3e 90 8e 06 3f a5 8a cc 3e 27 bf b1 3e
       0.22699164 0.52561283 0.39949527 0.3471615
0002a0 6f 9e 5d 3f dc 8c 43 3f cf e4 9b 3f 21 fd 80 3e
       0.86569875 0.7638681 1.2179202 0.25193122
0002b0 42 b4 16 3f 9a ac 63 3f b0 40 43 3f ed 46 13 3f
       0.588688 0.88935244 0.7627058 0.575301
0002c0 80 9c 3e 3f 32 24 bf 3f 5b 7d bf 3e 4a c2 09 3f
       0.7445755 1.4932921 0.37400326 0.53812087
0002d0 9c 06 85 3f 26 fb 89 3f 8a 9f 53 3f 13 52 54 3f
       1.0392642 1.077977 0.8266531 0.82937735
0002e0 f4 07 71 3f 90 74 dc 3e df 22 1b 3f 2e d3 80 3f
       0.9415276 0.4305768 0.60600084 1.0064447
0002f0 f7 cc 28 3f 35 5c 34 3f 5c 71 45 3f 95 79 9b 3f
       0.6593775 0.70453197 0.771261 1.2146479
000300 92 ba a6 3e 47 37 42 3f d0 83 24 3f 98 8b 87 3f
       0.32564217 0.75865597 0.6426363 1.0589476
000310 f8 df 8f 3f 52 f2 34 3f 0d 13 72 3f 76 e3 e9 3e
       1.1240225 0.7068225 0.9456032 0.4568135
000320 a7 a4 3f 3f 53 e2 69 3f b7 75 8a 3f d3 fa 40 3f
       0.74860615 0.9136097 1.0817174 0.7538273
000330 a9 ed 60 3f 7d c5 9a 3f b2 05 31 3f dc e7 58 3f
       0.8786264 1.2091519 0.69149315 0.8472879
000340 c8 b3 17 3f 3a aa 04 3f 3d b2 6c 3f 5d 71 50 3f
       0.592587 0.51822245 0.9245947 0.8142298
000350 ef e9 b9 3f c5 06 22 3f c4 46 33 3f
       1.4524516 0.6329158 0.70029855

base.feature_norm.bias f4 [215]
000000 8d 67 e5 be 51 9c fa be 61 b6 eb be ef c1 e8 be
       -0.44805565 -0.48947385 -0.46037582 -0.4546046
000010 18 2a ed be fb 17 b8 be f9 43 f8 be c0 f2 0d bf
       -0.46321177 -0.35955796 -0.4848936 -0.5544853
000020 49 88 f6 be ef 13 a2 3e f7 94 94 3e 83 53 56 3e
       -0.48150852 0.31655833 0.290199 0.20930295
000030 2d 66 c8 3e 68 b3 12 bf 0e 74 fb be 83 38 c0 be
       0.39140454 -0.57305 -0.4911198 -0.37543115
000040 b5 16 db 3e 78 b8 12 3e d8 83 f4 3e 20 81 c9 be
       0.42790762 0.14328182 0.4775684 -0.39356327
000050 ad 2d bb 3d 1e 8e fa 3d 47 15 ce 3e 61 6f e6 3e
       0.09139571 0.12234138 0.40250608 0.4500685
000060 4a b7 a6 3e b5 e0 30 be 32 83 e0 3d 52 a7 2c 3e
       0.32561713 -0.17273219 0.109625235 0.16860703
000070 8a f7 9c be 27 25 8e 3e 2c 15 09 be 73 d5 f9 3e
       -0.30657607 0.2776272 -0.13386983 0.4879566
000080 da af 60 3b 05 2f 0c be 31 ee 50 be 7c 54 67 be
       0.0034284503 -0.13689812 -0.20403363 -0.22590822
000090 5d da 2a be 7f cf b3 bc b6 42 68 3e 13 a6 d1 3e
       -0.16684861 -0.021949528 0.22681698 0.40947017
0000a0 68 3a ff 3e 60 9f 78 be ec 76 1e 3d 63 4d c1 3d
       0.49849248 -0.24279547 0.03868763 0.094385885
0000b0 1f 38 39 3f b1 89 0b 3f 7c b5 90 3e 68 07 e6 3e
       0.7235126 0.54506975 0.28263462 0.44927526
0000c0 e7 2a 96 be a9 99 39 bf 87 3b 47 3e 96 99 5d bd
       -0.29329607 -0.7250009 0.19456302 -0.05410155
0000d0 c9 e5 00 3f 46 e2 bc 3e 6b 7a 03 3f 9a 7f db be
       0.50350624 0.36891383 0.5135867 -0.4287079
0000e0 1f 3c 2a bf 93 54 8a 3d 44 49 56 3e de 8a 72 3e
       -0.6649799 0.067544125 0.20926386 0.23685786
0000f0 d5 e0 cc 3e 04 1d cd 3e 82 27 25 be 57 04 24 bf
       0.40015283 0.400612 -0.16128352 -0.6406912
000100 87 d3 5c 3e e9 c3 c0 3e 56 44 35 3e 7e c7 a5 3e
       0.21565066 0.37649468 0.1770185 0.32378763
000110 e0 ce 01 3f c3 99 c2 be 41 72 3c bf 07 9b 5b 3d
       0.5070629 -0.38007936 -0.7361184 0.053614642
000120 5b 1a c6 3d 89 c4 2d 3e 5f 3c 95 3e 71 8b fe 3e
       0.09672996 0.16969503 0.29147622 0.4971576
000130 3c b9 f8 be 14 ad 1f bf 2d 54 09 3e 4e 40 04 3c
       -0.48578823 -0.6237347 0.13411017 0.008071972
000140 c2 33 ca 3e cc 0b 47 3e 2d 32 d5 3e 5e c8 a7 be
       0.39492613 0.19438094 0.41639844 -0.32770056
000150 30 41 0f bf 55 d6 18 3e 46 d1 04 be 2f 87 5a 3e
       -0.55958843 0.14925511 -0.12970456 0.21340631
000160 10 1f 67 3e b3 ce 02 3f 4f f6 ec be 32 b4 dc be
       0.22570443 0.5109665 -0.4628167 -0.43106228
000170 bb 73 29 3e a9 b7 83 be 69 41 bc 3e e5 c5 8c 3e
       0.16548054 -0.2572606 0.36768654 0.27494732
000180 39 f6 ba 3e 03 73 02 bf 2b f0 07 bf db e0 80 3e
       0.36515978 -0.50956744 -0.5310084 0.2517155
000190 b0 93 ab be 56 0c ca 3e 14 aa 2d 3e eb 3d 14 3f
       -0.33511114 0.39462537 0.16959411 0.5790698
0001a0 a9 51 c3 be 52 08 22 bf 75 d1 fb 3d af ad 6f be
       -0.3814824 -0.63293946 0.1229581 -0.23406099
0001b0 f3 42 c5 3c 00 4a a8 3e a8 e7 0c 3f 0f 8f b7 be
       0.024079775 0.32868958 0.5504098 -0.35851333
0001c0 d6 87 14 bf 73 e5 c1 3d 28 92 00 3e 4e fe b0 3e
       -0.5801977 0.09467592 0.12555754 0.3456902
0001d0 57 73 58 3e f8 91 02 3f 50 77 1a be 6c 89 a1 3e
       0.21137749 0.5100398 -0.15084577 0.31550157
0001e0 ef b7 00 3e 3b c6 98 3e 5b 36 f7 3e c9 5f d8 3e
       0.12570165 0.29838738 0.48283657 0.42260578
0001f0 8d e8 1e 3b 1b 84 8b 3e 5a 86 c1 3e 14 bc d5 3e
       0.0024247498 0.27249226 0.37797815 0.41745055
000200 03 4f 7b 3e f5 38 a7 be 95 8b bd 3d 8f 6f 7a be
       0.2454186 -0.32660642 0.09255139 -0.24456619
000210 d9 40 28 3e 13 33 bf 3e a9 b8 0d 3f 9c b4 df 3c
       0.16430987 0.37343654 0.55359894 0.027307801
000220 1a 07 56 be 7e 3c e6 3d d4 7f 36 bf f0 ad c5 3e
       -0.20901147 0.11242007 -0.712888 0.38609266
000230 ba 51 7f 3d 31 89 b4 3e 3b 01 09 be 11 0c 1f be
       0.0623338 0.3526092 -0.13379376 -0.15531947
000240 91 91 24 3e 31 57 9c be b3 0b 46 3d 9d c2 83 3e
       0.16071154 -0.30535272 0.048351 0.25734416
000250 6c 1f 05 3f 59 89 8f bc 2b 3c f9 be 01 e6 ef 3d
       0.5200107 -0.017521547 -0.48678717 0.11713792
000260 e8 db ab be a2 bd 54 3e c4 f7 86 3e 9e 6c 97 3e
       -0.33566213 0.20775464 0.26360905 0.29575056
000270 91 30 f2 bd 99 66 1e bf bf 6d 2a 3e ac 4c d1 be
       -0.118256696 -0.618753 0.16643427 -0.40878808
000280 31 bb c1 3e 25 09 b5 3e a5 5e d8 3e fc 07 3d be
       0.37838128 0.3535854 0.42259708 -0.18460077
000290 35 46 06 bf 6c 0f 29 3e 59 35 01 bf c7 1c fc 3e
       -0.5245088 0.16509789 -0.5047203 0.49240705
0002a0 48 5d e0 3e 05 b7 00 3f 8a 76 4f be 79 0d 20 bf
       0.43821168 0.50279266 -0.20260063 -0.6252056
0002b0 69 15 92 3d fd 9a f5 bd f9 e7 3f 3e 9d a7 f8 3e
       0.0713299 -0.11992452 0.18740834 0.4856538
0002c0 36 9d 7b 3e c9 4f e0 3d b6 a7 cb be 59 36 3e 3e
       0.2457169 0.10952718 -0.3977639 0.1857542
0002d0 8a 9d 89 be f5 eb da 3e 11 cc a8 3e 24 0e 14 3f
       -0.26878005 0.42758146 0.3296819 0.57834077
0002e0 a1 70 79 be 3c ea 01 bf 1f 2c 13 3e bc d3 01 be
       -0.24359371 -0.5074804 0.143723 -0.12678427
0002f0 d4 4f e0 3e ea 37 72 3e db 1d da 3e 9e 92 73 bd
       0.43810904 0.23654142 0.42600903 -0.059465997
000300 e4 5f 0e bf 6e 5e 6b 3e ce 75 87 3d ac 3a fb bc
       -0.5561507 0.22985241 0.06614266 -0.030667625
000310 ae 9e 12 3e 5f 49 0c 3f fd 1b be 3c 14 b7 23 bf
       0.14318344 0.54799455 0.023206705 -0.6395123
000320 db 10 2e 3e d5 bd 01 3e ee 39 b6 3e 3c e3 d1 3e
       0.16998617 0.12670071 0.35591072 0.4099368
000330 a0 85 cb 3e 0c c5 0a bd c7 2d 06 bf 0f 68 7e 3e
       0.39750385 -0.033879325 -0.524136 0.24844383
000340 15 b5 27 bb 1c 9b f0 3e e1 05 da 3e 21 63 d4 3e
       -0.002559011 0.4699334 0.4258261 0.4148188
000350 ec 05 3a be a6 4b 1e bf 92 89 14 3e
       -0.18166322 -0.6183418 0.14505604

base.mlp.fc1.0.weight f4 [64, 215]
000000 c2 fb b2 3d 48 90 ec 3d b6 06 4a 3e 52 d8 17 3e
       0.08739425 0.11550957 0.19729123 0.14828613
000010 70 fb 8e 3d ad 50 73 3e 1f e8 37 3e 43 20 6e 3e
       0.06981552 0.23761244 0.17959641 0.23254494
000020 f3 14 61 3e 83 fa a8 bd 44 96 45 3c 5d 95 b1 ba
       0.21980648 -0.08250906 0.012059752 -0.0013548542
000030 0c 03 e6 3e 83 96 48 3e 1e ac 83 bd b2 ac 58 3e
       0.449242 0.19588666 -0.06429313 0.21159628
000040 0a f0 28 3f 3d ae 29 3c 02 ec e5 3e 5d c8 3c be
       0.6599127 0.010356483 0.44906622 -0.18435808
000050 e7 51 9d bc 3d e1 1d 3e b0 e0 ac 3e a1 0a 2e 3f
       -0.019204093 0.15417953 0.33765173 0.6798497
000060 42 40 87 be c1 06 36 bf ff 2c 06 3f 3f 97 b4 3e
       -0.26416212 -0.71104056 0.5241241 0.35271642
000070 63 73 b4 3d df 3a d4 3e 94 63 98 bf 72 6d 1b 3f
       0.08811071 0.41451165 -1.1905389 0.60713875
000080 a2 77 3b 3e 0a c3 44 bd bb 35 d2 3d b0 8a 29 3f
       0.18307355 -0.048037566 0.102641545 0.66227245
000090 6c 9b 52 be 57 a2 fc bd a4 4d d3 be a5 f0 65 be
       -0.20567101 -0.12335651 -0.41270173 -0.2245508
0000a0 03 56 e6 3e 3f ff 77 3e 1c ab 64 3e 2c dc 0a 3f
       0.44987497 0.24218462 0.22330898 0.54242206
0000b0 0e ce 11 bd b0 b6 a9 bd 2d 5e f0 be 10 ec 24 be
       -0.0355969 -0.08286798 -0.4694685 -0.16105676
0000c0 28 ab 71 3e 8b 96 a7 be b9 f4 df 3e 63 3e f2 be
       0.23600447 -0.32732043 0.43741396 -0.47313222
0000d0 80 09 fa be b2 b3 8d be 00 9c 33 3e b4 40 47 3e
       -0.48835373 -0.2767616 0.17539978 0.19458276
0000e0 07 47 6e 3b de e7 1c 3f 29 02 9f bc b8 20 a3 3d
       0.0036358254 0.612913 -0.01941021 0.07965225
0000f0 1b e1 ce bd ee 27 d7 3c fc bb 23 3e 8e 32 89 bd
       -0.10101529 0.026264157 0.15989679 -0.06699096
000100 29 bd ce 3e d8 84 3f be a4 27 56 bd 0e 8a 34 bf
       0.40378693 -0.1870302 -0.052283898 -0.70523155
000110 98 6f 4f 3e 86 94 7d 3d f0 12 2e be e6 4e b2 3e
       0.20257413 0.06190922 -0.16999412 0.3482582
000120 fc 6a b8 be 1c b7 cd be 77 66 3c be 24 82 13 3f
       -0.36019123 -0.40178764 -0.18398462 0.57620454
000130 2c 7e 75 3e 17 8c 54 bd fc 83 bc 3e a1 bf 89 be
       0.23973912 -0.051891413 0.36819446 -0.26904014
000140 62 a6 b5 bd 45 9e d6 be bc 56 81 3d 0a e4 d4 3e
       -0.08869626 -0.41917625 0.063153714 0.4158023
000150 8b 9c 1b bf c9 72 df 3e eb 42 a4 be 9d 7f 06 3a
       -0.6078574 0.43642262 -0.32082304 0.000513071
000160 e3 10 28 bf a8 45 97 3d 2d 25 88 3c 83 1c 1b bd
       -0.6565077 0.07386333 0.01661929 -0.037868988
000170 f1 e7 c9 3e 07 b4 f7 bd d7 af b9 bd 88 c6 37 bf
       0.3943477 -0.12094884 -0.09066742 -0.7178731
000180 e3 7d 57 bc a7 66 d0 bd 0a 8f 16 be bd e2 ef 3e
       -0.013152572 -0.101758294 -0.14703003 0.46852675
000190 59 6f a8 be db b1 cb 3c e5 35 8b be e1 7f 8c 3e
       -0.32897452 0.024865082 -0.27189556 0.27441314
0001a0 b3 2c 67 3e 47 3b e9 be 8c 97 ce 3e ec e0 3b 3d
       0.22575645 -0.45553038 0.40349996 0.0458688
0001b0 5e 8a 32 3e 7b 3e 0e be d5 9e 8f bd bf 90 0a bf
       0.17435595 -0.13891022 -0.07012717 -0.54127115
0001c0 68 83 48 3e d0 1e b4 3e 65 11 10 3b 2f ad ff bd
       0.19581378 0.35179758 0.0021983024 -0.12484204
0001d0 9d 3a a2 be 51 ab 5d bc ae 2c 8b bd 96 e8 68 be
       -0.31685343 -0.013529615 -0.06795631 -0.22744974
0001e0 82 e7 e8 3e d2 46 ac 3e 9b c9 29 3f 4e a9 19 3f
       0.45489126 0.33647782 0.6632325 0.60023963
0001f0 80 7f 0c 3e d5 7b ab bd a9 c9 de bd 49 f8 0a 3f
       0.13720512 -0.083732285 -0.10878307 0.54285103
000200 47 09 ad bd 98 c3 17 3e f3 10 cc 3e 01 ac a2 be
       -0.08449035 0.14820707 0.3985668 -0.31771854
000210 ef a6 22 be 1f 5b 93 3d fd 1f af be 9d fc 16 3e
       -0.15883993 0.07195114 -0.34204093 0.14744802
000220 42 ed e6 3d 54 73 44 3e b4 62 a8 3d 5d 54 ef bb
       0.11275722 0.19184619 0.08221951 -0.007303758
000230 ba c8 c7 be a8 97 42 be 54 65 07 3e bc 35 8e bd
       -0.3902033 -0.19003165 0.13222247 -0.06943843
000240 93 8d a7 3e 33 2f e7 3e 4e 59 ae 3e 54 b6 91 be
       0.327252 0.45153198 0.3405251 -0.28459418
000250 ed 07 19 3f f9 d1 7c 3e 89 70 10 3f 07 90 fe 3e
       0.5977772 0.24689473 0.56421715 0.4971926
000260 37 a5 1a 3e 61 a9 32 3f fa de ae be 5e 2f 3c be
       0.15102087 0.697897 -0.34154493 -0.18377444
000270 5e 9c 31 bd 90 0e 8b 3e d7 de 00 3f c7 7c 41 3e
       -0.043362014 0.27159548 0.50340027 0.18895255
000280 8a 33 37 3e 27 4f 03 3f eb bf 4b 3e 94 e1 77 be
       0.17890754 0.5129265 0.1989743 -0.24207145
000290 7b 1c c3 3d fe c7 f4 3e e9 84 03 3e fa e4 19 be
       0.095269166 0.47808832 0.1284367 -0.15028754
0002a0 d9 21 f2 3e 8e d6 a6 3d e6 f9 e6 be 14 70 8b 3b
       0.4729145 0.08146392 -0.45112532 0.004255304
0002b0 0a f4 cc 3e 18 57 cb be bf fc 87 bd 36 04 cc bd
       0.40029937 -0.39714885 -0.06640004 -0.09961741
0002c0 cd ae a1 bd ee 6c a3 3e 45 c4 af bd 21 7c af 3e
       -0.07894669 0.31919044 -0.08582357 0.3427439
0002d0 9e a7 fd bc 76 7f bc 3e d2 4a 4b 3e 2d a9 c9 3e
       -0.030963715 0.36815995 0.1985276 0.39386883
0002e0 cf 1c 8b 3d fb 01 2f 3d 55 ec eb 3e 28 46 af 3e
       0.06792604 0.042726498 0.46078745 0.34233212
0002f0 d5 7a 38 be fe f8 d6 3e ab 4b ae 3e 6b a4 89 be
       -0.18015607 0.4198684 0.34042105 -0.26883253
000300 f8 38 71 bd df 96 0c 3f c3 9d a8 bd 98 71 78 3e
       -0.05889222 0.5491771 -0.08233216 0.24262083
000310 a3 77 82 be b9 7f 97 3e b6 04 96 bd 16 72 7c be
       -0.254819 0.29589632 -0.07325117 -0.24652895
000320 90 80 ba 3e bb 4c fd be 42 47 ab 3e 68 36 58 be
       0.3642621 -0.49472603 0.33452803 -0.21114504
000330 30 2a 86 3e b9 3b b6 3d 21 ae 27 be 4e 85 2d 3f
       0.26204062 0.0889811 -0.16375019 0.6778153
000340 11 c5 2e 3e 15 26 c1 bd 47 15 ca bc cd 22 d4 be
       0.17067362 -0.09431092 -0.024668349 -0.414328
000350 86 c8 51 bd fa 90 ab 3d 34 4b d8 3e 00 8d 9d 3e
       -0.051216625 0.083772615 0.42244875 0.30771637
000360 b8 55 ac 3e 12 1d 30 3e 31 61 d6 3e ee 17 24 3e
       0.33659148 0.1719859 0.41871026 0.16024753
000370 f6 b7 42 3e 7d 62 7a 3e af 73 c1 3e 4a cd a0 3e
       0.19015488 0.24451633 0.37783572 0.31406623
000380 f5 a4 6f 3e f2 ab 5e 3e 0a 8e 1d 3f a7 ba 32 3f
       0.2340277 0.2174528 0.6154486 0.6981606
000390 d9 6f e9 3e f2 d0 7e 3e 08 0c 1a 3f 87 3e 3a bd
       0.45593145 0.24884394 0.6017461 -0.045469787
0003a0 ea 84 28 3f 1c 8f 13 be d9 27 fe bd cc 76 c9 3e
       0.6582781 -0.1441006 -0.12409944 0.39348447
0003b0 98 a4 19 bf 6f 31 6e be a2 5f bd bd f6 da 6e be
       -0.60016775 -0.23261045 -0.09246756 -0.23325714
0003c0 70 03 b4 3e a2 7d 83 be c3 4d a4 3d 62 df 6f 3d
       0.35158873 -0.25681788 0.08022644 0.058562644
0003d0 75 f7 5b be 3a fe 90 bd e2 3e b1 3d ae 5b f3 bd
       -0.21481116 -0.0707974 0.08654572 -0.11882721
0003e0 9a 94 75 be b7 00 d7 bd ed f1 da 3e 79 3a 50 3e
       -0.23982468 -0.10498183 0.427627 0.20334806
0003f0 1d 4f 88 be eb 09 f4 3e 1f 2d e0 bc a3 32 06 3e
       -0.2662286 0.47663817 -0.027365265 0.13105254

base.mlp.fc1.0.bias f4 [64]
000000 a7 21 36 3e 86 3b 2e 3d fe 1c 7f be 7a 27 fc 3d
       0.17786275 0.042537235 -0.24913403 0.12312217
000010 52 8a da 3d 21 dc 37 be 9f a1 ba 3e 8c f1 6c be
       0.10670914 -0.17955066 0.36451432 -0.23139018
000020 5b 7a 62 3e 21 90 80 3d ca 2c 2e 3e 5e 86 d8 3d
       0.22116987 0.062774904 0.17009273 0.105725035
000030 bc ab b7 3d b7 ff 87 bb 84 33 8f bd 65 b3 ce 3d
       0.089683026 -0.0041503566 -0.06992248 0.100928105
000040 d1 8e 6e bd 84 b3 df bd ff 29 17 be 6a 0b 8e bd
       -0.05824167 -0.10922912 -0.14762114 -0.06935771
000050 97 48 14 be 0e ef b7 3e e2 ad b8 bd ab 9b e2 3d
       -0.14480816 0.35924572 -0.090175405 0.110648476
000060 ad 53 05 be 19 2e a4 bc 40 8f 61 3e d5 19 b8 bc
       -0.13020201 -0.020041512 0.22027302 -0.022473255
000070 fb d6 e2 3c 94 70 5d bd a4 1a 93 be 21 90 f3 bc
       0.027690401 -0.05406244 -0.28731263 -0.029731812
000080 10 4f a1 3d eb 5f 0c 3e 8a 96 ac 3b 56 ce 5d bd
       0.07876408 0.13708465 0.005266969 -0.054151855
000090 b4 6e 93 bd 6b 2a fe 3d 48 4a 94 bd 17 a0 5a 3c
       -0.07198849 0.12410434 -0.072407305 0.013343832
0000a0 69 8a 7c 3d 64 b1 6b bd b0 6f a7 bc 46 1c 05 be
       0.061655436 -0.05754222 -0.020438999 -0.12999067
0000b0 84 f5 2b 3c c6 f0 22 bc 35 b0 73 3c 22 60 16 be
       0.010495547 -0.0099451 0.014873554 -0.1468511
0000c0 2c 60 fd bd 8a 2d 75 bd e6 3a 26 3e 2e c7 33 b9
       -0.12371859 -0.059857883 0.16233405 -0.0001714497
0000d0 52 85 8e bd 2f b2 1f 3d 32 67 fa 3d b3 86 9e 3d
       -0.069590226 0.03898829 0.12226714 0.077405356
0000e0 bb 73 c7 be 61 72 22 3e a0 86 78 3d 90 20 55 be
       -0.38955483 0.15863945 0.060675263 -0.20813203
0000f0 49 e0 94 bd 58 83 5b 3e 6e 03 a5 3e 64 2a eb 3c
       -0.072693415 0.21436822 0.3222918 0.028706737

base.mlp.fc1.2.weight f4 [64]
000000 38 dc 92 3f 5f 0d 33 3f fc 61 81 3f 77 58 84 3f
       1.1473455 0.6994228 1.0108027 1.0339497
000010 a9 b3 a0 3f 16 83 8b 3f 1c 6c 45 3f 1e ce b8 3f
       1.2554828 1.0899379 0.77118087 1.4437902
000020 84 16 61 3f 85 9f 95 3f d6 85 80 3f 50 82 8c 3f
       0.8792498 1.1689306 1.0040843 1.0977268
000030 6d 44 a2 3f bc 98 9b 3f c6 8a 92 3f 2d 7e 80 3f
       1.2677132 1.2155986 1.14486 1.0038506
000040 64 6d 4d 3f 67 f5 81 3f 3c cd 55 3f 71 66 7a 3f
       0.8024504 1.0153016 0.8351629 0.97812563
000050 59 f7 3d 3f 7b 8e d2 3f 1f 00 4f 3f d3 16 a3 3f
       0.7420555 1.6449732 0.8085956 1.274134
000060 fd b6 83 3f 4d 62 a2 3f 60 f2 a0 3f b6 0f a4 3f
       1.0290219 1.2686249 1.2573967 1.2817295
000070 73 d0 97 3f 4c 7a 85 3f a6 3a 8f 3f f3 9a bd 3f
       1.1860489 1.0427947 1.1189773 1.4812912
000080 d7 fe 30 3f 82 da 35 3f cc 38 31 3f f5 0a d0 3f
       0.69138855 0.7103654 0.6922729 1.6253344
000090 c0 fe ad 3f 07 a1 7e 3f 61 ce a0 3f f4 73 68 3f
       1.3593369 0.9946446 1.2562982 0.9080193
0000a0 1d f7 82 3f 16 a5 8d 3f e8 95 6c 3f 46 87 48 3f
       1.0231663 1.1066005 0.9241624 0.7833141
0000b0 9f 50 a8 3f ca 46 8e 3f 0e 4b d1 3f d8 70 a8 3f
       1.3149604 1.1115353 1.635103 1.3159437
0000c0 49 2b 72 3f 2a 78 bd 3f 0f db 65 3f 0f 7d a4 3f
       0.945973 1.4802296 0.8978738 1.2850665
0000d0 ab 24 97 3f 9c 21 d8 3f 09 cd 73 3f 9c a8 51 3f
       1.1808065 1.6885257 0.95234734 0.818979
0000e0 40 3f 2e 3f 61 23 97 3f c0 e5 71 3f 92 3f f2 3f
       0.6806526 1.1807672 0.94491196 1.892565
0000f0 f5 ce b2 3f b5 b3 b3 3f da 10 81 3f 16 a5 9e 3f
       1.3969408 1.4039217 1.0083268 1.239413

base.mlp.fc1.2.bias f4 [64]
000000 65 79 12 bb e1 c0 4d 3e c4 75 d2 3d f6 99 07 3e
       -0.0022350189 0.20093109 0.10276368 0.13242325
000010 6a d2 42 bd cc 80 a2 3e e5 c4 79 3e 54 67 14 bf
       -0.047563948 0.3173889 0.24391516 -0.57970166
000020 57 64 a5 3e f3 89 30 be 0f 3e 4e 3d dd af b6 bd
       0.32303116 -0.17240123 0.050352152 -0.08920262
000030 97 83 89 be 52 10 aa 3e 45 54 8e be 97 f4 84 3d
       -0.26858208 0.33215576 -0.27798668 0.06491964
000040 94 54 a3 3d 58 37 35 3d 71 15 4a 3e 36 3f 2e be
       0.07975116 0.044242233 0.19734742 -0.170163
000050 ee d5 9a 3e f2 ff 98 3d 0a 67 b0 be 61 0e 4e 3e
       0.3024134 0.07470693 -0.34453613 0.20122673
000060 54 18 32 bd 96 fc d6 3d 76 a4 a5 3e 7f 58 5b 3e
       -0.043480232 0.10497396 0.32352036 0.21420477
000070 b6 72 ed be e2 cb b8 bd 0a 94 a4 be 29 c2 16 bf
       -0.4637658 -0.090232626 -0.32144195 -0.58890015
000080 ef 15 f3 3d 01 3b 9a 3e a1 05 d8 3d 4b d2 86 be
       0.11869418 0.3012314 0.10547949 -0.26332316
000090 f5 98 e8 be c8 52 3a 3e cd 04 5e be c1 2f 7b 3e
       -0.45429197 0.18195641 -0.21681519 0.24529935
0000a0 42 09 7d be 60 d7 03 be e4 d1 76 be ae a8 d2 3d
       -0.24710563 -0.12875128 -0.24103504 0.10286079
0000b0 2e fb ca be 48 ff 74 3b 4b cc e7 be 7c 08 f9 bc
       -0.3964476 0.0037383605 -0.4527305 -0.030399553
0000c0 1d 6f 0f be 52 d2 97 be a9 6c 35 3e 63 7f 31 be
       -0.1400723 -0.2965265 0.17717232 -0.1733375
0000d0 b5 b5 9d be 35 10 7d 3d bc d2 2f 3e dd f2 93 b9
       -0.30802694 0.061783034 0.17170233 -0.00028218972
0000e0 68 ec ff 3e 6c 6a fd bb 97 ae 10 3d 9f 3e 16 be
       0.4998505 -0.0077336337 0.03532275 -0.14672326
0000f0 75 18 ab be 02 57 24 3e d7 d6 93 3e ec 1a cd bd
       -0.33417097 0.16048816 0.28874847 -0.100149006

base.mlp.fc_h.0.weight f4 [64, 64]
000000 90 ac 7b be 62 2e b8 3e 0b 57 94 3e ce 34 52 be
       -0.24577546 0.35972887 0.2897266 -0.20527956
000010 6b aa 0b 3e b3 87 86 bd 27 00 9f bc 39 c2 3b 3e
       0.13639228 -0.06568851 -0.019409252 0.18335809
000020 ef 6c a4 bd f7 0e 9e bc cc 43 d0 bd d4 67 28 be
       -0.0802859 -0.019294245 -0.10169181 -0.16445857
000030 bb b8 98 3e 67 e7 a8 3c e6 fb ae 3d 50 b6 1f 3e
       0.29828438 0.020618154 0.085441396 0.1559689
000040 5a fe 28 bc a3 17 a2 be e6 d0 3e 3e a7 8b 6b 3e
       -0.010314548 -0.31658658 0.18634376 0.23002492
000050 15 f3 68 bd c1 88 2a 3e a8 75 ab 3d 4c 4a 67 3c
       -0.056872446 0.1665373 0.083720505 0.014116835
000060 bc dd a7 3e 44 3a 61 3e 3a 89 8b bd 23 13 82 3e
       0.32786357 0.21994883 -0.06813283 0.25405225
000070 64 97 03 3e 3a d6 c9 bd 3f 32 a4 3c fc 32 4a bd
       0.1285072 -0.098553136 0.02004349 -0.04936503
000080 4f af 94 be 28 cd b8 3d 42 f9 98 3e 92 65 81 3e
       -0.2904 0.090235054 0.2987767 0.25272804
000090 8f 86 29 bd d0 46 68 be 77 a9 d7 bd 43 1d 9c be
       -0.04138809 -0.22683263 -0.1053037 -0.30491075
0000a0 6d f9 9d 3d 65 ab 92 be 0c 45 f4 3d a7 5b 99 3e
       0.0771359 -0.2864639 0.11927232 0.29952738
0000b0 c5 95 d2 bd f8 31 df 3b 93 59 aa 3d c5 98 06 3d
       -0.102824725 0.0068113767 0.08317866 0.032860536
0000c0 b6 2a b3 3a 59 95 b8 be 3e 06 f0 bd 71 85 ec 3d
       0.0013669345 -0.36051443 -0.117199406 0.115488894
0000d0 30 03 0e be 41 92 0a be 2a bf 65 be 3f a8 41 3d
       -0.13868403 -0.13532354 -0.22436205 0.047279593
0000e0 ba 07 80 be 06 f7 e4 bb a2 10 91 bd 47 4c 42 3d
       -0.25005895 -0.0069874553 -0.070832506 0.047436025
0000f0 83 6e 31 3e b9 10 f3 bd f7 1a ac bd b0 cd 23 bc
       0.17327313 -0.11868424 -0.08403581 -0.00999777
000100 50 cd 44 3e ec 0c 94 3b dc 89 55 bd d1 de 1d be
       0.19218946 0.004518142 -0.052133426 -0.15417029
000110 13 9f 65 bd f7 83 2a 3e bb 03 2f bd d9 5d 96 be
       -0.056059908 0.16651903 -0.042728167 -0.29368475
000120 87 4c 07 be 52 d0 83 be c0 13 2d be dc 51 a2 be
       -0.13212787 -0.25744873 -0.16902065 -0.3170308
000130 e0 b5 f1 bd 10 95 2f be 35 49 87 3d b5 92 c8 be
       -0.11802268 -0.17146707 0.0660576 -0.3917443
000140 97 b0 50 3d 5e 39 8a 3d c4 35 00 be 5a 52 40 bd
       0.05094966 0.06749223 -0.1252051 -0.046953537
000150 45 d9 28 3e d9 4e cf bd 4b 9a b1 bd b9 aa d2 3d
       0.16489132 -0.10122461 -0.08672007 0.10286469
000160 a8 48 03 3e 55 a1 d3 bd db 92 0f 3e ed f7 1c 3c
       0.12820685 -0.10333506 0.14020865 0.0095805945
000170 2c b4 dc 3e a9 a7 fd 3e 9a 42 b7 3d 0b f8 81 3e
       0.4310621 0.49541977 0.0894825 0.25384554
000180 c8 d2 e6 3c 52 09 7e bd 37 45 a7 bd fa 30 0d 3c
       0.02817668 -0.062020607 -0.081674986 0.008617634
000190 bc e0 bc 3e a9 63 ba bd 54 68 10 3e 32 99 fb bd
       0.3689021 -0.0910104 0.14102298 -0.12285079
0001a0 f3 ff 4c 3e ea 84 b6 bd 24 a3 1e be 0b 5e 8a 3e
       0.20019512 -0.0891207 -0.1549192 0.27024874
0001b0 de 9a 73 3d 02 9c e7 3d 4e e0 a9 ba a7 3c 60 3d
       0.059473865 0.11309053 -0.0012960525 0.054745343
0001c0 47 24 84 be 92 53 2d be 74 26 a3 3d 96 ec 6d be
       -0.25808927 -0.16926411 0.07966319 -0.23234782
0001d0 d8 1d 2e bb 2e b7 89 3d 60 9c 06 be d5 1b cd bd
       -0.0026568081 0.06724392 -0.1314559 -0.10015074
0001e0 28 41 13 be 43 de 9b 3e ce d6 99 be b4 67 c3 bc
       -0.14380324 0.3044301 -0.30046695 -0.02385316
0001f0 c5 ea ff bc a0 13 3d bb 00 2f f0 bd 8b e1 d6 3d
       -0.031239877 -0.0028850809 -0.117277145 0.10492238
000200 9a ff da 3d f2 f0 06 bd 86 c6 28 3d 83 c5 94 3d
       0.106932834 -0.032944627 0.04120495 0.07264235
000210 15 bb 09 3e 73 07 96 3c 48 c5 ef 3d fc 6d cc 3e
       0.13450272 0.018314099 0.1170755 0.3992766
000220 9c 16 cd be 99 56 45 3e 81 05 24 3e 08 bf 2d 3e
       -0.40056312 0.19271316 0.16017725 0.16967404
000230 aa f1 2d be 69 d9 53 3e 03 54 94 bd 75 79 80 bd
       -0.16986719 0.20688404 -0.072425865 -0.06273166
000240 0a 13 95 3b 07 cc 9f bd 55 d3 9d be 76 3d 1f bd
       0.004549389 -0.07802587 -0.30825296 -0.038876973
000250 91 0e a2 3e 53 ad c8 3d ac c4 d6 bc f1 15 b9 be
       0.31651738 0.09798684 -0.026216827 -0.36149552
000260 e0 01 6e 3c d0 05 41 bd c3 83 a6 bc 6d 42 50 be
       0.014526814 -0.047124684 -0.0203265 -0.2033784
000270 d8 42 31 3d 78 bd bf 3d 16 f0 8c 3d 50 26 e3 3d
       0.043276638 0.0936231 0.0688173 0.11091292
000280 bb ec 0e bd d3 0c bd be 75 56 43 bc 1d cf 02 3e
       -0.034893733 -0.36923847 -0.011922468 0.1277432
000290 b3 0e 30 bc 00 95 e2 3d 6d 17 90 be 39 16 36 bd
       -0.010745692 0.11063576 -0.28142872 -0.044454787
0002a0 5c a7 b7 3b b1 47 58 bc e9 52 13 be 49 2a 69 3d
       0.0056046676 -0.013200686 -0.14387096 0.056925092
0002b0 ad a7 92 bd ae db e8 3c 3d cd 16 be a7 79 53 3d
       -0.07160888 0.028425064 -0.1472673 0.05162969
0002c0 11 ea f1 bc e4 58 77 be 3c 57 32 be 24 2b 7a 3d
       -0.029530557 -0.24155003 -0.1741609 0.0610763
0002d0 2d c2 07 be b0 aa 24 be 69 c3 5f bd 1a 12 c5 3d
       -0.13257666 -0.16080737 -0.054629717 0.09622593
0002e0 07 bc 91 3d aa d6 1b 3f 3f ab ce 3e 9c aa 35 3d
       0.071159415 0.60874426 0.40365025 0.04435216
0002f0 bb aa b1 3c fd b6 a7 bd 31 46 4a 3e 8d 05 56 bd
       0.021687856 -0.08189199 0.19753338 -0.052251387
000300 58 90 f2 bd a6 18 57 be 0e 75 c8 bc 96 8a 69 be
       -0.11843938 -0.21005496 -0.024469879 -0.22806773
000310 97 af 8c bc 60 a7 b8 bd 78 3f bd be 04 0a 4c be
       -0.017173572 -0.09016299 -0.36962485 -0.19925696
000320 3f 10 f6 3e ab 7d 90 bd 62 b7 dd 3d 17 4a 2b 3e
       0.4805927 -0.07055219 0.10825993 0.16727482
000330 ba 7e 5c be d2 14 35 be b2 9c 1c 3e 37 ea 2c be
       -0.21532717 -0.17683724 0.1529415 -0.16886221
000340 fa c5 6d be 1b 50 81 3c e0 8f 0e be d8 10 7b 3e
       -0.23220053 0.015785268 -0.13922071 0.24518144
000350 4d 9c 64 bd 5d 3b 3c be 90 d8 b9 3e 01 b4 a7 bc
       -0.055813123 -0.1838202 0.36298037 -0.020471575
000360 16 67 0e 3d 6d ea 68 ba 97 a2 9a 3d 2d 80 ab bd
       0.03476628 -0.000888503 0.07550543 -0.08374057
000370 f4 79 48 be 72 62 50 bd fb 61 1b 3d 10 04 40 3e
       -0.19577771 -0.050875135 0.03793524 0.1875155
000380 39 c7 84 be a6 eb c6 bd 8b 36 8f 3d d7 79 24 3e
       -0.25933245 -0.09712915 0.06992825 0.16062103
000390 cc 10 96 bd 1e 6f 4c 3e 61 35 dd 3d c4 39 88 3d
       -0.073274225 0.19964263 0.10801197 0.06651643
0003a0 a8 dd 1b bd 44 5b a3 3e cf b9 32 bc 8a 54 be bb
       -0.038053185 0.31905568 -0.010908558 -0.0058084177
0003b0 b0 b8 8d 3d de 4c 43 3d 0d 3e 00 3e cc 4a bf bd
       0.06919992 0.04768073 0.1252367 -0.09340438
0003c0 4a 6a 4d 3e 62 a7 ec be 47 bc 0a be 3e b9 af 3c
       0.20060077 -0.46221453 -0.13548385 0.021450635
0003d0 80 35 5c be 06 f8 29 be 58 e8 6c bd 0a 09 7a be
       -0.21504784 -0.1659852 -0.057838768 -0.2441751
0003e0 0a 9b 3d be 06 d3 e0 3d cc 11 3f 3d a1 91 99 3e
       -0.18516174 0.109777495 0.04664783 0.2999392
0003f0 73 94 16 be 9e bd d0 3d 10 ff 14 3e 51 7a a9 3c
       -0.14705066 0.101924166 0.14550424 0.020688208

base.mlp.fc_h.0.bias f4 [64]
000000 00 00 00 00 00 00 00 00 00 00 00 00 00 00 00 00
       0.0 0.0 0.0 0.0
000010 00 00 00 00 00 00 00 00 00 00 00 00 00 00 00 00
       0.0 0.0 0.0 0.0
000020 00 00 00 00 00 00 00 00 00 00 00 00 00 00 00 00
       0.0 0.0 0.0 0.0
000030 00 00 00 00 00 00 00 00 00 00 00 00 00 00 00 00
       0.0 0.0 0.0 0.0
000040 00 00 00 00 00 00 00 00 00 00 00 00 00 00 00 00
       0.0 0.0 0.0 0.0
000050 00 00 00 00 00 00 00 00 00 00 00 00 00 00 00 00
       0.0 0.0 0.0 0.0
000060 00 00 00 00 00 00 00 00 00 00 00 00 00 00 00 00
       0.0 0.0 0.0 0.0
000070 00 00 00 00 00 00 00 00 00 00 00 00 00 00 00 00
       0.0 0.0 0.0 0.0
000080 00 00 00 00 00 00 00 00 00 00 00 00 00 00 00 00
       0.0 0.0 0.0 0.0
000090 00 00 00 00 00 00 00 00 00 00 00 00 00 00 00 00
       0.0 0.0 0.0 0.0
0000a0 00 00 00 00 00 00 00 00 00 00 00 00 00 00 00 00
       0.0 0.0 0.0 0.0
0000b0 00 00 00 00 00 00 00 00 00 00 00 00 00 00 00 00
       0.0 0.0 0.0 0.0
0000c0 00 00 00 00 00 00 00 00 00 00 00 00 00 00 00 00
       0.0 0.0 0.0 0.0
0000d0 00 00 00 00 00 00 00 00 00 00 00 00 00 00 00 00
       0.0 0.0 0.0 0.0
0000e0 00 00 00 00 00 00 00 00 00 00 00 00 00 00 00 00
       0.0 0.0 0.0 0.0
0000f0 00 00 00 00 00 00 00 00 00 00 00 00 00 00 00 00
       0.0 0.0 0.0 0.0

base.mlp.fc_h.2.weight f4 [64]
000000 00 00 80 3f 00 00 80 3f 00 00 80 3f 00 00 80 3f
       1.0 1.0 1.0 1.0
000010 00 00 80 3f 00 00 80 3f 00 00 80 3f 00 00 80 3f
       1.0 1.0 1.0 1.0
000020 00 00 80 3f 00 00 80 3f 00 00 80 3f 00 00 80 3f
       1.0 1.0 1.0 1.0
000030 00 00 80 3f 00 00 80 3f 00 00 80 3f 00 00 80 3f
       1.0 1.0 1.0 1.0
000040 00 00 80 3f 00 00 80 3f 00 00 80 3f 00 00 80 3f
       1.0 1.0 1.0 1.0
000050 00 00 80 3f 00 00 80 3f 00 00 80 3f 00 00 80 3f
       1.0 1.0 1.0 1.0
000060 00 00 80 3f 00 00 80 3f 00 00 80 3f 00 00 80 3f
       1.0 1.0 1.0 1.0
000070 00 00 80 3f 00 00 80 3f 00 00 80 3f 00 00 80 3f
       1.0 1.0 1.0 1.0
000080 00 00 80 3f 00 00 80 3f 00 00 80 3f 00 00 80 3f
       1.0 1.0 1.0 1.0
000090 00 00 80 3f 00 00 80 3f 00 00 80 3f 00 00 80 3f
       1.0 1.0 1.0 1.0
0000a0 00 00 80 3f 00 00 80 3f 00 00 80 3f 00 00 80 3f
       1.0 1.0 1.0 1.0
0000b0 00 00 80 3f 00 00 80 3f 00 00 80 3f 00 00 80 3f
       1.0 1.0 1.0 1.0
0000c0 00 00 80 3f 00 00 80 3f 00 00 80 3f 00 00 80 3f
       1.0 1.0 1.0 1.0
0000d0 00 00 80 3f 00 00 80 3f 00 00 80 3f 00 00 80 3f
       1.0 1.0 1.0 1.0
0000e0 00 00 80 3f 00 00 80 3f 00 00 80 3f 00 00 80 3f
       1.0 1.0 1.0 1.0
0000f0 00 00 80 3f 00 00 80 3f 00 00 80 3f 00 00 80 3f
       1.0 1.0 1.0 1.0

base.mlp.fc_h.2.bias f4 [64]
000000 00 00 00 00 00 00 00 00 00 00 00 00 00 00 00 00
       0.0 0.0 0.0 0.0
000010 00 00 00 00 00 00 00 00 00 00 00 00 00 00 00 00
       0.0 0.0 0.0 0.0
000020 00 00 00 00 00 00 00 00 00 00 00 00 00 00 00 00
       0.0 0.0 0.0 0.0
000030 00 00 00 00 00 00 00 00 00 00 00 00 00 00 00 00
       0.0 0.0 0.0 0.0
000040 00 00 00 00 00 00 00 00 00 00 00 00 00 00 00 00
       0.0 0.0 0.0 0.0
000050 00 00 00 00 00 00 00 00 00 00 00 00 00 00 00 00
       0.0 0.0 0.0 0.0
000060 00 00 00 00 00 00 00 00 00 00 00 00 00 00 00 00
       0.0 0.0 0.0 0.0
000070 00 00 00 00 00 00 00 00 00 00 00 00 00 00 00 00
       0.0 0.0 0.0 0.0
000080 00 00 00 00 00 00 00 00 00 00 00 00 00 00 00 00
       0.0 0.0 0.0 0.0
000090 00 00 00 00 00 00 00 00 00 00 00 00 00 00 00 00
       0.0 0.0 0.0 0.0
0000a0 00 00 00 00 00 00 00 00 00 00 00 00 00 00 00 00
       0.0 0.0 0.0 0.0
0000b0 00 00 00 00 00 00 00 00 00 00 00 00 00 00 00 00
       0.0 0.0 0.0 0.0
0000c0 00 00 00 00 00 00 00 00 00 00 00 00 00 00 00 00
       0.0 0.0 0.0 0.0
0000d0 00 00 00 00 00 00 00 00 00 00 00 00 00 00 00 00
       0.0 0.0 0.0 0.0
0000e0 00 00 00 00 00 00 00 00 00 00 00 00 00 00 00 00
       0.0 0.0 0.0 0.0
0000f0 00 00 00 00 00 00 00 00 00 00 00 00 00 00 00 00
       0.0 0.0 0.0 0.0

base.mlp.fc2.0.0.weight f4 [64, 64]
000000 27 6b 2c 3d c1 4d 86 3e 05 c8 c1 3e 73 0a 01 be
       0.042094376 0.26231197 0.37847915 -0.12601642
000010 18 98 6d 3e 74 e8 f6 bc 8d e1 d6 bd 08 4b 0e 3f
       0.2320255 -0.03014014 -0.10492239 0.5558324
000020 4c b0 41 bd 39 f5 4a 3c e6 86 e3 be 13 0e 4b be
       -0.04728727 0.012387567 -0.44438857 -0.19829588
000030 b0 10 ad 3e c2 b0 92 3d 83 a4 06 3f c9 ff 26 3f
       0.33801794 0.0716262 0.52594775 0.6523405
000040 6f 40 33 3e b7 ce 2c 3d 9c f7 5b 3e ba d1 94 3e
       0.17505048 0.042189326 0.21481174 0.2906626
000050 a8 c5 ea 3d 5b d7 98 3e 6f f5 22 3f d5 76 7b be
       0.11463481 0.29851803 0.6365575 -0.2455705
000060 66 60 23 3e aa 9f e9 3d 71 e2 52 3e 33 de ce 3e
       0.15954742 0.11407407 0.20594193 0.404039
000070 5e ea ac 3e 3e 92 bb bc bc 67 d2 3c 92 04 3e be
       0.33772558 -0.022896882 0.02568423 -0.18556431
000080 52 06 8a be 29 1f b4 be b9 f9 2b 3e a4 0a 79 3e
       -0.26957947 -0.35180023 0.1679448 0.24320465
000090 59 26 8e bd d9 bc e0 bd 7c 28 3b 3e 23 92 05 bf
       -0.06940908 -0.1097352 0.18277162 -0.5217611
0000a0 6b 72 0a bd 0d ce 03 bf 9c 58 39 3d 94 a6 a2 3c
       -0.033800524 -0.51486284 0.04525052 0.019854821
0000b0 a6 5f 07 3f 79 fa 8c 3d cf 0e a6 3e 2c 52 5b be
       0.5288032 0.06883711 0.32433173 -0.21418065
0000c0 8b 27 67 3e 47 c2 92 be 23 60 d7 be 60 61 1b 3f
       0.22573678 -0.28663847 -0.42065534 0.6069546
0000d0 de fb f9 bd 8e 95 4f b8 03 52 84 be 30 dd c7 3e
       -0.12206243 -4.949193e-05 -0.2584382 0.3903594
0000e0 1c 28 33 be b2 2b f9 bd d0 df 5f 3e f9 4a 17 3e
       -0.1749577 -0.12166537 0.21862721 0.14774694
0000f0 58 65 2f 3f 32 a6 d4 be 2d c9 e5 bd 6b 5a 53 3e
       0.68514013 -0.41533047 -0.11220012 0.2063996
000100 d7 33 c7 3d e6 0b 00 3e be 64 9e 3c dd 3d d1 3e
       0.097266845 0.12504539 0.019335147 0.4086751
000110 44 eb c8 3e 81 63 c9 3e 4a 97 80 be 86 e3 19 3e
       0.39241993 0.39333728 -0.25115424 0.150282
000120 29 98 33 3e ee 9d b5 be 70 3f ac 3e 2f 99 92 bd
       0.17538513 -0.35472053 0.3364215 -0.07158124
000130 3f 11 7f 3e 98 8e 03 bf 29 51 bc 3e cc e5 d5 be
       0.24908923 -0.51389456 0.3678067 -0.41776884
000140 54 93 a2 be ca 77 2c bc 59 e7 cd be b8 98 61 be
       -0.31753027 -0.010526607 -0.40215567 -0.22030914
000150 0c 12 c0 bd 62 a0 f8 bd 7f 41 c0 3b c5 35 df 3d
       -0.09378442 -0.121399656 0.0058671827 0.108989276
000160 c6 ba 70 3e 47 22 cf bd 47 55 75 be 94 ad 10 bf
       0.23508748 -0.1011396 -0.23958312 -0.5651486
000170 24 06 e0 3e 6a 2f 79 3f 2d e0 3b 3e 02 9e 9f be
       0.43754685 0.97337973 0.18347235 -0.31175238
000180 cd 62 bb 3e bb 1b 83 bd d7 39 48 be 8f d3 83 3e
       0.36598817 -0.064017735 -0.19553314 0.25747344
000190 6f 96 8e 3e 2d 85 08 bf 75 9b 20 3e 76 bf 2a bf
       0.27849147 -0.5332821 0.15684302 -0.66698396
0001a0 c3 00 1e 3e 05 52 c9 be 4d e3 5b be 81 8f 36 3f
       0.15429978 -0.39320388 -0.21473427 0.7131272
0001b0 92 a4 d7 3e 88 11 4a 3e 7a 2c 12 3c 95 25 3f be
       0.42117745 0.1973325 0.008921737 -0.1866668
0001c0 d1 1d b5 3e 6a 20 96 be 4e 0d b7 bd 4c 00 54 be
       0.3537431 -0.29321605 -0.089380845 -0.20703238
0001d0 3a 34 ce 3e 90 fd 90 3e 0f db 1b bd da ca ff be
       0.4027422 0.28318453 -0.038050707 -0.4995945
0001e0 fe 98 cb bd 6c 1a 24 3f d2 08 a7 be ac 03 a2 3e
       -0.0994129 0.64102817 -0.32623917 0.31643426
0001f0 1d 5b c4 3e 22 eb 12 bf 36 31 3a 3b 0a 35 09 3f
       0.38350764 -0.57390034 0.002841068 0.53596556
000200 e2 5a fe be 98 db d0 3d 73 eb 95 ba f6 87 cb 3e
       -0.49678713 0.10198134 -0.0011437967 0.39752167
000210 28 60 db 3e be 20 5e 3e 42 9f a1 3e bb cb ba 3e
       0.428468 0.21692178 0.31566817 0.3648356
000220 0a 4d f6 be c8 88 96 3e 0b bc 0f 3f 7e 15 c7 3d
       -0.4810565 0.2940123 0.56146306 0.09720896
000230 2b 56 66 3e cd 78 44 3f 00 39 92 be 77 2d 18 be
       0.22493808 0.7674683 -0.28559113 -0.14861093
000240 7c 58 cf 3d 75 98 1d bf b7 ec d5 be e5 31 08 3e
       0.10124299 -0.61560756 -0.41782162 0.13300283
000250 27 0b 0a 3e 45 c3 76 3e fb b5 22 3d 49 58 8e be
       0.13480817 0.24097927 0.03972433 -0.2780173
000260 77 a4 c6 3e 31 4a 83 be dc 5f 5b 3d 57 3b 9d be
       0.38797352 -0.2564254 0.053558215 -0.30709335
000270 9b b4 04 3f fc b3 09 3f 2d 33 7e 3e 9d c6 09 3f
       0.5183808 0.5379026 0.2482421 0.53818685
000280 c2 63 9f 3d a4 d8 d0 be ac 66 c4 3e ab b4 23 3f
       0.07782699 -0.40790284 0.38359582 0.6394755
000290 d9 e4 02 3e 8c 5d fb 3d b7 6a 9e be d6 95 c7 3e
       0.12782611 0.12273702 -0.30940792 0.38981503
0002a0 02 07 a7 be a2 5d f5 bd f5 39 85 3c 93 78 ce bd
       -0.32622534 -0.1198075 0.016262988 -0.100815915
0002b0 21 02 7c 3e aa 90 84 3e ff 09 a1 3e b4 f8 2c be
       0.24610187 0.2589162 0.3145294 -0.16891748
0002c0 1d a0 87 3e a0 70 27 be 16 2e 92 be 78 88 b9 bd
       0.26489344 -0.16351557 -0.28550786 -0.090592325
0002d0 de f6 cc bd b8 79 18 3e 63 da d1 bc 07 e0 d7 3d
       -0.10008024 0.14890182 -0.02561683 0.10540777
0002e0 b8 21 9c 3e f1 93 55 3f 12 c7 14 3f d6 ae 90 3c
       0.30494475 0.83428866 0.5811626 0.017661493
0002f0 e2 a9 29 be 8a 5b 9f bd 5e 9f f6 3e e1 1d 09 3f
       -0.16568711 -0.077811316 0.48168463 0.53561217
000300 f2 de 50 3d 01 b9 f0 be c5 96 9c 3e 15 f5 04 bf
       0.050993867 -0.47016147 0.30583778 -0.51936466
000310 de 25 a5 be 63 47 98 bd 73 95 37 3e 1a 64 94 be
       -0.32255453 -0.07435491 0.17928104 -0.2898262
000320 23 4c 71 3e 96 de 3e bd 73 f1 9d 3d dd aa ef 3e
       0.235642 -0.046598993 0.077120684 0.46810046
000330 2c 4d 3c be 2a ab f0 be 5b d5 ae bd d0 a2 9d 3d
       -0.18388814 -0.47005588 -0.08536788 0.0769707
000340 1e 10 a0 bd 95 e2 bc be 67 8c 9a be 5c e9 d2 3e
       -0.07815574 -0.36891618 -0.30185243 0.41193664
000350 ae 50 d8 be a3 44 91 bd 70 e4 03 3f b3 2b 91 be
       -0.42249054 -0.070931695 0.5152044 -0.28353652
000360 e4 48 29 bd 44 bb 58 3e a0 a6 37 3e 03 a2 76 bd
       -0.04132928 0.21165186 0.17934656 -0.0602131
000370 a1 ed 58 be a0 81 f1 be c6 46 1e 3e 5f 45 ab 3e
       -0.21184398 -0.4716921 0.15456685 0.33451363
000380 a5 78 64 3e 76 0d a1 3e 94 fc b0 3e 8f 7d 83 3e
       0.22311647 0.31455582 0.34567702 0.2568173
000390 d1 1a fe bd f5 7b d9 3e 7c a8 b9 3e f1 a7 a7 bd
       -0.124074586 0.42477384 0.36261356 -0.08186329
0003a0 78 c4 02 be 16 e5 4b 3f d9 da f0 3d dc 53 24 3d
       -0.1277026 0.7964643 0.11760492 0.040119037
0003b0 c8 1d db bd b8 17 af 3e 34 55 81 3e d5 c9 1f bd
       -0.1069904 0.34197783 0.25260317 -0.03901084
0003c0 2c 05 59 be e6 37 16 bf 9d 7a 3d be af bc bc 3e
       -0.21193379 -0.58679044 -0.18503805 0.36862704
0003d0 a4 00 dd be 4c 5d a8 be 63 2a ca 3e e0 3d aa be
       -0.4316455 -0.3288368 0.39485464 -0.33250332
0003e0 fa ab b5 be d4 52 2d be 1b 4f 88 be a9 48 08 3f
       -0.3548277 -0.16926128 -0.26622853 0.5323587
0003f0 86 1e a9 bd 1d e8 3f 3f 5c 87 23 3e b9 ef a6 3d
       -0.08257775 0.7496355 0.15969604 0.08151192

base.mlp.fc2.0.0.bias f4 [64]
000000 49 c4 71 be cf 5c 6f be 69 64 6a be 42 9b 19 be
       -0.23610033 -0.23375247 -0.22889866 -0.15000632
000010 44 e5 cf be cc 83 7c bb 17 6a 66 bd 88 32 58 3c
       -0.40604603 -0.0038530705 -0.05625352 0.013195641
000020 cb 72 da bd 00 28 01 be 39 21 37 be 14 e2 78 bb
       -0.10666426 -0.12612915 -0.17883767 -0.003797655
000030 10 fe 31 3d 04 49 63 bd 0c 4e 7d 3d 55 d3 89 be
       0.043455184 -0.055489555 0.06184201 -0.26919046
000040 ff d7 cc bd 64 24 f6 bc bc 55 06 bf 03 37 c1 3d
       -0.100021355 -0.03004665 -0.5247457 0.09434321
000050 9b 0b 95 3c e8 e7 d5 3d 03 9c 35 be d7 99 37 be
       0.01819401 0.10444623 -0.17735295 -0.17929779
000060 35 a1 ae bd 67 0b 0e bd be 8a b4 3f 86 db 70 be
       -0.085268416 -0.034678843 1.4104841 -0.23521242
000070 1d a7 de bd 68 55 ec bd 5e 03 31 be a6 96 8c be
       -0.10871718 -0.115397274 -0.1728644 -0.27458686
000080 08 ca 3d be e5 aa 24 be 94 28 09 be a9 17 80 be
       -0.185341 -0.16080816 -0.13394386 -0.2501805
000090 7a 81 9b 3a 45 8f 1c be 06 a9 10 be 3e 12 da 3d
       0.0011864149 -0.15289028 -0.14126977 0.10648011
0000a0 a4 c0 83 be 71 31 4c be 42 54 20 be 4a 93 4a 3d
       -0.2573291 -0.19940735 -0.15657142 0.049456872
0000b0 ff db c1 bd 2a 59 6c be 97 3a 08 be 72 48 b9 3d
       -0.09465789 -0.23080888 -0.133036 0.09047021
0000c0 3e 7b 48 bd 4c d9 9d bd 70 b9 6a be e1 2e f7 bd
       -0.048945658 -0.07707462 -0.22922301 -0.12069488
0000d0 70 03 e2 bc 29 40 91 be ec 85 0a be f1 6d 03 be
       -0.02758953 -0.28369263 -0.1352765 -0.12834908
0000e0 6d 3a af be be f8 25 3d 7f f0 cd 3c 81 b0 18 3a
       -0.34224263 0.040520422 0.025139092 0.0005824641
0000f0 4b 91 80 be e7 ab 15 be e9 48 fb bc b0 f9 56 3e
       -0.2511085 -0.14616357 -0.030674415 0.20993686

base.mlp.fc2.0.2.weight f4 [64]
000000 f4 49 17 3f f1 5b 53 3f e9 8e 6a 3f 3d 2e 70 3f
       0.5909722 0.82562166 0.91624314 0.93820554
000010 4f c2 18 3f a3 bc 3f 3f 0c 0e 1c 3f 15 2f 84 3f
       0.5967149 0.7489721 0.60958934 1.0326868
000020 4b a8 4d 3f 08 28 57 3f 32 de 98 3f b6 07 5d 3f
       0.8033492 0.8404546 1.1942809 0.8633989
000030 0b eb 86 3f 18 00 9c 3f d5 6b 9e 3f 41 58 59 3f
       1.054048 1.2187529 1.2376658 0.8490029
000040 73 69 6f 3f 3e b7 55 3f 16 5a 4c 3f 3c 2b ca 3f
       0.9352028 0.8348273 0.7982496 1.5794444
000050 06 c6 4f 3f 47 16 26 3f 07 11 5c 3f d0 4d 7e 3f
       0.81161535 0.6487774 0.8596348 0.9933748
000060 d9 f3 6e 3f 2e b2 29 3f 8f dd 7f 3d d7 06 11 3f
       0.9334083 0.66287506 0.062467154 0.5665106
000070 92 a8 60 3f 87 ac 87 3e bf f9 1e 3f c7 b4 9b 3f
       0.8775722 0.26498815 0.6209983 1.2164544
000080 67 a0 24 3f 37 1b 58 3f c9 d4 6a 3f 57 d4 0e 3f
       0.64307255 0.84416527 0.91730934 0.55792755
000090 10 57 90 3f 71 5a 5f 3f 08 79 e2 3e fa af 6b 3f
       1.1276569 0.8724738 0.44232965 0.92065394
0000a0 4e 0d 44 3f 3a fb 3d 3f 6d 06 4b 3f 91 f7 b1 3f
       0.765828 0.74211466 0.7930668 1.3903676
0000b0 cb 58 67 3f 5e 76 22 3f 42 61 26 3f e1 fc 04 3f
       0.9036986 0.63461864 0.64992154 0.5194836
0000c0 0d 2e 29 3f ac fa 62 3f 9c d1 1f 3f 5f e6 1e 3f
       0.6608589 0.88663745 0.62429214 0.6207027
0000d0 17 1b f0 3e db ef 54 3f e2 27 64 3f ca 35 b8 3e
       0.46895668 0.8317849 0.89123356 0.35978538
0000e0 19 b4 9d 3f 7d d9 59 3f 54 8b 40 3f d1 2c 8d 3f
       1.2320586 0.85097486 0.752126 1.1029302
0000f0 db 41 30 3f e2 af c1 3e f8 0a 78 3f 5a b8 01 3f
       0.6885049 0.378295 0.96891737 0.50671923

base.mlp.fc2.0.2.bias f4 [64]
000000 a4 c5 d0 3d 8c 72 85 3d 3f 84 91 3d 58 0d 11 3e
       0.10193947 0.06515989 0.07105302 0.14165246
000010 cb e3 1b 3e c4 85 f4 3c ef 47 e8 3d 93 a9 92 3e
       0.15223615 0.02984894 0.11341845 0.28645
000020 ae 86 d1 3d 0e cd e1 3d e6 e9 d8 3d 90 99 90 3d
       0.10230766 0.11025439 0.105914876 0.0706054
000030 ef c2 94 3e 59 50 a9 3e 5b eb c7 3d 46 e6 01 3e
       0.29054973 0.33069113 0.09761687 0.12685499
000040 b8 1b 8d be ed 47 cd 3d 07 98 be 3e 0e b6 aa 3e
       -0.2756021 0.100234844 0.37225363 0.33342022
000050 1c db b0 3c dd 6a fa bc 61 63 fb 3d 35 ae 0c bd
       0.021588854 -0.030568535 0.122748144 -0.034345824
000060 3b 3c 27 3e 06 db cc 3d fe 74 ea be 43 7b 15 3d
       0.1633157 0.10002713 -0.45792383 0.036494505
000070 be 6e f3 3d 03 2e 4c bd 99 ce f7 3c 86 d8 68 3e
       0.11886357 -0.049848568 0.03024988 0.22738847
000080 e4 fa f9 3b 4a ce 36 be 86 39 0c 3d cf 3c e9 bc
       0.0076287854 -0.1785213 0.034234546 -0.028471379
000090 91 49 4c 3e 7d 22 22 3e 06 b5 fa 3d 05 98 ad 3d
       0.19949938 0.15833469 0.12241559 0.08476261
0000a0 3f 64 07 3e 8e 57 ee 3d e2 e6 6f 3d 15 3a 80 3e
       0.13221835 0.116377935 0.058569796 0.25044313
0000b0 5b ca 67 3e 18 6e 49 3e e5 b0 02 3d 9b 6a c2 3e
       0.22635786 0.19670904 0.03190698 0.3797196
0000c0 7f 92 d7 3d 18 47 84 3d b1 86 5d 3e d6 89 a8 3d
       0.10525989 0.064588726 0.21633412 0.08229415
0000d0 21 ee b6 bb 4e a2 8f bd a8 3b 14 3e 6e 97 57 3d
       -0.0055825864 -0.07013379 0.14475882 0.05263465
0000e0 29 a2 74 3e 7f 7a 79 3e 0f 86 8a 3d 8c 65 cc 3e
       0.23889984 0.24363135 0.06763851 0.39921224
0000f0 fc d7 83 bc cb f9 4e 3d 8e 01 ab 3d 77 b2 ec bc
       -0.0160942 0.05053119 0.08349906 -0.028893692
