trunk/models/mappo/base_0712/critic.pt (torch, 97077 bytes, 15 tensors)

base.feature_norm.weight f4 [215]
000000 34 91 0b 3f 85 5a 0c 3f 88 ad 00 3f 35 b7 1a 3f
       0.5451844 0.5482562 0.5026479 0.604358
000010 82 bc 11 3f e7 04 21 3f 1c 44 19 3f 66 20 20 3f
       0.56928265 0.62898105 0.5986955 0.62549436
000020 d3 fe 0b 3f 8b eb 91 3f 7f f7 83 3f 3b 9c 9d 3f
       0.54685706 1.1400007 1.0309905 1.2313303
000030 15 5f 42 3f 24 6f ff 3e d1 e1 04 3f 2c 93 8f 3e
       0.75926334 0.4988948 0.5190707 0.2804197
000040 24 d0 87 3f dd 0f 8f 3f 67 93 7b 3f 35 98 1a 40
       1.0610394 1.1176716 0.98271793 2.41554
000050 55 d5 76 40 0a 50 d2 3f 0c 25 9b 3f c1 ba a6 3f
       3.8567708 1.6430676 1.2120681 1.3025743
000060 ed 81 ad 3f 39 44 c9 3f 22 1e bc 3f 68 6f 14 40
       1.3555275 1.5723945 1.4696696 2.3192997
000070 d3 11 d2 3f c7 10 01 40 02 12 3e 40 ed ce 92 3f
       1.641169 2.016649 2.969849 1.1469399
000080 2c 47 5a 3e c0 c5 e2 3f df 80 91 3f 60 8d 88 3f
       0.21316212 1.7716599 1.1367453 1.0668144
000090 d0 8d 27 40 6d 15 86 3b 3d 25 e0 3e 29 77 4a 3d
       2.6180305 0.0040919096 0.4377841 0.049430046
0000a0 14 3e ab 3e 32 c5 d4 3e 7c 11 a7 3f 64 c5 7a 3f
       0.334458 0.41556698 1.3052211 0.97957444
0000b0 1e 18 30 3f d8 11 61 3f 9d 69 b6 3e 5a 66 b3 3e
       0.687868 0.8791785 0.35627452 0.35039026
0000c0 72 f2 fb 3e 97 6e 72 3e fa 28 8e 3f d9 29 46 3f
       0.4920841 0.23674999 1.1106255 0.77407604
0000d0 f7 84 de 3e b7 ab a2 3e f6 20 ff 3e 37 5e f6 3e
       0.4346082 0.31771633 0.49829835 0.48118755
0000e0 0a 0b 44 3f 1f 5a 79 3f 58 af 16 3f 13 40 07 3f
       0.76579344 0.9740314 0.58861303 0.52832144
0000f0 5f df 88 3e 14 2d fd 3e 23 40 05 3f 63 c8 cb 3e
       0.2673292 0.49448454 0.5205099 0.3980132
000100 5a ac 8a 3f 5e 6c 2b 3e b0 0d 99 3e b0 c8 de 3e
       1.0833848 0.16740558 0.29893255 0.43512487
000110 ac 5d c2 3e 94 5c 0a 3f 2e 13 15 3f d1 9a 87 3f
       0.3796209 0.54047513 0.5823239 1.0594121
000120 6e 11 e2 3e f0 1c e2 3e 4a 39 f5 3e 62 88 08 3f
       0.44153923 0.44162703 0.4789527 0.53333104
000130 00 1e f8 3e ff d3 fc 3e 1c f1 4b 3f f6 f4 05 3f
       0.48460388 0.4938049 0.7966478 0.52326906
000140 c7 0c 42 3f e8 5c 4f 3d dd 8a db 3e bf 27 c2 3e
       0.75800747 0.05062571 0.42879382 0.3792095
000150 fd 72 19 3f 7f 56 48 3f 59 db c0 3e 7d 27 1a 3f
       0.59941083 0.7825698 0.3766735 0.60216504
000160 a7 09 6a 3e 5a 9f 09 3f 28 12 d6 3e d4 ac 1b 3f
       0.22855245 0.53758776 0.41810727 0.6081059
000170 a3 96 98 3f 4c 6a 84 3e 7a 8c 24 3f ab a1 b8 3d
       1.1920971 0.25862348 0.6427685 0.09015211
000180 7a 1b ab 3e 41 68 e0 3e 71 5c 25 3f 5e 8b 5c 3f
       0.334194 0.4382954 0.6459418 0.8615016
000190 38 d7 0d 3f ff fe 10 3f bf 6e 55 3e 6f 05 00 3f
       0.5540652 0.56639093 0.20843028 0.5000829
0001a0 52 4e 58 3f d8 8c 11 3f 31 23 87 3f 74 f0 42 3f
       0.8449451 0.56855536 1.0557615 0.7614815
0001b0 f9 40 5e 3f 48 9c 98 3d 40 a9 f3 3e 41 d9 46 3f
       0.8681789 0.07451683 0.47590065 0.77675253
0001c0 93 2e 0f 3f 03 3d 91 3f a6 50 3a 3f 33 19 a1 3f
       0.5593044 1.1346744 0.7277931 1.2585815
0001d0 7e 63 53 3e ed b8 ee 3e 8e 6b 2e 3f 6a 68 9f 3f
       0.20643422 0.46625462 0.68132865 1.245374
0001e0 b6 3b b2 3f fc af ab 3f bd dd 8d 3f d1 79 72 3f
       1.3924472 1.3413081 1.1083294 0.9471713
0001f0 8d 79 b5 3f 61 6c a3 3f 38 bf af 3f 30 68 82 3f
       1.4177719 1.276745 1.373023 1.0188046
000200 f8 81 9b 3f d8 ce 86 3f 43 14 82 3f d3 47 af 3e
       1.2149038 1.0531874 1.0162433 0.34234485
000210 0b f2 2b 3f 02 7a f8 3e e9 c3 f5 3e e4 a7 c3 3e
       0.67166203 0.48530585 0.4800103 0.38214028
000220 f7 60 44 3f 86 5e 6f 3f 2e c2 06 3f bf 13 2a 3f
       0.76710457 0.93503606 0.52640045 0.6643638
000230 ab 5d ce 3f 2f ea cc 3e 1b 35 64 3f 3a 5b 39 3f
       1.6122335 0.40022418 0.8914353 0.72404826
000240 05 47 67 3f 7c 24 f5 3e 0c f1 49 3f f0 b5 85 3e
       0.9034274 0.47879398 0.78883433 0.2611537
000250 15 5b 1d 3f c4 a0 ec 3e 2c 23 c3 3e 83 d9 55 3f
       0.61467105 0.46216404 0.38112772 0.8353502
000260 6a 64 a3 3e c9 91 91 3f 19 9b 9d 3e 8e c5 b9 3e
       0.31912547 1.1372615 0.30782393 0.36283535
000270 27 c4 08 3f 62 e4 c1 3e 96 f5 80 3f 72 6a 5a 3f
       0.53424305 0.37869555 1.0074947 0.8531867
000280 93 f9 27 3f 6a 76 a3 3e 35 64 25 3f b7 9e 0a 3f
       0.65615195 0.3192628 0.6460603 0.5414843
000290 43 3e d4 3e 36 24 69 3f 7a 58 f4 3d c0 e0 9a 3e
       0.41453752 0.9107088 0.11930938 0.30249596
0002a0 5f 80 15 3f e7 5b 2e 3f f7 0b db 3e a9 58 27 3f
       0.58399004 0.6810898 0.42782566 0.6536966
0002b0 0d f3 86 3f 86 ed 13 3f fd 3a 20 3f 7a 34 fc 3e
       1.0542923 0.57784307 0.6259001 0.49258786
0002c0 88 63 05 3f aa a9 dc 3e 5c 63 d6 3e e7 5a 81 3f
       0.52105 0.43098193 0.4187268 1.0105866
0002d0 26 d6 55 3f ce eb 5c 3f 6f 12 5f 3e 4b a2 f3 3e
       0.8352989 0.8629731 0.21784376 0.47584757
0002e0 95 06 e8 3e 1d 62 a4 3e 4a 2a 5d 3f 2c 0c 6e 3f
       0.45317522 0.32106104 0.86392653 0.9298732
0002f0 7a 23 2c 3f 8d 6f 95 3e a8 f1 0a 3f f8 3f 22 3f
       0.6724163 0.2918667 0.5427499 0.6337886
000300 50 d4 fa 3e e6 9c 3d 3f 74 6f 7e 3f 99 ee 40 3f
       0.48990107 0.74067533 0.99388814 0.7536407
000310 d7 cb 9e 3e ff 6f fb 3e f7 39 1c 3f b9 e9 ff 3e
       0.31014892 0.49108884 0.6102595 0.49983004
000320 f4 0c 93 3f 34 8b 13 3f 42 fa 7e 3f b3 61 10 3e
       1.1488328 0.5763428 0.99600613 0.1409977
000330 0b 36 c4 3e 49 11 04 3f c4 5c f9 3e 20 54 5a 3f
       0.38322482 0.51588875 0.48703587 0.85284615
000340 86 1e 0d 3f 4d ad 92 3d fe 62 92 3e 07 43 0e 3f
       0.551247 0.07161961 0.2859115 0.55571026
000350 1d 91 be 3e a2 97 dd 3e 27 22 85 3f
       0.37220088 0.4327975 1.0401047

base.feature_norm.bias f4 [215]
000000 6d 19 06 bf c3 68 b8 be e9 04 eb be 67 de b6 be
       -0.52382547 -0.36017427 -0.45902184 -0.35716555
000010 62 9d 08 bf 73 55 25 bf 8e 74 0e bf 66 fe 05 bf
       -0.5336515 -0.6458351 -0.556466 -0.52341306
000020 52 c5 12 bf 44 cf 10 3f 3f 29 09 3f 2b e8 1e 3f
       -0.57332337 0.5656626 0.5357856 0.6207301
000030 37 47 7d 3e f8 fe d8 be 98 26 e3 be c4 10 1d be
       0.24734198 -0.42382026 -0.44365382 -0.15338427
000040 30 6b c6 3e 2d 77 f3 3e 33 b6 b4 3e 43 7f 50 bf
       0.38753653 0.4755186 0.35295257 -0.81444186
000050 8e 74 2e 3f 31 08 a7 3e 69 40 b4 3e df 2e fc 3e
       0.681466 0.32623437 0.3520539 0.4925451
000060 75 55 18 3f 70 29 40 bf 55 26 92 3e 1b 00 e5 3e
       0.595054 -0.7506323 0.2854487 0.44726643
000070 41 a1 45 bf 04 3a f6 3e c4 c5 df be 5f 51 a8 3e
       -0.7719918 0.48091137 -0.4370557 0.3287458
000080 28 cc e2 bd e2 4a df be ca fd 6b bf a3 c6 36 bf
       -0.11074096 -0.4361182 -0.92184126 -0.71396846
000090 6b 7c 96 be a0 9b df 3c de 7b 9c 3e ae ad 0e 3d
       -0.29391798 0.027295887 0.30563253 0.034833603
0000a0 b3 cd 4a 3e a8 82 4c be 4e 9c 83 be 36 0d 1f 3e
       0.1980503 -0.19971716 -0.2570519 0.15532383
0000b0 71 05 ba 3e d0 c7 91 3e 30 1a 98 3e 0b f2 6d 3e
       0.36332276 0.28472757 0.2970748 0.23236863
0000c0 f3 ea 26 be f1 5b 16 bf 5f ae 89 3e 82 11 04 be
       -0.16300564 -0.5873404 0.26890847 -0.12897304
0000d0 12 96 b3 3e bf 90 1a 3e 0f 7c 9c 3e 92 0e 9d be
       0.35075432 0.15094279 0.305634 -0.3067518
0000e0 26 e0 34 bf 0a 0a 36 3e 7b b9 41 3e 5a 7e ff 3e
       -0.70654523 0.17777267 0.18918411 0.49901086
0000f0 86 19 82 3e 0b ee 8d 3e cc e9 88 be 34 d1 15 bf
       0.25410098 0.27720675 -0.26740873 -0.58522344
000100 6f af 86 3e 4b 57 a6 3e c0 55 97 3e 90 3b a0 3e
       0.2630572 0.32488474 0.2955761 0.31295443
000110 a2 d1 55 3e 9e ad 57 be 20 85 15 bf b7 02 84 3e
       0.2088075 -0.21062323 -0.5840626 0.2578332
000120 d2 19 8b 3e 40 c9 9c 3e 87 e8 de 3e dd 30 96 3e
       0.27168137 0.30622292 0.4353678 0.29334155
000130 3e cb 84 be 04 52 0b bf d5 ac 2c 3e 5c 73 6c 3e
       -0.2593631 -0.5442202 0.16862805 0.23090881
000140 6a 04 a1 3d 92 a0 a9 bd bc 67 ae 3e 8f 4f 48 be
       0.0786217 -0.082825795 0.34063518 -0.19561599
000150 6b 38 0e bf 4c a7 5b 3e 30 ad 30 3e af c5 95 3e
       -0.55554837 0.21450537 0.17253566 0.29252383
000160 dc 2e 7b 3e b4 83 cd 3e 3a d6 6d be 8a 62 17 bf
       0.24529594 0.40139544 -0.23226252 -0.59134734
000170 e6 55 89 3e 4d 3e 72 3e 62 c0 e7 3e 20 07 3d 3e
       0.26823348 0.23656578 0.45263964 0.18459749
000180 1b 31 4f 3e be 0b 82 be 1a 08 08 bf 77 dc 43 3e
       0.20233576 -0.25399584 -0.5313736 0.1912707
000190 45 fa f8 bd 4b 4d b5 3e ce 0c ed 3d 4d 6a 81 3e
       -0.1215711 0.35410532 0.11574708 0.25276414
0001a0 7d 86 de be 33 49 0a bf 80 31 f5 3d eb ca b2 3d
       -0.4346198 -0.54017943 0.11972332 0.0873011
0001b0 ea 37 d4 3e e4 db e8 3d ca 12 6f 3e ed 30 f1 be
       0.4144891 0.11370066 0.23347011 -0.4710764
0001c0 fb 8e 14 bf a9 fc 82 3e f9 b2 87 3e ce 44 06 3f
       -0.5803067 0.2558339 0.26503733 0.5244874
0001d0 55 8b 62 3e 0b b0 8c 3e 0d 19 b0 be cb 19 b9 3e
       0.22123463 0.2747806 -0.34394112 0.3615249
0001e0 00 31 f3 3d 54 5a 11 3e 93 e4 1c 3e 16 c0 9f 3e
       0.118745804 0.14194614 0.15321569 0.31201237
0001f0 c6 6a fb bd 3b 8a e4 3d 31 50 9d 3e 42 68 be 3e
       -0.12276225 0.11159178 0.30725244 0.37188917
000200 6d 1c 59 3e e4 52 ec be 8b d4 64 3e d2 d7 0b be
       0.2120225 -0.4615699 0.22346704 -0.13656548
000210 e2 3a b0 3e c5 90 55 3e 9b 28 21 3e cc 4d 07 bd
       0.34419924 0.20856006 0.15738146 -0.033033177
000220 23 c7 bb be 96 e5 67 3e da c3 a9 be 2d 48 ba 3e
       -0.36675367 0.22646174 -0.33157235 0.3638319
000230 68 ba 5a 3d 93 74 54 3e 00 1c 7f be c5 d3 a9 be
       0.053400427 0.20747595 -0.24913025 -0.3316938
000240 b7 d3 15 3e f8 47 8c be f5 96 91 3e 92 ad ca 3d
       0.14631544 -0.27398658 0.28435484 0.09896387
000250 6d a7 84 3e 9a 95 f8 bd e6 ea f6 be 3a cc 46 3e
       0.25908986 -0.12137909 -0.48226088 0.19413844
000260 10 fa 01 be 09 41 22 3f 01 3e 90 3d cd 0a 2f 3e
       -0.12693048 0.63380486 0.07043076 0.17093964
000270 57 f5 0e be 02 de cd be 36 16 86 3e 8b 77 a9 be
       -0.13960777 -0.4020844 0.2618882 -0.33099017
000280 19 d7 b4 3e 4b bc e9 3d f8 56 60 3e 06 33 8f bd
       0.35320356 0.11412867 0.21908176 -0.06992154
000290 aa 77 0b bf d1 72 23 3e 8b 4a 82 be 92 e6 a8 3e
       -0.5447947 0.15961768 -0.25447497 0.3298841
0002a0 9f 1d 4f 3e 5b e9 82 3e af 75 d6 bd 89 02 94 be
       0.20226143 0.2556866 -0.10471665 -0.28908184
0002b0 e3 30 a4 3e 09 8b 02 bf 43 94 ad 3e e1 78 fb 3d
       0.32068548 -0.509934 0.33902177 0.12278915
0002c0 7d 23 76 3e ef a8 99 bd 90 1e 23 bf e4 dd 2a 3e
       0.24036975 -0.07502925 -0.6371851 0.16686207
0002d0 a2 71 f0 bd 62 b5 6f 3e 58 af 55 3e fe 0e 35 3e
       -0.11740424 0.23409036 0.2086767 0.176815
0002e0 d7 cc 83 bd 23 b5 f6 be 05 c8 40 3e 42 dd 8c bd
       -0.064355545 -0.4818507 0.18826301 -0.06878139
0002f0 4d ed 02 3e 54 e6 ba 3d ba c6 3a 3e f4 01 b1 bd
       0.12785836 0.09125963 0.1823987 -0.08642951
000300 2f ff 17 bf 64 ad 17 3e 87 c7 89 3d f9 f5 ef 3d
       -0.59373754 0.14812237 0.0672751 0.117168374
000310 ef 4c 3e 3e 1f 6d 5a 3e 0c e5 89 bd 23 6d 1f bf
       0.18584035 0.21330689 -0.0673314 -0.62275904
000320 f6 02 76 3e 6c f2 85 3d 22 80 24 3e d6 a2 01 3e
       0.24024567 0.06540379 0.16064504 0.12659773
000330 72 e2 38 3e e1 ff a4 bd 07 03 15 bf 7f cf 6e 3e
       0.18055132 -0.080566175 -0.58207744 0.23321341
000340 b6 21 a6 3c 67 6a 9a 3d 6a 25 3e 3e 8b b1 b2 3e
       0.020279747 0.07539826 0.1856896 0.3490108
000350 8b 9c 82 bd 60 1e 09 bf 1c 95 aa 3e
       -0.063775145 -0.53561974 0.33316886

base.mlp.fc1.0.weight f4 [64, 215]
000000 99 a0 0d 3f 56 5f 0b 3f 07 21 0c 3f b4 31 27 3f
       0.5532318 0.54442346 0.54737896 0.65310216
000010 91 50 a2 3e 44 46 c2 3d 83 31 a2 3e 2c 1f dc 3e
       0.31702092 0.09486058 0.316784 0.42992532
000020 cf fe 93 3e e2 59 9c 3e 88 b2 5b bd 01 6b 91 3e
       0.2890534 0.30537325 -0.053637058 0.2840195
000030 2d 77 ab be bb fd 96 3e 45 89 8f 3c 9f 8a f2 3c
       -0.3348936 0.29490456 0.01752151 0.029607115
000040 70 62 2c be 80 ab 06 bf 0e a8 32 be 8c 04 82 bf
       -0.16834426 -0.5260544 -0.1744692 -1.0157638
000050 19 16 53 3f 0e 38 45 3f 18 8c 08 bf f8 ce 3e 3e
       0.82455593 0.7703866 -0.53338766 0.1863364
000060 79 6e 1a 3f 28 76 81 bf fd 4a 2d 3e bc 40 11 3f
       0.6032482 -1.0114183 0.16923137 0.567394
000070 b5 94 92 bf 34 2a 49 3e 02 ee fa bf b8 c4 8e be
       -1.1451632 0.19645005 -1.9603884 -0.2788446
000080 81 5f f1 bd ff 2e 13 bf 88 a8 95 be 96 8b d2 3c
       -0.11785794 -0.57493585 -0.29230142 0.025701325
000090 20 93 a2 bf 53 fd c6 bd 99 16 a8 3d 40 9b be bd
       -1.2701149 -0.097162865 0.08207435 -0.09306955
0000a0 3f 40 53 bc ff 94 77 be 6f 14 84 bc 8a 85 1d 3e
       -0.012893735 -0.24177931 -0.016123025 0.15382972
0000b0 d4 16 50 bf 02 6b 08 3d f3 02 39 be db d8 37 3d
       -0.8128483 0.033305176 -0.18067531 0.044884544
0000c0 4c cb a0 be 25 8e 39 3c 01 84 82 3e 4a 68 a3 bd
       -0.31405103 0.011325394 0.25491336 -0.07978876
0000d0 4f 70 b1 be 4e 6a bc 3b 16 64 bc bc c5 9a 15 3c
       -0.34655997 0.005749977 -0.022996943 0.009131138
0000e0 63 64 b0 bb d2 78 8e 3e c8 08 6d bd 74 11 d0 3d
       -0.005383061 0.27826554 -0.057869703 0.10159579
0000f0 a9 3f b5 3d 45 c8 aa bc 91 1a 7f be 0b 1c a3 bd
       0.08850033 -0.02084745 -0.24912478 -0.07964333
000100 a9 83 9f 3e 81 96 68 be e9 87 29 be 6d 43 b4 3d
       0.31155136 -0.22713663 -0.16555752 0.08801923
000110 8e 9f 20 be 2c 5e 26 be 7e 48 d1 bd 06 a3 23 3e
       -0.15685865 -0.16246861 -0.10218905 0.15980157
000120 c6 d1 54 be 7d 48 ad be 2f 6d 4b 3e da 09 6a be
       -0.20783147 -0.33844367 0.19865869 -0.2285532
000130 17 32 8f be b3 50 40 be 37 e9 87 3e 59 f2 09 be
       -0.27967903 -0.18780784 0.26545116 -0.13471355
000140 23 42 bd be fc 40 07 3b e2 a9 80 3d d5 a0 46 be
       -0.3696452 0.00206381 0.062824026 -0.1939729
000150 81 10 79 be 3e d7 94 3e 28 ff fb bc 9d e7 96 bd
       -0.24322702 0.29070467 -0.030761316 -0.073683955
000160 47 47 82 bc e3 c8 d8 bc 1e 38 33 be a2 d4 3a be
       -0.015903128 -0.026462978 -0.17501876 -0.18245175
000170 57 c2 de 3e 57 f9 27 3e a9 1c 76 be f9 01 86 3e
       0.43507645 0.1640371 -0.2403437 0.2617338
000180 da fa bd bd b3 f0 4f be 63 d7 ac be 91 bb 14 3e
       -0.09276362 -0.20306663 -0.33758077 0.14524676
000190 38 0d dd bd 8d 98 fb 3d d1 b2 51 be 8c 08 0e be
       -0.10793537 0.12284956 -0.2047837 -0.13870448
0001a0 12 2f 7d bf 1c 9f 2d be 60 ca d9 3d a3 d3 e0 3e
       -0.9889995 -0.16955227 0.10634303 0.43911466
0001b0 c3 b1 e9 bd dc 8d 98 bd 28 c8 ec bc 6a 3b ab be
       -0.114108585 -0.074489325 -0.028904036 -0.33443767
0001c0 a6 80 23 3e bf c1 f4 3e b0 66 36 bc a0 a6 a2 3e
       0.15967044 0.47804067 -0.011132881 0.3176775
0001d0 bb 6b c7 bd d1 03 01 bd d9 73 82 be bb 53 b3 be
       -0.09737345 -0.03149778 -0.2547901 -0.3502482
0001e0 83 cb 98 be 06 87 03 bf 19 5c 5b be ff 7e c9 be
       -0.29842767 -0.51377904 -0.21421851 -0.39354703
0001f0 f5 2c f4 3c 42 5d 1c bf c7 5c 57 bd 92 2d 5c be
       0.029806593 -0.610798 -0.052578714 -0.21501759
000200 dd fb c8 be 09 bb 0c 3f 5e a7 ac 3e c4 49 25 be
       -0.39254656 0.54972893 0.3372144 -0.1614142
000210 1f ee 3b 3e 20 54 46 bd 05 a5 22 be 00 6b a3 bc
       0.18352555 -0.04842007 -0.15883262 -0.019948483
000220 eb c5 ba be 76 85 06 3e c8 bb 00 3f f6 a9 5d 3d
       -0.36479124 0.13136849 0.5028653 0.054117166
000230 fb 22 00 bf b9 05 23 bb a3 c5 5e be 5f 35 05 3f
       -0.50053376 -0.0024875237 -0.2175508 0.5203456
000240 0f 20 c2 bc c9 2b d5 bd 50 ff ac bc 17 18 04 3e
       -0.023696927 -0.10408742 -0.021117836 0.12899815
000250 44 a3 4a be 53 16 da bd a5 38 1c bd df 92 eb 3c
       -0.19788843 -0.10648789 -0.038139958 0.028756557
000260 08 15 c2 3d 7e 74 2e 3e 7f cf 1e 3d 47 17 76 be
       0.09476668 0.17036626 0.038772102 -0.24032317
000270 95 3b e1 3d 53 fd 5f 3e 3b b5 6a 3e 49 f7 14 3f
       0.109976925 0.2187398 0.22920696 0.5818983
000280 b6 12 e2 3e e7 88 da bd c7 38 33 3e 6b b8 05 be
       0.441549 -0.10670643 0.17502128 -0.13058631
000290 59 53 48 3e 1f 51 41 bd c8 90 ab 3e 50 68 85 be
       0.19563045 -0.047196504 0.33508897 -0.26056147
0002a0 41 dc 27 be 61 b8 da be 39 6f 1f be 99 61 f4 3e
       -0.16392614 -0.42718795 -0.15569772 0.4773071
0002b0 05 5f 00 3f 89 09 46 3c ac 9b 8a 3c 05 8f cd 3d
       0.5014499 0.012087234 0.016919933 0.100370444
0002c0 21 62 8d 3d 62 2b 77 3d b5 66 d6 3c a9 11 ab 3d
       0.06903482 0.060344107 0.026172021 0.08352978
0002d0 95 62 24 3f d6 05 b6 be 32 71 e9 bd ae b1 2b be
       0.64212924 -0.35551327 -0.113985434 -0.16766998
0002e0 b1 24 9a bd 3a aa 47 3d a5 78 03 3c 70 99 42 bd
       -0.075265296 0.048746325 0.008024369 -0.04750961
0002f0 6b f9 ac be 94 64 87 be 79 13 7b be e3 e3 7c bc
       -0.3378404 -0.26443923 -0.24519147 -0.015435192
000300 58 fb ce be a2 ba b8 3d 33 06 25 3f f1 2d 1b be
       -0.40426135 0.090199724 0.64462584 -0.15154244
000310 ee 91 fe bc fc 98 8b be d5 5d 24 3e 62 f9 8e be
       -0.031075444 -0.27265155 0.16051419 -0.2792464
000320 cb 34 3f 3e 47 7e 7f 3e e0 f0 da be d8 1e 27 3d
       0.18672483 0.24950515 -0.42761898 0.0408009
000330 d7 3b 0f bb d2 ad 19 3e fe b3 b6 3d fb 63 43 3e
       -0.0021855736 0.15007713 0.089210495 0.19081108
000340 80 af 4f be cb 58 fb 3c 92 fe b5 bd 1b 8e be bd
       -0.20281792 0.030681988 -0.08886446 -0.09304448
000350 04 fd 76 3c 33 ea 2e 3c ed 51 93 3e eb e7 b6 3e
       0.015074972 0.010675955 0.28773442 0.35723814
000360 06 39 a1 3e 84 f5 89 3e f8 63 a0 3e 32 4d e3 3e
       0.31488818 0.26945126 0.3132627 0.44394833
000370 bc 5f 10 3f 71 3d da 3e 70 f4 45 3e 3e dc 12 3f
       0.5639608 0.42625 0.19331527 0.5736731
000380 34 76 51 be de 37 07 bf d4 d4 18 bf a4 4f 84 3e
       -0.20455247 -0.5281962 -0.5969975 0.2584201
000390 39 c7 a9 3e 57 02 ad 3e 32 ce 99 3e 60 ff 49 be
       0.33159807 0.33790848 0.30040127 -0.19726324
0003a0 ec 7a 7c be d1 b8 94 3e fe d5 28 3f 0e c0 6b 3f
       -0.24656266 0.29047254 0.65951526 0.9208993
0003b0 39 86 05 3f 15 6b 09 3f 6c 72 cc be 1c af 0c 3d
       0.5215793 0.5367902 -0.39931047 0.034346685
0003c0 97 13 9a 3f a1 47 f1 bc 8b d7 76 bd c5 b8 07 3f
       1.2037228 -0.0294531 -0.06026415 0.5301631
0003d0 30 a4 fd 3e f7 04 3d bf 92 af 83 3d 04 24 c3 3d
       0.49539328 -0.738357 0.06429972 0.09528354
0003e0 8d 77 ed bb a5 b4 83 3f 5d b1 ce 3e ea 5e d0 bf
       -0.0072469176 1.0289503 0.40369692 -1.6278965
0003f0 e1 f2 13 be 0c d5 a4 3d c7 3f a5 bd 92 b7 8a 3d
       -0.1444812 0.08048448 -0.08068805 0.067732945

base.mlp.fc1.0.bias f4 [64]
000000 99 bb 2e 3f 41 29 0d be aa 2c 19 be 80 c7 0b 3f
       0.68255 -0.13785268 -0.14958444 0.5460129
000010 ff 28 0f be 10 f6 10 be a4 21 63 be 44 28 9c 3e
       -0.13980483 -0.14156365 -0.22180802 0.3049947
000020 63 7f f9 bd 32 6e 1a 3d fe ca 95 3d ea 6c 39 3e
       -0.121825 0.037702747 0.07314108 0.18107954
000030 44 f4 23 3f fe 8d 1e be 3b 1d 2f be 65 dc 3d bd
       0.64044595 -0.15483853 -0.17100994 -0.046352763
000040 5c a5 2d be d1 99 40 be bd c7 0e be 78 25 4a 3e
       -0.16957611 -0.18808676 -0.13943382 0.19740856
000050 b2 52 79 3b 69 d2 c4 bd e0 5d cd bd e7 a7 36 3f
       0.0038043675 -0.09610445 -0.10027671 0.7134995
000060 a4 f5 64 be b5 01 8c be 0a 7d 06 bd 47 74 40 3d
       -0.2235933 -0.27345052 -0.03283409 0.04698589
000070 b9 c7 fd bd 33 21 4f be bf 44 d2 bd 7b 31 a5 bd
       -0.1239161 -0.20227508 -0.102670185 -0.08066078
000080 d4 ab 55 3e 9b 8f 5b 3d c5 fe df bc 72 4e fc 3e
       0.20866328 0.05360375 -0.027343163 0.492786
000090 94 95 96 bd c9 b1 87 be 51 24 d7 3e 96 6a fa bd
       -0.073527485 -0.26502827 0.42019895 -0.12227361
0000a0 cc 64 c6 3d 68 2f 09 be ce 94 03 bd 7d 00 78 be
       0.09687194 -0.1339699 -0.032124333 -0.24218936
0000b0 77 34 9d be d2 45 c0 be 91 5e 86 3e 26 02 7d be
       -0.3070409 -0.3755327 0.26244023 -0.24707851
0000c0 13 d8 5c 3f 56 1f 1d be 25 29 74 be 1f 24 95 bd
       0.86267203 -0.15343985 -0.2384382 -0.0728228
0000d0 aa a5 2c 3c 6d 24 4d be 7a aa 1a be 97 f4 fb 3d
       0.010537544 -0.20033427 -0.15104094 0.12302511
0000e0 3d a1 0b be 9d f7 32 be fa d3 54 be db c5 fb 3c
       -0.13635726 -0.1747727 -0.20783988 0.030733993
0000f0 14 b5 07 be 0c 26 a4 3e 51 01 4e be f0 44 88 bd
       -0.1325267 0.32060277 -0.2011769 -0.06653774

base.mlp.fc1.2.weight f4 [64]
000000 20 7b c7 3f b3 01 b2 3f 7e e4 33 3f a9 40 b3 3f
       1.558445 1.3906769 0.70270526 1.4004108
000010 80 6a 85 3f 89 1b 75 3f 9c e1 d9 3f bd 51 3c 3f
       1.0423126 0.9574514 1.7021976 0.7356222
000020 2a 66 a0 3f 5d 60 ac 3f ac 37 35 3f 4d c0 44 3f
       1.2531178 1.3466908 0.70788074 0.7685593
000030 ef a9 5b 3f 2b 33 b6 3f 31 d4 a8 3f cb 59 86 3f
       0.85806173 1.4234365 1.3189756 1.0496153
000040 41 e0 9e 3f 93 6e 89 3f 80 0f b4 3f da d8 d2 3e
       1.2412187 1.073687 1.406723 0.4118107
000050 68 84 ca 3e 6b 20 94 3f 87 87 83 3f dc bd 83 3f
       0.39554143 1.1572393 1.0275735 1.0292315
000060 1e 0f 91 3f 49 86 76 3f bd d4 99 3f 3e 8a 8a 3f
       1.1332738 0.9629865 1.2018048 1.0823438
000070 c2 ff 3d 3f 16 f7 37 3f c3 76 4c 3f a9 4a ac 3f
       0.7421838 0.718614 0.79868716 1.3460284
000080 a1 aa 1e 3f 17 ed 1c 3f b9 01 ba 3f ce 17 ef 3e
       0.6197911 0.6129927 1.4531776 0.4669785
000090 e4 91 1d 3f 4d 48 91 3f 53 6e e6 3e a8 c3 bd 3f
       0.61550736 1.135019 0.45006046 1.4825335
0000a0 59 0d 0c 40 d8 5c e5 3f 71 99 80 3f 29 8b da 3f
       2.1883147 1.7918959 1.0046827 1.7073718
0000b0 e9 a6 74 3f a7 a0 e1 3f e1 8b 28 3f cf ae 91 3f
       0.95567185 1.7627152 0.6583844 1.1381472
0000c0 dd dd 8f 3f 8e 6d 4c 3f 41 26 74 3f bb 6b 21 3f
       1.1239582 0.7985467 0.9537087 0.6305501
0000d0 be 3e b4 3f 2b 4f a1 3f 5a 30 89 3f 7e df 4a 3f
       1.4081647 1.2602285 1.0717881 0.7924727
0000e0 6f 06 60 3f ec bb 5a 3f 6f bf a7 3f ea 44 38 3f
       0.87509817 0.85442996 1.3105296 0.71980155
0000f0 f3 11 84 3f 82 14 39 3f ee 35 08 3f 84 fb 6a 3f
       1.0317978 0.7229692 0.5320729 0.9179003

base.mlp.fc1.2.bias f4 [64]
000000 6b 89 54 3f 5f 09 33 3e 85 55 29 3e 94 31 29 3f
       0.83022183 0.17484044 0.1653653 0.66091275
000010 ee 32 7c be e9 ac 8b bd 59 3b 9b be 27 c4 e2 3e
       -0.24628803 -0.06820089 -0.30318716 0.44290277
000020 b5 b0 39 bf f7 4b b2 3e a2 b0 bd be 60 71 6a bd
       -0.7253526 0.34823582 -0.37048823 -0.05723703
000030 de a3 3a 3f 19 a1 ae be 0e db ad be 48 ff 03 bd
       0.7290629 -0.34107283 -0.33956188 -0.032225877
000040 60 91 16 bf 73 24 a0 be 9a d6 88 be 7f 07 3c 3e
       -0.58815575 -0.3127781 -0.26726228 0.18362235
000050 6d 26 34 bc 4b 33 81 be 34 32 55 be 26 58 0c 3f
       -0.01099549 -0.25234446 -0.20819932 0.54822004
000060 a9 6a 4c be eb e2 22 bd 24 dc 03 be bd 4b 85 3e
       -0.19962563 -0.039767187 -0.12876946 0.26034346
000070 d3 a3 51 3d 8a cc 52 3d 25 e9 9a 3e 5e e8 9e be
       0.051181626 0.051464595 0.30256 -0.31036657
000080 61 aa 2c 3e b7 84 2d bd 8b e6 7a 3e 76 02 de 3e
       0.1686187 -0.042362895 0.24502008 0.43361253
000090 b5 86 83 bd a3 51 46 be 43 a3 16 3f 7c 23 be be
       -0.06422178 -0.1936708 0.5884287 -0.37136447
0000a0 e0 d7 fc 3d a9 51 a7 be b3 8e fa be b2 eb 07 bf
       0.123458624 -0.3267949 -0.48936996 -0.5309402
0000b0 14 2c 5c 3d 3d fa 65 bd e1 8e 3f 3f c4 5b a6 be
       0.053752974 -0.05614685 0.7482739 -0.32491887
0000c0 85 86 91 3e de 01 60 3e 3c ae b8 bc a9 a6 2e 3e
       0.28422943 0.21875712 -0.022544019 0.17055763
0000d0 9a 99 d2 3e 33 95 97 be bd 7d 1f bd 0b 91 e4 3e
       0.41132814 -0.29606017 -0.038938273 0.4464191
0000e0 d0 a4 1f be 0c c1 35 bd 7b 2c 31 be 1b 6e 8f be
       -0.15590215 -0.044373557 -0.17302124 -0.2801369
0000f0 ab 0d e9 bc 18 0c ac be fc d7 39 3c b6 40 05 3d
       -0.0284489 -0.33602977 0.011342999 0.032532416

base.mlp.fc_h.0.weight f4 [64, 64]
000000 90 fe 8e be 50 fa 05 3c 5f f2 4e 3e 3a 2f a3 3d
       -0.2792859 0.008177355 0.20209645 0.07967992
000010 0c 94 60 bc 86 ae 9d 3e c2 96 3f bc 2b 08 49 3e
       -0.013707172 0.30797213 -0.011693658 0.19632022
000020 a2 07 ff bd e1 76 ec bb ef 51 13 be 42 fb 0a 3e
       -0.12452628 -0.00721632 -0.14386724 0.1357241
000030 2e 06 69 3e 0c 31 ce 3d 56 5d 8d bd 97 be bd bd
       0.22756264 0.10067949 -0.06902568 -0.09264868
000040 9a 4a 8f bd be cb 95 3d 86 4b b2 3e b6 e1 31 3e
       -0.06996651 0.07314251 0.34823245 0.17371258
000050 d1 36 0b be 3f ff 69 3d 0d 2b 4b be ac dd 2d be
       -0.1359513 0.057128187 -0.19840641 -0.16979092
000060 42 ff e5 3d b9 76 96 be a5 9c 02 bd 11 97 df 3d
       0.11230327 -0.29387453 -0.03188767 0.109174855
000070 66 ac 09 be f7 f8 3b 3d 7a 05 44 3e 41 34 ce 3d
       -0.13444671 0.04589173 0.19142714 0.100685604
000080 5f 02 ba bb 4a 92 2d be 09 d6 d4 bc 48 c8 6a 3e
       -0.005676552 -0.16950336 -0.025980966 0.22927964
000090 3b 12 da 3d 7c 2e b2 bd 48 cb 5a be 2b b0 b2 3d
       0.106480084 -0.087002724 -0.21366608 0.087250076
0000a0 10 30 3f 3e 86 dc 4e bd 28 ad 33 3f 35 7a 6a bd
       0.18670678 -0.050503276 0.7018609 -0.057245452
0000b0 36 ed 38 3c 53 1b 88 be 24 42 68 3d 93 34 88 be
       0.011287024 -0.26583347 0.0567037 -0.2660261
0000c0 b6 00 d8 3d 25 cf 1c 3e 93 fb 9b bd be 3c 16 be
       0.105470106 0.15313394 -0.07616343 -0.14671609
0000d0 87 a7 80 be 5f d0 83 3d aa f4 87 bd f2 6a c8 3d
       -0.25127813 0.06436228 -0.06638463 0.09786023
0000e0 4a e8 c3 3d 15 6c 61 bc 4b 20 68 bc 19 5d 50 3e
       0.0956579 -0.013758679 -0.0141678555 0.20348014
0000f0 29 17 54 be d8 eb 8c 3e 84 84 2e be f5 3e a5 3d
       -0.2071196 0.27523685 -0.17042738 0.08068649
000100 d6 90 c8 3c ba 30 8a bd 30 5e 90 bd 2e 51 7c 3e
       0.024483126 -0.06747575 -0.07049215 0.24640343
000110 d8 3a 89 3d a4 dc 67 3e d5 64 d4 3d 5b 07 40 3e
       0.06700677 0.22642761 0.10370795 0.18752806
000120 f9 47 e6 bd e4 28 ba bd a6 39 e8 bd c3 eb 42 be
       -0.112441964 -0.090898305 -0.113391206 -0.19035248
000130 2c a0 bd 3e b2 03 77 3e 6a 6f 97 be 14 19 9f bc
       0.37036264 0.24122503 -0.2957719 -0.019421138
000140 9a e9 9e 3e 19 53 34 be 55 5a 1a 3d ab 17 90 3c
       0.310376 -0.17609824 0.037683804 0.01758941
000150 a9 0c 61 be 41 d7 61 3e b0 fb 7e 3e e2 c0 26 3d
       -0.21977486 0.22054769 0.24900699 0.04071129
000160 82 b5 ce 3d 7b e7 9b 3c 0e 97 90 3d 9b db d7 be
       0.100932136 0.019031277 0.070600614 -0.42159733
000170 1d 88 21 be f0 2f ab 3e 04 4c 11 be 18 07 3a 3e
       -0.1577458 0.3343501 -0.14189154 0.18166769
000180 67 d8 06 be fe 14 65 be c0 c1 d4 bd b3 0b d9 be
       -0.13168488 -0.22371289 -0.103885174 -0.42391738
000190 63 6d b9 3d ad 44 a4 bd 46 0c 5a 3d 92 8d 1a be
       0.09054067 -0.08020911 0.05323436 -0.15093067
0001a0 0b 3a 62 bd d2 2c 4d be de d4 bf bd 72 25 a4 3d
       -0.055231135 -0.20036629 -0.09366773 0.080149546
0001b0 70 58 38 be 72 0c ae 3d 6c 2b 66 bd e3 39 9a bc
       -0.18002486 0.084984675 -0.056193754 -0.01882643
0001c0 26 62 a2 3d 31 ce fe bd e6 91 79 3e 50 8e bd 3d
       0.079288766 -0.12441672 0.24372062 0.092556596
0001d0 c3 8d 8b bd 29 1c 6b 3e 82 7c 9a 3e 49 46 3a be
       -0.06814148 0.22959961 0.30173117 -0.18190874
0001e0 ba c1 d4 bd 17 db c8 3d db dc f8 bd 3b 64 04 be
       -0.10388513 0.09807413 -0.121515 -0.1292886
0001f0 dd ba 78 3d 6f 56 18 3e 77 4c af bc 2d 7e 6a 3e
       0.06072508 0.14876722 -0.021398766 0.22899695
000200 dd f7 98 3d e6 e9 e5 3d f2 37 98 bd c2 ef 17 be
       0.07469151 0.11226253 -0.07432546 -0.14837554
000210 27 8b 87 be 86 8a 92 be 37 9b 03 be 41 0d 33 3e
       -0.26473352 -0.2862131 -0.12852179 0.17485525
000220 2a d5 05 bd 11 bb 07 bc 76 bd 67 be 69 ff 4c be
       -0.032673992 -0.008284346 -0.22630867 -0.20019306
000230 13 19 47 3e 93 c3 67 3d 8b 9d f4 bd e7 c7 e3 3e
       0.19443159 0.056583 -0.119441114 0.4448845
000240 a2 78 0b 3d af c6 53 3e c6 14 25 3e b1 10 9f 3e
       0.03405059 0.2068126 0.16121206 0.31067422
000250 15 8b d3 bd de 52 c9 bc 97 f6 7b 3a a0 b8 c7 3d
       -0.10329262 -0.024575647 0.0009611635 0.09752011
000260 83 62 3d bd 5b a5 66 bc 99 c9 09 3e aa 06 a0 3e
       -0.046236526 -0.01407751 0.1345581 0.31255084
000270 98 9a 2e be 8e 2a 7a 3d cc 56 eb ba f6 12 3e 3d
       -0.1705116 0.06107574 -0.0017954945 0.0464048
000280 a9 d4 71 3e c4 ca e6 3d fe 25 80 3e a1 6d 78 3e
       0.2361628 0.11269143 0.25028986 0.2426057
000290 c4 00 2e 3d e7 06 1b 3e fb 2a b6 3d 0c cd 6a 3e
       0.0424812 0.15139352 0.088949166 0.22929782
0002a0 48 79 8a 3b 2e b4 46 bd f8 2a c1 bd 73 b4 9d 3d
       0.0042258836 -0.048511676 -0.09432024 0.077004336
0002b0 22 17 9a 3e 94 5b 18 3e 07 9b de 3d 5c fb 88 be
       0.30095774 0.14878684 0.10869413 -0.26754272
0002c0 53 54 86 bd 1d 01 2b be 4e ed 88 3e e9 3b 8e 3c
       -0.06559052 -0.16699643 0.2674355 0.017362552
0002d0 16 71 5b be 61 19 7a 3e 87 60 22 3d a3 75 56 3e
       -0.21429858 0.24423744 0.039642837 0.20943312
0002e0 bc ac 04 3c 6e 56 93 3e 0d 71 52 be 7a 95 81 be
       0.008097824 0.28776878 -0.20550938 -0.25309354
0002f0 c4 6f 71 3d 01 7d 8b be da 8a b1 3d 2f 0d 68 3e
       0.05894448 -0.27243808 0.08669062 0.22661279
000300 bc ce 1e be ec 2a ac bd 8e 60 3e 3d 99 6b 27 be
       -0.1550855 -0.08406624 0.0464788 -0.16349639
000310 11 f3 8f 3d d2 86 3f 3d 9d ed 05 be 28 da e9 3d
       0.07028783 0.046759434 -0.13078924 0.11418563
000320 05 4b 2b be 50 8e 79 3e 2c 0d 9b be 8f 60 89 3b
       -0.16727836 0.24370694 -0.30283487 0.004192419
000330 33 27 76 bd 72 1f 7f bd dc d8 5d bc 66 2e 60 3c
       -0.060095977 -0.062285848 -0.013540473 0.013682937
000340 ad dc 22 be ad d5 64 bd 50 15 85 bd fd f2 54 bd
       -0.15904494 -0.05586784 -0.06498206 -0.051989544
000350 33 26 f6 3c df bb 9f be c3 5b a4 3e c9 34 b6 ba
       0.030047512 -0.31198022 0.3210126 -0.0013901229
000360 f5 ba f1 3d ec ea a9 3c da 90 a8 3d 38 88 8a be
       0.11803237 0.020741902 0.08230753 -0.27057052
000370 a1 2e 34 bd bd 56 38 be b8 64 6f be d1 1b d3 3e
       -0.04398978 -0.18001838 -0.23378265 0.4123216
000380 03 0a a5 3e 26 78 c8 be 25 65 5e 3d 8b a3 81 bd
       0.322342 -0.39154166 0.054295678 -0.063300215
000390 59 18 d3 bd 38 9b 0b 3d 95 c2 94 3d c4 c6 99 3e
       -0.10307378 0.034083575 0.07263676 0.3003446
0003a0 b1 e1 c3 3c 03 88 37 3e f4 22 d1 bd 91 a6 26 3e
       0.023911329 0.17922978 -0.10211745 0.16274478
0003b0 d3 d6 26 be 7c a8 b0 3d 51 a4 25 3d 85 bc 3f 3e
       -0.16292886 0.08625886 0.040439907 0.18724258
0003c0 ed 1d 62 3d a4 75 3d 3d e7 bf c6 be e5 9c 09 be
       0.05520432 0.04625477 -0.38818285 -0.13438757
0003d0 47 36 96 be 46 1e 99 3d 96 c5 8f be ca bb 6e 3e
       -0.29338285 0.07476477 -0.28080434 0.23313823
0003e0 b0 2a d5 be 25 46 fe bd 98 40 82 bd 6e 41 96 3d
       -0.4163413 -0.12415723 -0.063599765 0.073366985
0003f0 a1 55 a5 3d 75 01 86 bd 5d d2 5e bc 51 ca 9f 3d
       0.08072973 -0.06543247 -0.013599959 0.07802261

base.mlp.fc_h.0.bias f4 [64]
000000 00 00 00 00 00 00 00 00 00 00 00 00 00 00 00 00
       0.0 0.0 0.0 0.0
000010 00 00 00 00 00 00 00 00 00 00 00 00 00 00 00 00
       0.0 0.0 0.0 0.0
000020 00 00 00 00 00 00 00 00 00 00 00 00 00 00 00 00
       0.0 0.0 0.0 0.0
000030 00 00 00 00 00 00 00 00 00 00 00 00 00 00 00 00
       0.0 0.0 0.0 0.0
000040 00 00 00 00 00 00 00 00 00 00 00 00 00 00 00 00
       0.0 0.0 0.0 0.0
000050 00 00 00 00 00 00 00 00 00 00 00 00 00 00 00 00
       0.0 0.0 0.0 0.0
000060 00 00 00 00 00 00 00 00 00 00 00 00 00 00 00 00
       0.0 0.0 0.0 0.0
000070 00 00 00 00 00 00 00 00 00 00 00 00 00 00 00 00
       0.0 0.0 0.0 0.0
000080 00 00 00 00 00 00 00 00 00 00 00 00 00 00 00 00
       0.0 0.0 0.0 0.0
000090 00 00 00 00 00 00 00 00 00 00 00 00 00 00 00 00
       0.0 0.0 0.0 0.0
0000a0 00 00 00 00 00 00 00 00 00 00 00 00 00 00 00 00
       0.0 0.0 0.0 0.0
0000b0 00 00 00 00 00 00 00 00 00 00 00 00 00 00 00 00
       0.0 0.0 0.0 0.0
0000c0 00 00 00 00 00 00 00 00 00 00 00 00 00 00 00 00
       0.0 0.0 0.0 0.0
0000d0 00 00 00 00 00 00 00 00 00 00 00 00 00 00 00 00
       0.0 0.0 0.0 0.0
0000e0 00 00 00 00 00 00 00 00 00 00 00 00 00 00 00 00
       0.0 0.0 0.0 0.0
0000f0 00 00 00 00 00 00 00 00 00 00 00 00 00 00 00 00
       0.0 0.0 0.0 0.0

base.mlp.fc_h.2.weight f4 [64]
000000 00 00 80 3f 00 00 80 3f 00 00 80 3f 00 00 80 3f
       1.0 1.0 1.0 1.0
000010 00 00 80 3f 00 00 80 3f 00 00 80 3f 00 00 80 3f
       1.0 1.0 1.0 1.0
000020 00 00 80 3f 00 00 80 3f 00 00 80 3f 00 00 80 3f
       1.0 1.0 1.0 1.0
000030 00 00 80 3f 00 00 80 3f 00 00 80 3f 00 00 80 3f
       1.0 1.0 1.0 1.0
000040 00 00 80 3f 00 00 80 3f 00 00 80 3f 00 00 80 3f
       1.0 1.0 1.0 1.0
000050 00 00 80 3f 00 00 80 3f 00 00 80 3f 00 00 80 3f
       1.0 1.0 1.0 1.0
000060 00 00 80 3f 00 00 80 3f 00 00 80 3f 00 00 80 3f
       1.0 1.0 1.0 1.0
000070 00 00 80 3f 00 00 80 3f 00 00 80 3f 00 00 80 3f
       1.0 1.0 1.0 1.0
000080 00 00 80 3f 00 00 80 3f 00 00 80 3f 00 00 80 3f
       1.0 1.0 1.0 1.0
000090 00 00 80 3f 00 00 80 3f 00 00 80 3f 00 00 80 3f
       1.0 1.0 1.0 1.0
0000a0 00 00 80 3f 00 00 80 3f 00 00 80 3f 00 00 80 3f
       1.0 1.0 1.0 1.0
0000b0 00 00 80 3f 00 00 80 3f 00 00 80 3f 00 00 80 3f
       1.0 1.0 1.0 1.0
0000c0 00 00 80 3f 00 00 80 3f 00 00 80 3f 00 00 80 3f
       1.0 1.0 1.0 1.0
0000d0 00 00 80 3f 00 00 80 3f 00 00 80 3f 00 00 80 3f
       1.0 1.0 1.0 1.0
0000e0 00 00 80 3f 00 00 80 3f 00 00 80 3f 00 00 80 3f
       1.0 1.0 1.0 1.0
0000f0 00 00 80 3f 00 00 80 3f 00 00 80 3f 00 00 80 3f
       1.0 1.0 1.0 1.0

base.mlp.fc_h.2.bias f4 [64]
000000 00 00 00 00 00 00 00 00 00 00 00 00 00 00 00 00
       0.0 0.0 0.0 0.0
000010 00 00 00 00 00 00 00 00 00 00 00 00 00 00 00 00
       0.0 0.0 0.0 0.0
000020 00 00 00 00 00 00 00 00 00 00 00 00 00 00 00 00
       0.0 0.0 0.0 0.0
000030 00 00 00 00 00 00 00 00 00 00 00 00 00 00 00 00
       0.0 0.0 0.0 0.0
000040 00 00 00 00 00 00 00 00 00 00 00 00 00 00 00 00
       0.0 0.0 0.0 0.0
000050 00 00 00 00 00 00 00 00 00 00 00 00 00 00 00 00
       0.0 0.0 0.0 0.0
000060 00 00 00 00 00 00 00 00 00 00 00 00 00 00 00 00
       0.0 0.0 0.0 0.0
000070 00 00 00 00 00 00 00 00 00 00 00 00 00 00 00 00
       0.0 0.0 0.0 0.0
000080 00 00 00 00 00 00 00 00 00 00 00 00 00 00 00 00
       0.0 0.0 0.0 0.0
000090 00 00 00 00 00 00 00 00 00 00 00 00 00 00 00 00
       0.0 0.0 0.0 0.0
0000a0 00 00 00 00 00 00 00 00 00 00 00 00 00 00 00 00
       0.0 0.0 0.0 0.0
0000b0 00 00 00 00 00 00 00 00 00 00 00 00 00 00 00 00
       0.0 0.0 0.0 0.0
0000c0 00 00 00 00 00 00 00 00 00 00 00 00 00 00 00 00
       0.0 0.0 0.0 0.0
0000d0 00 00 00 00 00 00 00 00 00 00 00 00 00 00 00 00
       0.0 0.0 0.0 0.0
0000e0 00 00 00 00 00 00 00 00 00 00 00 00 00 00 00 00
       0.0 0.0 0.0 0.0
0000f0 00 00 00 00 00 00 00 00 00 00 00 00 00 00 00 00
       0.0 0.0 0.0 0.0

base.mlp.fc2.0.0.weight f4 [64, 64]
000000 30 d8 e8 be 0b 13 e4 be 09 5c 2e 3e 2e 27 87 bd
       -0.45477438 -0.4454578 0.17027296 -0.0659927
000010 53 ce 20 3e f6 9e f5 3e f0 6e e4 3c 09 8b 09 be
       0.15703706 0.4797284 0.02788493 -0.13431944
000020 17 30 7a be 81 bc 72 bd df 7a bd be 6c c0 23 bd
       -0.24432407 -0.059261803 -0.37007806 -0.03997843
000030 29 80 e8 3d a7 13 91 3e 88 59 62 3d c3 d1 ae 3d
       0.113525696 0.28335306 0.055261165 0.085361026
000040 a8 1c d8 bd e3 2b 52 3e 09 f9 14 3f dd 9e 44 3e
       -0.10552341 0.20524554 0.581925 0.19201227
000050 9b f9 ee bd e6 f7 85 3e 55 2a c6 bd 21 34 4e be
       -0.11668702 0.26165694 -0.09676043 -0.20137073
000060 64 20 8a 3d 9f c1 63 be 72 64 20 3e 65 f1 5f be
       0.06744459 -0.2224183 0.15663317 -0.21869428
000070 6c fe 56 be 81 07 9d bd b1 20 8b 3e 60 ef 8e 3e
       -0.20995492 -0.07667447 0.2717338 0.27917004
000080 a4 0c 4c 3e a0 0a 0e be 34 e3 40 be 4d b8 88 3e
       0.19926697 -0.1387124 -0.18836671 0.2670311
000090 c2 b2 6a 3b 17 bb b7 3d ea 93 54 be 70 29 88 3e
       0.0035812114 0.089712314 -0.2075955 0.26594114
0000a0 68 c2 cd 3b e8 d1 2d be 48 20 d8 3e b6 2a 94 3d
       0.0062792785 -0.16974604 0.4221213 0.07234709
0000b0 6d e0 bc 3e 04 72 c5 bd 61 7e b3 bd 31 fa 0d bd
       0.36889973 -0.096408874 -0.08764339 -0.03466243
0000c0 9a e5 fe 3d ab 8e 82 3e 74 18 ba 3d 64 ae d5 3d
       0.12446137 0.25499472 0.09086695 0.10433653
0000d0 3f eb f1 be de 7c 66 3e af b7 f3 3d 82 0f 31 3e
       -0.4724979 0.2250857 0.11900269 0.17291072
0000e0 4b ab b1 3e b7 0f f9 3c e5 7a 26 3e f6 c9 c8 3e
       0.34701 0.030403001 0.16257818 0.39216584
0000f0 72 af 85 bc 2c c8 77 3e 59 26 29 3d c7 2b 85 3e
       -0.01631901 0.24197453 0.041296337 0.26009962
000100 e8 cb f4 bd 6b 70 a3 3d 3b d6 95 bd 56 11 4d 3d
       -0.119529545 0.079804264 -0.07316252 0.05006536
000110 fd fc 0d 3e 2e 4d aa 3e ea ca b5 3d 58 82 0f 3e
       0.13866039 0.33262008 0.088765934 0.14014566
000120 0e 28 fb bd 5e 3b 07 be 65 83 38 be 4b 54 88 be
       -0.12263499 -0.1320624 -0.18018873 -0.2662681
000130 6d f0 76 3e 19 8f a5 3e 2b 8e 49 be 40 44 b0 3b
       0.24115153 0.32335737 -0.19683139 0.00537923
000140 3c 13 b6 3e 82 4f c6 bd 90 76 19 3e 58 97 c4 3d
       0.3556155 -0.09683134 0.14986634 0.09599179
000150 1f a3 87 be e7 f0 a7 3e b8 ec cb 3d 9a e3 5a be
       -0.2649164 0.3280098 0.0995726 -0.21375886
000160 e7 4c 8c 3e e0 03 a7 3d a0 90 26 3e e0 6c b1 be
       0.27402422 0.08155036 0.16266108 -0.34653378
000170 49 bd 25 bd 73 40 c4 3e f0 61 d2 bd 93 48 a0 3e
       -0.04046372 0.3833042 -0.10272586 0.3130537
000180 3c b3 52 be 49 99 35 be d5 cb 8a 3d 86 ec 0b bf
       -0.20576185 -0.17734255 0.06777159 -0.5465778
000190 6d a4 ec 3d a9 f2 5e 3b 2d db 96 bd a5 fc 6f bd
       0.11554799 0.0034019148 -0.07366023 -0.05859055
0001a0 2a 8b 16 bc a1 47 48 be a5 76 c2 bd 66 b4 72 bb
       -0.009188453 -0.19558574 -0.09495286 -0.0037033795
0001b0 47 4f c6 bd 3b 04 ac 3e 19 6c 3a be 9f 17 b9 3c
       -0.0968309 0.33596978 -0.18205298 0.022594271
0001c0 e6 31 ce bd 56 da 11 be 79 e1 88 3e 8a 5e 0b 3e
       -0.10068111 -0.14243445 0.26734522 0.13610283
0001d0 79 9e 42 be 80 f2 98 3e 60 3b 6a 3e 5a 45 62 be
       -0.19005765 0.29872513 0.22874212 -0.22096768
0001e0 b4 16 a1 3c 1c 03 8d 3e 2e 7c 10 bd 91 43 88 bd
       0.019664146 0.27541435 -0.035274677 -0.06653512
0001f0 0f 7f 0b 3e a8 25 30 3e c8 25 59 3d 3c e5 9e 3e
       0.13622688 0.17201865 0.053014547 0.31034267
000200 3b c9 78 3e d9 1f 37 3f 05 da 6a 3e ef 0d 12 bc
       0.24295513 0.7153297 0.2293473 -0.008914455
000210 98 b4 8d be ee 0e a0 be 91 c5 36 bf 29 0e 31 3e
       -0.27676845 -0.3126139 -0.7139521 0.17290558
000220 f4 d4 b1 be 79 9c 7a 3e 75 78 84 be 7d 58 6a be
       -0.34732783 0.24473752 -0.2587315 -0.22885318
000230 fe 93 9c 3e 10 0a ef 3d 84 d8 82 bb 2b 82 fd 3e
       0.3058166 0.11671841 -0.003993096 0.49513373
000240 8d 6d 8b be ca 47 90 3e 05 c0 ec 3e ac a5 51 3c
       -0.27232018 0.2817977 0.4624025 0.012795847
000250 80 0b bc be 5d eb 5c bd df 40 7b be 5d 20 84 3e
       -0.36727524 -0.053935397 -0.24536465 0.2580594
000260 5f 63 94 be 6d 27 8c bd 63 a4 2a 3e ce 90 c8 3e
       -0.28982064 -0.06843457 0.16664271 0.39172977
000270 26 2b 37 be 21 46 22 bb f5 80 51 3e e5 1f 5c 3d
       -0.17887554 -0.0024761038 0.2045935 0.053741354
000280 58 65 a9 3e 5f 2f 64 be 40 27 4a 3f f2 07 f3 3e
       0.33085132 -0.22283696 0.7896614 0.47467
000290 74 bd 2c bc 40 48 e8 3d 0d 8b c7 3d 1e cc 75 3e
       -0.010543216 0.113419056 0.09743319 0.24003646
0002a0 33 aa 18 3f f1 20 04 bf c6 49 7a bf 4d aa 11 be
       0.59634703 -0.51612765 -0.9776882 -0.14225121
0002b0 d5 ac 17 3f 4a 7a 92 be d2 f1 a9 3e 4d c0 ff bd
       0.59248096 -0.28608924 0.33192307 -0.1248785
0002c0 50 21 e6 bd a8 08 22 bd 3d 44 81 3e 20 f0 a8 3c
       -0.112368226 -0.039559036 0.25247374 0.020622313
0002d0 1b f4 19 bd cc 22 9b 3e 2a 31 2b 3e 0e 2a 26 3e
       -0.037586313 0.30299985 0.16717973 0.1622698
0002e0 99 36 02 3e ff 31 a4 3e d9 6c 19 be ed 80 07 bf
       0.1271614 0.32069394 -0.14982928 -0.529311
0002f0 2f 3e d0 3d 3b 8c 19 bf f0 12 9f bd 1f 27 b7 3d
       0.101681106 -0.599796 -0.07767284 0.08943009
000300 dd 59 8c be f8 5d 7d be df 2b 14 3e a6 a7 c6 bd
       -0.2741231 -0.24742877 0.1446986 -0.09699945
000310 7e 1e 7a 3e 06 c5 4f 3e fc 48 97 3d 9f 7e 23 be
       0.24425694 0.20290002 0.073869675 -0.15966271
000320 7c 90 9a bd 1e c0 21 3e d0 69 3b bf 8b 25 81 be
       -0.075470895 0.15795943 -0.7320833 -0.25223956
000330 73 b0 e1 bd 23 82 39 3e 3d 85 28 3e c4 6b 3e 3e
       -0.11019983 0.1811605 0.16457076 0.18595797
000340 f3 3f 70 bd 1e 91 83 3d 06 35 53 3e d1 f0 f5 bb
       -0.058654737 0.06424163 0.20625696 -0.007505514
000350 b8 e1 13 3e e6 32 0b be 31 86 e9 3e 05 ae 3f be
       0.14441574 -0.13593635 0.45610192 -0.18718727
000360 87 84 4d 3e db 94 34 3e cd 2c 49 3e f8 3d 05 bf
       0.20070086 0.17634909 0.19645996 -0.5204768
000370 55 95 65 bd d4 ab 1a be 07 56 ca bd f3 d6 1d 3f
       -0.056050617 -0.1510461 -0.0987969 0.6165611
000380 a2 0d 10 3f a5 fc 0f be 89 46 3c be ce 3f 0e 3d
       0.562708 -0.1406122 -0.18386282 0.034728818
000390 8d 13 8e 3d 0b 78 14 3e 2e ce a0 bd 04 0e f5 3e
       0.06937323 0.14498918 -0.07851826 0.47862256
0003a0 4c 54 9b bd 33 55 3b 3d a3 aa c8 be 8f 3e bd 3e
       -0.07584438 0.04573555 -0.39192685 0.3696179
0003b0 a9 27 1c bc 9d e6 14 3e 8b 99 ae bd 67 71 cf 3e
       -0.00953094 0.14541097 -0.0852538 0.40516207
0003c0 9d 2c de bd b4 c6 2d 3e da 24 b2 be 8b fd 07 3e
       -0.10848353 0.1697033 -0.3479374 0.13280313
0003d0 55 65 94 be 32 12 8f 3e b3 37 2c 3d 87 fe 17 3e
       -0.2898356 0.2794357 0.042045306 0.14843188
0003e0 c2 15 c0 be 6c 3e ed 3d e9 e9 f0 3d 1e 1c 02 3e
       -0.375166 0.11584172 0.11763365 0.12706038
0003f0 c1 d9 89 3e 75 9b 15 3d d4 47 3e 3e c5 d7 78 3e
       0.26923946 0.03652521 0.18582088 0.2430106

base.mlp.fc2.0.0.bias f4 [64]
000000 09 1e 54 be d1 df d5 bd c5 f0 3a 3d 5a e6 65 be
       -0.20714583 -0.1044308 0.045639772 -0.22451153
000010 87 5b 34 be 38 5c 08 be 85 b2 fc bd 10 33 2a 3e
       -0.1761304 -0.13316429 -0.123387374 0.16621041
000020 8e fc 38 be 5b 9a 89 3d 79 ae 7b be bb a7 4b bd
       -0.18065092 0.06718894 -0.24578275 -0.049720507
000030 5a 9e b1 bd 8c 15 53 be 86 c0 21 be 9d 1f ba 3c
       -0.08672781 -0.20613688 -0.15796098 0.022720153
000040 76 0a dc 3f a0 08 93 bd 11 0e 0c be 2e c8 00 be
       1.7190692 -0.071793795 -0.13677241 -0.12576362
000050 89 85 33 be 7e 64 7a bd 95 87 f6 bd ac ba 0b be
       -0.17531408 -0.061130993 -0.12037579 -0.13645428
000060 00 0b 23 be 97 10 57 bd 69 71 e7 bd 24 dd a4 3c
       -0.15922165 -0.052506056 -0.11300928 0.02012498
000070 f8 46 20 be fb 54 e8 bc b9 1d 5d bc 48 c7 19 bd
       -0.15652072 -0.028360834 -0.013495856 -0.037543565
000080 43 95 0e 3d f5 38 31 be 99 58 36 be c6 54 39 be
       0.034810316 -0.17306884 -0.17807235 -0.18098745
000090 02 ad cc 3c 53 33 a9 bd b2 55 c4 bd 79 b6 9d bd
       0.02498484 -0.082617424 -0.095866576 -0.077008195
0000a0 ff b7 91 3d 78 ce e3 bd ce be cc bd 7b fa 0e be
       0.071151726 -0.11123365 -0.099973306 -0.13962738
0000b0 08 70 52 be 5f b5 00 be cf 26 49 be 83 3d 57 be
       -0.20550549 -0.12569188 -0.1964371 -0.21019559
0000c0 f7 cc db bd f1 63 0a 3d b9 c1 00 be 24 38 01 be
       -0.10732453 0.033786718 -0.125739 -0.12619072
0000d0 80 c3 2a bd 3e c0 16 be c2 43 8a bd 84 6f 1f be
       -0.04169035 -0.14721772 -0.06751205 -0.15569884
0000e0 71 0a 81 bd bd 99 9b 3f c7 81 59 bc eb ba 2c be
       -0.0630082 1.2156292 -0.01327557 -0.16868179
0000f0 3d e7 0a bd 7e 05 de bd e3 71 43 bd 5b 53 9d bd
       -0.033911932 -0.10840891 -0.047716033 -0.076819144

base.mlp.fc2.0.2.weight f4 [64]
000000 10 e0 9e 3e d5 8c 16 3f 2a ef 06 3f 05 3a db 3e
       0.3103032 0.5880864 0.52708685 0.42817703
000010 d6 eb 10 3f 19 e5 1b 3f ee ea 06 3f 39 67 09 3e
       0.5660986 0.6089645 0.52702224 0.13418283
000020 8d e2 f6 3e 9c d0 d5 3e 1d 52 fc 3e ad 57 41 3f
       0.4821972 0.4176072 0.49281397 0.7552441
000030 4d b5 23 3f 39 00 83 3e fd 73 d4 3e 96 a4 3c 3f
       0.6394852 0.25586107 0.41494742 0.7368864
000040 01 74 be 3d 1b e1 c2 bb a7 6e 11 3f cb bf 0f 3f
       0.0929947 -0.005947245 0.5680947 0.5615203
000050 a6 7a e5 3e c1 7b 36 3f ae 96 1c 3f 48 fc 2c 3f
       0.44820136 0.71282583 0.6116742 0.6757245
000060 bd c9 12 3f fd 7d 40 3f d4 c4 38 3f e8 95 90 3d
       0.5733908 0.7519224 0.72175336 0.07059842
000070 2c 66 08 3f fe 78 60 3f 9d 08 34 3f 3e c7 0d 3f
       0.532809 0.8768462 0.7032564 0.55382144
000080 6c b2 2c b9 8a 33 0a 3f a7 b0 22 3f 0e 9a 08 3f
       -0.00016469666 0.5398489 0.635508 0.5336007
000090 bf 07 52 3d a1 a1 2b 3f 7d 9c ea 3e fd 2e 29 3f
       0.05127692 0.670435 0.45822516 0.66087323
0000a0 d4 8a 5a 3f 92 2d 42 3f 23 86 24 3f ed 56 fe 3e
       0.85368085 0.75850785 0.64267176 0.49675694
0000b0 ab 46 d2 3e ed ee 2c 3f 63 73 05 3f 7b 67 d3 3e
       0.4106954 0.6755207 0.5212919 0.41289887
0000c0 53 98 26 3f b1 53 24 3f 10 dc db 3e b7 83 2c 3f
       0.6507618 0.641902 0.42941332 0.6738848
0000d0 96 39 08 3e 2c 96 1d 3f e3 51 2f 3f c1 4e 2f 3f
       0.13303217 0.6155727 0.68484324 0.68479544
0000e0 35 33 99 3e fb cd b9 3d 18 30 2b 3f de 2d 9d 3e
       0.2992188 0.09072491 0.6687026 0.30699056
0000f0 88 94 ee 3e 64 74 f5 3e 1f 43 10 3f d0 dd 42 3f
       0.46597695 0.47940361 0.5635242 0.7611971

base.mlp.fc2.0.2.bias f4 [64]
000000 55 38 b3 3d cd a7 0d 3e 0d dc a1 bd 6d 09 cf 3d
       0.08750979 0.13833542 -0.079032995 0.1010922
000010 d5 88 d4 3d d0 3d 06 3e 1e 81 f0 3d 35 e2 bd bd
       0.10377661 0.13109517 0.11743377 -0.09271661
000020 f6 88 dc 3d 53 cc 4a be 7b 9f b4 3d 48 11 33 3e
       0.10768311 -0.19804506 0.08819481 0.17487061
000030 2b 26 11 3e d0 13 79 3d af c4 cc 3d 57 0a e5 bd
       0.14174716 0.06080991 0.09998452 -0.11183613
000040 46 d4 17 bf 51 38 ca 3b f3 58 0b 3e 7b 09 00 3e
       -0.5930828 0.006171264 0.1360815 0.12503617
000050 51 62 d5 3d 68 92 23 3e 24 b2 0b 3e 8f 7e 1d 3e
       0.10419143 0.15973818 0.13642174 0.1538031
000060 2f c3 07 3e 65 c0 39 3e 76 7f 26 3e 3b 75 2b bb
       0.1325805 0.18139799 0.1625956 -0.0026162404
000070 ee 29 04 3e 32 54 c5 3c 42 4d 2d 3e 36 83 fc 3d
       0.1290662 0.024087999 0.16924003 0.12329714
000080 1e 59 78 3a f7 e3 02 3e 75 75 1a 3e 08 b5 f2 3d
       0.0009473729 0.12782274 0.15083869 0.11850935
000090 15 c1 6b 3c 57 6b 1b 3e 2f 57 d3 3d 95 3b 17 3e
       0.014389296 0.15177666 0.10319363 0.14768822
0000a0 df 57 8d be db 6a 0d 3e ba 5f 12 3e 90 63 e2 3d
       -0.27606103 0.13810293 0.1429433 0.11054146
0000b0 9b 35 b3 3d 1f aa 1a 3e 01 39 ef 3d 31 e1 dc 3d
       0.08750459 0.15103959 0.116807945 0.10785139
0000c0 bb 8c 2f 3e a9 c9 dd 3d fc c0 b6 3d 20 a1 22 3e
       0.17143528 0.10829479 0.089235276 0.15881777
0000d0 3d b4 09 bc a3 7d 0b 3e 9b bf 2a 3e fa 4c 1c 3e
       -0.008404789 0.13622145 0.16674654 0.15263739
0000e0 3f c9 91 3d c2 a6 d9 be 63 a3 22 3e 92 fc 98 3d
       0.07118463 -0.4251004 0.1588264 0.07470049
0000f0 11 1d e2 3d 48 bb b0 3d 61 0b 11 3e 6e 04 08 3e
       0.110407 0.08629471 0.14164497 0.1328294

v_out.weight f4 [1, 64]
000000 58 5d 8e bc 58 b2 d2 3a 7a 1c c2 bd 72 a2 7a 3b
       -0.017378494 0.0016074879 -0.09478088 0.0038243798
000010 fa 98 4f 3d ff 00 84 3c 52 13 be 3b f3 6c f4 3b
       0.050683 0.016113756 0.005800643 0.007459277
000020 83 c8 a8 3b c8 e3 07 3e a1 fa 3f 3d 4b 21 92 3d
       0.005150856 0.13270485 0.046869878 0.071352564
000030 b0 3f c8 3b f4 c1 d3 b9 2b ab e4 ba a3 d9 c3 bd
       0.0061111078 -0.00040389562 -0.0017446032 -0.09562995
000040 a4 c4 35 bb 93 ea 06 bc 5c 8c 1a 3c f4 05 cc 3b
       -0.0027735615 -0.008234638 0.009432878 0.0062262956
000050 3a a9 86 3a bd 86 ea 3b 82 b8 d8 3b 32 75 93 3c
       0.0010273822 0.0071571753 0.006613792 0.018000219
000060 bb a4 4f 3b 12 af af bd d3 3d e2 3b d7 5e 16 3b
       0.003168388 -0.08578314 0.0069043427 0.0022944713
000070 7b 6f 53 3b 04 df 34 be c8 8d 12 3a 78 b4 2b 3d
       0.0032262492 -0.17663199 0.0005590585 0.041920155
000080 e8 f9 73 ba 43 56 89 3a 28 08 d2 b8 10 0c cb 3b
       -0.0009306953 0.0010477979 -0.000100150995 0.0061965063
000090 70 48 7d bc 66 45 b4 3b 16 d7 84 3b bb 2b e4 3b
       -0.015459165 0.005501437 0.0040539606 0.006963221
0000a0 a9 3f 73 be a7 a6 fe 3c cc f6 eb 3b 00 38 b8 3b
       -0.23754753 0.031085325 0.0072010513 0.00562191
0000b0 a2 53 b4 3b e0 02 e6 3b f0 91 8b 3b af 2c 59 bc
       0.005503134 0.0070193857 0.0042593405 -0.013255282
0000c0 50 06 1a bd 22 ea 01 be b6 94 36 3c 72 f5 cb 3c
       -0.037603676 -0.12686971 0.011143854 0.02489731
0000d0 00 9c 53 bb 26 13 ed 3b 46 e3 8f bc 01 11 f6 3b
       -0.0032289028 0.0072349487 -0.017564427 0.0075093512
0000e0 3e 49 ae ba 8f d4 ff 3b b3 04 e1 bc b6 a7 9e bc
       -0.0013296974 0.0078073214 -0.027468061 -0.01936708
0000f0 a6 15 85 ba dd 6b 6a 3c 29 05 b4 3c 47 55 7e 3e
       -0.0010153546 0.014307943 0.021975117 0.24837218
