trunk/models/model_300/agent.pth (torch, 477519 bytes, 8 tensors)

fc1.weight f4 [128, 134]
0.010016355 -0.0015156546 0.07314199 0.063318014 -0.06694437 -0.010907068 0.042552605 0.026963225
0.040416293 0.045986336 -0.028370757 0.02052253 -0.036592912 0.017265027 0.064723454 -0.023666777
-0.056947075 -0.055930056 0.07403721 -0.034846354 0.07482343 0.07214964 0.08302782 -0.02246726
-0.0722796 -0.0013840463 0.05964923 0.044785228 0.033435162 0.08687404 0.053201254 -0.0076025906
-0.08126239 -0.005666077 -0.018220382 0.043939218 0.014887866 0.02996485 0.030750643 -0.028166274
0.063735105 -0.022185246 0.049513202 0.043802626 0.07992536 0.043655887 0.06186709 0.08344693
0.08295581 0.06345376 0.07260971 0.06425051 0.071579665 0.025584685 -0.08439181 0.06258514
0.06932282 0.04011151 0.023227014 0.0034039104 0.07488588 -0.080085605 0.052672625 -0.059022862
-0.021580573 0.047485035 0.01280326 -0.05506884 -0.0032009576 -0.031627633 0.06716257 -0.02092011
0.058749583 0.021338474 0.06572389 -0.026129926 -0.05974298 0.06676943 -0.022799674 -0.022901068
-0.0663085 0.07056391 -0.045456238 -0.08414707 -0.017120814 -0.034905676 -0.08091941 0.05969481
0.020639066 0.019779474 -0.052778486 -0.0033415225 0.06941499 0.086517505 -0.05176194 -0.020576054
0.017203066 -0.022711443 0.065047204 -0.031740423 -0.07096615 -0.08024672 0.072624296 -0.014772
-0.013110723 -0.0790148 -0.020439763 0.060302734 0.08334289 -0.074820936 -0.056031648 -0.008740732
0.041616414 0.058927424 0.008647116 0.016138563 0.0341237 0.004064653 -0.07128614 0.018307932
0.012543396 -0.037161626 0.042814482 0.051343236 0.08509778 0.009787043 0.06227258 0.041061375
-0.034516957 0.082527354 -0.020331249 -0.02327525 -0.021575775 -0.013293717 0.058088392 0.074056774
0.01666577 -0.07033894 -0.0208827 -0.028704848 -0.018672045 -0.0035089587 0.06571417 0.06782192
-0.011782939 0.08079575 0.07914503 0.08220143 -0.04552472 -0.020155925 -0.07129704 0.036140814
0.046042122 -0.06676449 0.05962071 -0.07865055 -0.06869755 -0.058853865 -0.04652285 0.02775358
0.051613618 -0.08464426 0.04332574 0.009889431 0.07428254 -0.06833904 0.054942798 0.021071155
0.046232827 0.021002075 -0.03301856 -0.000297515 0.05473309 -0.029409643 -0.005788974 0.0011466471
-0.037812687 -0.077066444 -0.030542564 0.021298919 -0.04340736 0.047051914 0.075383134 -0.009035941
-0.036674064 0.08418783 0.07580457 0.004669563 0.03642085 0.032366615 -0.07545499 0.079157345
-0.03929657 -0.046691857 0.051764224 -0.055217303 0.0746823 -0.06975616 -0.009406885 -0.08505923
-0.07055828 0.06972729 0.043251485 -0.03819148 0.072972156 -0.00051796547 0.0017205047 0.025074914
0.040148918 0.014382211 0.058347404 0.05425963 0.046473436 -0.05097568 -0.023793783 -0.071854085
-0.08617819 0.011448445 -0.08511707 -0.04428738 -0.01600336 -0.08192229 -0.074738346 -0.0036176173
-0.08105549 -0.052679185 0.017129477 0.06983149 -0.0010700602 -0.056688737 0.021735713 -0.079287276
-0.045256004 0.013525649 0.039340764 0.07872158 0.017436678 0.08417635 -0.04837737 0.083808556
0.0502445 0.013714191 -0.005806366 -0.08267333 -0.018284624 -0.009014165 0.010090464 0.027045332
-0.027710648 -0.034172297 -0.0077008517 -0.019118194 -0.0015750678 0.045951694 -0.023574984 0.05035214
00000000: a31b 243c eea8 c6ba 78cb 953d e0ac 813d
00000010: 211a 89bd 8fb3 32bc a44b 2e3d fbe1 dc3c
00000020: 8e8b 253d 2b5c 3c3d ca69 e8bc dd1e a83c
00000030: 73e2 15bd 636f 8d3c bb8d 843d d4e0 c1bc
00000040: 5641 69bd ea16 65bd d2a0 973d 0dbb 0ebd
00000050: 073d 993d 31c3 933d 7d0a aa3d 420d b8bc
00000060: 5407 94bd e368 b5ba c052 743d b770 373d
00000070: 4ff3 083d 04eb b13d 8fe9 593d 271f f9bb
00000080: e56c a6bd 80aa b9bb e942 95bc 9cf9 333d
00000090: 3cec 733c d878 f53c c6e8 fb3c f5bc e6bc
000000a0: 8d87 823d d5bd b5bc 5bce 4a3d 626a 333d
000000b0: e8af a33d 84d0 323d 5968 7d3d 39e6 aa3d
000000c0: bce4 a93d 0cf4 813d 66b4 943d c595 833d
000000d0: 5c98 923d f996 d13c 9dd5 acbd a32c 803d
000000e0: 1ff9 8d3d f74b 243d 9446 be3c 2414 5f3b
000000f0: c55d 993d ec03 a4bd 40bf 573d f5c1 71bd
00000100: bec9 b0bc ab7f 423d c4c4 513c dd8f 61bd
00000110: 28c7 51bb fa8b 01bd 888c 893d a760 abbc
00000120: 67a3 703d 06ce ae3c 3f9a 863d 6d0e d6bc
00000130: 0eb5 74bd 69be 883d 62c6 babc 059b bbbc
00000140: c0cc 87bd d083 903d 5230 3abd 4d55 acbd
00000150: f340 8cbc 41f9 0ebd 13b9 a5bd 8c82 743d
00000160: 4213 a93c 9008 a23c 412e 58bd 72fd 5abb
00000170: 7229 8e3d 1730 b13d 5404 54bd 1d8f a8bc
00000180: 72ed 8c3c 590d babc 7837 853d 3f02 02bd
00000190: b356 91bd 6458 a4bd 0cbc 943d 4206 72bc
000001a0: 5cce 56bc 83d2 a1bd 4a71 a7bc 0000 773d
000001b0: adaf aa3d b83b 99bd 7181 65bd 4a35 0fbc
000001c0: f975 2a3d e25d 713d a2ac 0d3c 0535 843c
000001d0: 4bc5 0b3d c830 853b 78fe 91bd 84fa 953c
000001e0: d182 4d3c ca36 18bd 3d5e 2f3d 494d 523d
000001f0: bf47 ae3d d559 203c 8811 7f3d f92f 283d
00000200: a761 0dbd 1a04 a93d b88d a6bc bdab bebc
00000210: aebf b0bc e4cd 59bc 18ee 6d3d 14ab 973d
00000220: a786 883c dd0d 90bd 3212 abbc 6e26 ebbc
00000230: 1ef6 98bc 8ff6 65bb 2795 863d 38e6 8a3d
00000240: 3a0d 41bc 3e78 a53d ca16 a23d 3959 a83d
00000250: 2178 3abd 0a1e a5bc 2f04 92bd 6408 143d
00000260: aa96 3c3d d2bb 88bd d834 743d 8a13 a1bd
00000270: 4db1 8cbd c010 71bd be8e 3ebd 7a5b e33c
00000280: cd68 533d f859 adbd 5576 313d 4807 223c
00000290: 7221 983d 57f5 8bbd b30b 613d 6a9d ac3c
000002a0: a25e 3d3d 8b0c ac3c 783e 07bd cafb 9bb9
000002b0: ce2f 603d 7eec f0bc 6fb1 bdbb 184b 963a
000002c0: 7ae1 1abd 03d5 9dbd 6634 fabc 127b ae3c
000002d0: eacb 31bd 82b9 403d 7962 9a3d 7c0b 14bc
000002e0: 8b37 16bd ab6a ac3d 6d3f 9b3d 2203 993b
000002f0: 072e 153d db92 043d 2588 9abd 3f1d a23d
00000300: 71f5 20bd f63f 3fbd b906 543d 8a2b 62bd
00000310: 09f3 983d 51dc 8ebd 561f 1abc 8933 aebd
00000320: dc80 90bd 2ecd 8e3d 7828 313d ab6e 1cbd
00000330: 6d72 953d 13c8 07ba 8f82 e13a e869 cd3c
00000340: 3173 243d 5da3 6b3c b0fd 6e3d 593f 5e3d
00000350: ee5a 3e3d e0cb 50bd 2eeb c2bc 3c28 93bd
00000360: 317e b0bd 4292 3b3c dc51 aebd af66 35bd
00000370: 7a19 83bc e0c6 a7bd 6b10 99bd 8c15 6dbb
00000380: 6c00 a6bd 21c6 57bd 1e53 8c3c d003 8f3d
00000390: 4341 8cba 7332 68bd 180f b23c 5e61 a2bd
000003a0: 5c5e 39bd af9a 5d3c c823 213d c838 a13d
000003b0: 5dd7 8e3c a664 ac3d 5927 46bd d2a3 ab3d
000003c0: 2dcd 4d3d 7cb1 603c 5443 bebb a350 a9bd
000003d0: a3c9 95bc 26b0 13bc 7952 253c 2c8e dd3c
000003e0: 7101 e3bc 40f8 0bbd 6d57 fcbb c29d 9cbc
000003f0: 8172 ceba d837 3c3d 5320 c1bc 0c3e 4e3d

fc1.bias f4 [128]
0.015159192 0.044283286 -0.031930014 0.06990065 -0.050856695 -0.04959492 -0.047060963 -0.061893135
-0.0054127336 0.05370131 -0.00686532 -0.029158583 -0.044817705 0.04141257 0.08028333 -0.05201533
0.05518801 0.011608432 0.06264768 -0.07894877 0.07011796 0.07191404 -0.049697977 0.073618285
0.034755833 0.025822269 -0.047922738 0.0024999639 0.0026869907 0.034592662 0.053632487 0.019518502
-0.07763966 0.055096414 -0.029111557 -0.057725094 0.0280385 -0.08219601 -0.049716383 0.0009558842
-0.0808992 -0.0810486 0.050226957 0.084173664 0.059819613 -0.053337034 0.04522243 -0.021164319
-0.053366363 0.013353036 -0.02621585 -0.03569156 -0.054302897 -0.05970209 -0.007630287 0.0027434928
-0.05980346 0.008979765 0.05511394 -0.063222095 0.07819015 0.08036198 0.0249965 0.039830916
0.00061825436 -0.06305895 0.048679095 -0.0030418583 -0.059695672 -0.063267775 -0.07911911 -0.022117116
0.01950015 0.07937561 -0.035755124 -0.077395976 0.052465156 0.038724262 0.0745845 0.03188039
0.011601433 0.043928243 0.0032065138 -0.07762013 0.007644708 0.07679495 -0.017124727 0.037709873
-0.018965388 -0.081878014 0.011127863 0.017692368 0.0641852 -0.074385576 0.018110787 -0.055710785
-0.06928789 0.046134677 0.009190258 -0.06443845 -0.042062894 -0.04421844 -0.05918182 -0.016513005
0.002415147 0.07271144 0.009652929 0.08300535 -0.025494942 -0.04264522 0.0030174623 0.046365783
-0.047532737 0.06022217 0.06511093 -0.054824468 -0.088503994 0.0030409088 -0.05272659 -0.08637711
-0.019883333 0.06508183 0.07805281 0.076977186 0.050534118 -0.079906695 -0.071507245 0.022505878
00000000: 425e 783c 6462 353d 0cc9 02bd 1228 8f3d
00000010: 1c4f 50bd 0b24 4bbd ffc2 40bd a883 7dbd
00000020: 4d5d b1bb e8f5 5b3d 7af6 e0bb fbdd eebc
00000030: c592 37bd 3aa0 293d 966b a43d 070e 55bd
00000040: d30c 623d 4b31 3e3c 6d4d 803d e5af a1bd
00000050: 019a 8f3d ab47 933d 1b90 4bbd 2fc5 963d
00000060: 225c 0e3d 3989 d33c a24a 44bd 6fd6 233b
00000070: 3918 303b 09b1 0d3d bdad 5b3d 44e5 9f3c
00000080: 8b01 9fbd c7ac 613d 5c7b eebc 2671 6cbd
00000090: ffb0 e53c 6256 a8bd 68a3 4bbd 4e94 7a3a
000000a0: 7bae a5bd cffc a5bd c8ba 4d3d 3e63 ac3d
000000b0: 6905 753d ef77 5abd 283b 393d cb60 adbc
000000c0: b096 5abd b1c6 5a3c 9fc2 d6bc 5031 12bd
000000d0: b76c 5ebd 2e8a 74bd 7d07 fabb 2ccc 333b
000000e0: 79f4 74bd dd1f 133c 28bf 613d 967a 81bd
000000f0: 2822 a03d d294 a43d 76c5 cc3c be25 233d
00000100: 5912 223a 0d25 81bd bb63 473d ea59 47bb
00000110: 7383 74bd 8992 81bd 3309 a2bd f42e b5bc
00000120: c7be 9f3c ae8f a23d f773 12bd c881 9ebd
00000130: b4e5 563d 559d 1e3d c2bf 983d 0395 023d
00000140: f013 3e3c 1aee 333d 6024 523b 4df7 9ebd
00000150: 7580 fa3b ac46 9d3d 2849 8cbc ab75 1a3d
00000160: 4d5d 9bbc a9af a7bd a451 363c 96ef 903c
00000170: 8873 833d 7757 98bd 135d 943c fe30 64bd
00000180: cfe6 8dbd b7f7 3c3d bc92 163c 4ef8 83bd
00000190: 244a 2cbd 651e 35bd a368 72bd 4846 87bc
000001a0: 7147 1e3b bce9 943d 5227 1e3c b5fe a93d
000001b0: c5da d0bc c1ac 2ebd 9ec0 453b 0cea 3d3d
000001c0: b0b1 42bd 86ab 763d e158 853d 9f8f 60bd
000001d0: 9541 b5bd fc49 473b d6f7 57bd 7be6 b0bd
000001e0: 5fe2 a2bc 9f49 853d 27da 9f3d 37a6 9d3d
000001f0: ddfc 4e3d 1fa6 a3bd 6472 92bd 3f5e b83c

rnn.weight_ih f4 [384, 128]
-0.011602901 -0.029855058 -0.037921127 0.057364207 -0.057160098 0.022513494 0.034427434 0.0052220686
2.117051e-05 0.045697592 -0.053469844 0.01027452 -0.08021977 -0.0065399464 -0.0029807768 -0.012004674
-0.029600773 -0.056953587 0.084454626 -0.039737295 0.012787498 -0.048486836 0.08794677 0.031139033
0.042592317 -0.042751208 0.06321266 -0.0136927515 -0.0077115637 0.0055680275 0.069761656 -0.08287933
0.084902324 -0.02392663 -0.039942633 -0.049947206 -0.06822401 0.059118964 -0.075447306 -0.020704953
-0.008339153 0.006287021 0.024386987 0.015641097 -0.028379057 -0.02376884 0.056087565 0.050493147
0.07839565 -0.08525634 0.024734557 -0.028132861 -0.08658772 0.08338287 0.013276603 0.009797751
0.010980025 -0.08650998 -0.0322574 0.05575347 -0.08259004 -0.022851527 0.08772725 -0.079648785
-0.08506438 -0.046794884 0.00075768906 0.0723855 -0.03636259 -0.060918808 -0.05205439 0.04019052
-0.051833328 0.087986946 0.012252521 0.031842932 0.055025496 4.979157e-06 -0.0025424566 0.07822739
0.08265625 0.028319582 0.04259086 0.046063118 -0.053553898 -0.061040208 0.030871699 0.03395636
-0.068574466 -0.026530534 0.07572593 0.052714933 -0.03954312 -0.029363342 -0.079835095 0.048291508
0.083085656 0.04944198 0.073511556 0.067705244 0.03290475 -0.04985092 -0.002630003 0.046648394
0.07001996 -0.0020949766 -0.04907934 -0.020120252 -0.0021272737 -0.06544244 0.061989922 -0.029083323
0.07383823 0.0055230204 0.0033299797 -0.028205277 -0.011466264 -0.02384404 -0.08677042 -0.02032376
-0.063835695 0.014845989 -0.0126949195 0.018955918 0.07924671 0.023726927 0.0052165156 0.022401145
-0.060278997 0.025489591 0.07050565 0.082904264 0.05442563 -0.07587724 -0.025711732 -0.049799815
0.001763296 0.015630111 -0.04081589 0.073775 0.08742218 -0.034831043 0.028243516 0.012240044
-0.06473723 0.037667096 0.025614128 -0.0033705179 -0.035910662 -0.07704045 0.019034214 0.074793264
0.030094696 -0.0010722828 -0.005760704 -0.052375443 0.068541124 -0.021746375 0.0030668757 -0.05356025
-0.055290293 -0.028708188 0.00747687 -0.021312399 -0.07762365 0.030336265 -0.015113773 0.058117762
0.01934533 -0.04718814 0.038866322 0.0017533003 0.033511657 -0.060869653 -0.08099313 -0.05789975
-0.048670027 0.07242035 0.01173968 -0.07848764 -0.039245605 -0.012407273 -0.07592179 -0.048991352
0.006862612 0.031692818 -0.054593924 0.07346434 -0.08491735 -0.0331286 0.08141997 0.060680654
-0.003794545 0.017628552 0.08597848 0.088079624 0.07130903 -0.040899616 -0.079854704 -0.029781055
0.07154284 -0.082562536 -0.021869576 0.04409288 -0.0019523157 0.08195305 0.07558373 0.041422017
0.002335359 0.043557163 0.03854023 0.03964235 0.086523935 -0.05385716 -0.035227258 0.032738645
-7.695859e-05 0.013644083 -0.059840206 0.037319493 -0.06521992 0.03500286 -0.06324506 0.04516446
0.053704794 0.05773463 -0.00022501533 -0.022580212 0.047946066 0.067135006 0.039008807 0.060540475
0.060089346 0.042454336 -0.040835176 -0.015311561 0.05688773 0.012180985 -0.026417337 -0.046579592
0.06450087 0.02688835 0.07041924 -0.04340883 -0.046692524 -0.073128164 -0.07904347 -0.07769939
-0.08774611 0.057500295 -0.011985805 -0.02783703 0.015680298 0.060825486 -0.07848486 0.025308954
00000000: 181a 3ebc 9892 f4bc 2f53 1bbd bbf6 6a3d
00000010: b520 6abd 386e b83c c803 0d3d e31d ab3b
00000020: 5397 b137 662d 3b3d 3203 5bbd 7656 283c
00000030: 434a a4bd 0c4d d6bb 2359 43bb 41af 44bc
00000040: 527d f2bc 2a48 69bd 8cf6 ac3d 93c3 22bd
00000050: a782 513c 229a 46bd 701d b43d 4917 ff3c
00000060: 4875 2e3d e41b 2fbd a475 813d 9057 60bc
00000070: 49b1 fcbb 0074 b63b 33df 8e3d a3bc a9bd
00000080: 45e1 ad3d c801 c4bc e39a 23bd 7195 4cbd
00000090: 08b9 8bbd ba26 723d 1e84 9abd 6f9d a9bc
000000a0: f1a0 08bc 5b03 ce3b 38c7 c73c c221 803c
000000b0: 327b e8bc dfb6 c2bc 13bc 653d e7d1 4e3d
000000c0: e68d a03d e09a aebd 20a0 ca3c e376 e6bc
000000d0: e754 b1bd a3c4 aa3d 1c86 593c bf86 203c
000000e0: 90e5 333c 252c b1bd 5620 04bd c05d 643d
000000f0: f824 a9bd 2033 bbbc 58aa b33d e71e a3bd
00000100: 3c36 aebd feab 3fbd a79f 463a d93e 943d
00000110: f0f0 14bd 0086 79bd fc36 55bd d19e 243d
00000120: 2f4f 54bd 8032 b43d ccbe 483c bc6d 023d
00000130: 6a62 613d a212 a736 589f 26bb af35 a03d
00000140: ae47 a93d 78fe e73c c173 2e3d aeac 3c3d
00000150: 555b 5bbd 4c05 7abd a5e6 fc3c d315 0b3d
00000160: c570 8cbd 9056 d9bc 3216 9b3d 9deb 573d
00000170: f7f7 21bd 648b f0bc 9580 a3bd 51cd 453d
00000180: d028 aa3d ac83 4a3d 3a8d 963d 0ca9 8a3d
00000190: 22c7 063d 7a30 4cbd 215c 2cbb 6312 3f3d
000001a0: a066 8f3d e04b 09bb 6b07 49bd 3ad3 a4bc
000001b0: bb69 0bbb b006 86bd 25e9 7d3d 2640 eebc
000001c0: 7f38 973d 74fa b43b ca3b 5a3b c10e e7bc
000001d0: ffdc 3bbc 9454 c3bc b1b4 b1bd 047e a6bc
000001e0: 4abc 82bd 973c 733c 5afe 4fbc 7149 9b3c
000001f0: 194c a23d f95e c23c 4eef aa3b 9b82 b73c
00000200: 1ce7 76bd 8ccf d03c 4465 903d b6c9 a93d
00000210: 69ed 5e3d 8765 9bbd 69a1 d2bc e4fa 4bbd
00000220: 651e e73a b80a 803c 902e 27bd 5917 973d
00000230: 660a b33d ffaa 0ebd f25e e73c 778a 483c
00000240: f494 84bd d048 1a3d b8d4 d13c e8e3 5cbb
00000250: 0f17 13bd 62c7 9dbd a4ed 9b3c 362d 993d
00000260: 2789 f63c d78b 8cba 4ac4 bcbb a287 56bd
00000270: 4a5f 8c3d 7425 b2bc a3fd 483b fe61 5bbd
00000280: 1378 62bd 6f2d ebbc 8800 f53b 5797 aebc
00000290: 26f9 9ebd c283 f83c c29f 77bc e40c 6e3d
000002a0: 197a 9e3c 5a48 41bd 4b32 1f3d ffce e53a
000002b0: 8543 093d 7552 79bd badf a5bd 4a28 6dbd
000002c0: 395a 47bd 1f51 943d c957 403c 21be a0bd
000002d0: 00c0 20bd e047 4bbc e27c 9bbd 28ab 48bd
000002e0: c3df e03b 54d0 013d e19d 5fbd 7974 963d
000002f0: 26e9 adbd dbb1 07bd 83bf a63d 478c 783d
00000300: e7ad 78bb c169 903c 7c15 b03d 1763 b43d
00000310: 780a 923d 5b86 27bd dd8a a3bd 66f7 f3bc
00000320: 0d85 923d 8c16 a9bd d327 b3bc bc9a 343d
00000330: d8e4 ffba 00d7 a73d a5cb 9a3d 22aa 293d
00000340: d30c 193b ff68 323d 5cdc 1d3d 0460 223d
00000350: 7633 b13d 5399 5cbd 754a 10bd f518 063d
00000360: d464 a1b8 6f8b 5f3c 011b 75bd 53dc 183d
00000370: 0592 85bd 295f 0f3d a086 81bd 5efe 383d
00000380: 8ff9 5b3d 267b 6c3d 18f2 6bb9 23fa b8bc
00000390: 1863 443d 147e 893d b3c7 1f3d 4af9 773d
000003a0: 3f20 763d 99e4 2d3d c942 27bd 57dd 7abc
000003b0: 1c03 693d c192 473c 2c69 d8bc 3eca 3ebd
000003c0: 0819 843d f544 dc3c f637 903d 75cd 31bd
000003d0: a940 3fbd 38c4 95bd 8be1 a1bd dc20 9fbd
000003e0: 3cb4 b3bd 6e85 6b3d 1c60 44bc 7c0a e4bc
000003f0: f873 803c 2524 793d acbc a0bd b954 cf3c

rnn.weight_hh f4 [384, 128]
0.08286942 0.076694585 -0.08170028 -0.07391089 -0.075771704 0.030516759 -0.012240169 -0.046317242
-0.036064494 -0.07930089 -0.049512427 0.028212177 0.025088113 0.06875513 0.06785076 -0.08632893
0.06652234 0.056901548 -0.013654353 0.035466958 0.080932744 0.081556976 0.04154932 0.089091815
0.00844903 0.048426732 -0.076458335 0.0250328 0.025314862 -0.052746594 0.065055445 -0.07428876
0.08413866 0.04902724 -0.011848018 -0.0059066406 0.019558184 0.0656235 -0.03134245 -0.045916066
0.016443355 0.003090602 -0.053638168 -0.06229849 -0.00034835088 0.056296147 0.05711141 0.07341567
-0.012693072 -0.06205697 -0.021028325 0.03257501 0.029724924 0.08773133 -0.07483987 0.03576176
0.060942523 0.0800269 -0.0626041 -0.0075106076 -0.07305529 -0.028057748 -0.0705321 0.08240185
-0.019890772 0.028497841 0.08624502 0.020126455 0.026454939 -0.07017901 -0.051209144 -0.060334817
-0.062106863 0.06545911 0.0031236776 0.06638721 0.030155027 0.019020941 -0.030875832 -0.0038046227
0.08454546 0.078876615 0.03658534 -0.053727936 -0.03142126 0.024786 -0.07242672 0.07473571
-0.077298984 0.04071902 -0.0064934785 -0.03270353 0.051385436 -0.07286301 0.08215986 0.028447833
-0.0467797 -0.041945875 -0.06772815 -0.076875605 0.07902692 -0.034957442 -0.078396514 -0.08058752
-0.033738006 -0.00022246945 -0.027694866 0.04740598 0.02546408 -0.013415611 -0.024651574 -0.030808285
-0.06264191 -0.018252872 -0.0726753 0.048856974 0.04455294 0.027150946 0.0093895225 0.037559547
-0.06374912 0.039056946 -0.08331337 -0.033977274 -0.020141639 -0.018430047 0.018825026 -0.017186293
0.0014606583 0.015738258 -0.03880102 0.07170458 -0.029969329 -0.018986093 0.07538056 -0.0118766455
0.0026710753 -0.03587543 -0.056726437 -0.0069104456 0.058070082 -0.032446805 -0.05163882 -0.022853365
0.08681274 0.04628152 0.06933106 -0.0095713725 -0.07232286 -0.0011187921 -0.05111994 -0.052887812
0.007895661 -0.011717139 0.078916326 0.06660834 -0.015960624 0.040289823 0.0016415437 0.047425397
0.0816316 -0.02220523 0.05398474 0.042777285 -0.004856506 0.036715873 0.03466396 -0.040619284
0.079802714 -0.0029406815 -0.076386586 0.058675613 0.075603545 -0.038765237 -0.059726514 0.06098957
-0.06372418 0.012869905 0.022547992 0.023404052 0.028722854 -0.069087215 0.0713306 -0.072900936
0.05596274 -0.025614575 -0.08578663 0.07111114 0.0027674623 0.08118241 -0.0697133 0.053343292
0.051636543 0.06650691 0.06885084 0.048030533 -0.054849133 -0.07161657 0.08169741 0.016757485
-0.0432968 -0.08669202 0.04458164 0.010254233 -0.013627255 -0.0013559379 -0.039534055 0.04902353
-0.025862195 0.073099196 0.081746034 0.052091178 0.07699911 0.08272207 -0.08182514 -0.07649093
-0.035055038 -0.047320127 -0.015248213 0.010174048 -0.08552869 -0.08295077 0.034009818 0.07947867
-0.016940307 0.02554938 0.050117057 -0.025132302 0.0082570035 -0.04076771 -0.06865271 0.004422513
-0.06756211 -0.052883375 -0.06315203 0.011579337 0.026685998 0.06646994 0.010203607 -0.01830444
0.054465417 -0.04097133 0.08047818 0.011743534 -0.07385675 0.08786892 -0.07029156 0.03989406
-0.012335866 -0.0017019839 0.027308568 0.060379907 0.0718302 -0.07124775 -0.0036921245 0.0774524
00000000: 71b7 a93d 0d12 9d3d 7a52 a7bd 985e 97bd
00000010: 322e 9bbd 48fe f93c fd8a 48bc 26b7 3dbd
00000020: 5db8 13bd 8168 a2bd 8bcd 4abd 391d e73c
00000030: 9685 cd3c 7dcf 8c3d 57f5 8a3d 39cd b0bd
00000040: dd3c 883d 9911 693d 82b6 5fbc cd45 113d
00000050: 11c0 a53d 5807 a73d 9f2f 2a3d c575 b63d
00000060: cd6d 0a3c 1c5b 463d 3096 9cbd 9611 cd3c
00000070: 1d61 cf3c d00c 58bd ca3b 853d b524 98bd
00000080: e450 ac3d cad0 483d 301e 42bc 7e8c c1bb
00000090: 7c38 a03c 9d65 863d f160 00bd 7c12 3cbd
000000a0: 37b4 863c b38b 4a3b b2b3 5bbd b42c 7fbd
000000b0: dda2 b6b9 ca96 663d a7ed 693d f45a 963d
000000c0: 9af6 4fbc 732f 7ebd 9843 acbc 606d 053d
000000d0: af81 f33c 7cac b33d a545 99bd ec7a 123d
000000e0: de9e 793d 25e5 a33d 9436 80bd 8b1b f6bb
000000f0: 039e 95bd 5dd9 e5bc 2273 90bd 4dc2 a83d
00000100: f9f1 a2bc 4e74 e93c 3ba1 b03d 3ce0 a43c
00000110: 07b8 d83c 03ba 8fbd aec0 51bd a421 77bd
00000120: c463 7ebd 6d0f 863d 9db6 4c3b 04f6 873d
00000130: ad07 f73c ced1 9b3c 50ef fcbc fa56 79bb
00000140: 2c26 ad3d 108a a13d 82da 153d d311 5cbd
00000150: 94b3 00bd 020c cb3c 7654 94bd 090f 993d
00000160: ee4e 9ebd fdc8 263d 3fc7 d4bb 23f4 05bd
00000170: 8979 523d 3439 95bd 6e43 a83d 6e0b e93c
00000180: 129c 3fbd 70cf 2bbd 0eb5 8abd f570 9dbd
00000190: ded8 a13d 892f 0fbd 5a8e a0bd 120b a5bd
000001a0: dd30 0abd b046 69b9 58e0 e2bc c62c 423d
000001b0: 0c9a d03c 27cd 5bbc 19f2 c9bc a861 fcbc
000001c0: 674a 80bd 0c87 95bc cad6 94bd 401e 483d
000001d0: 257d 363d a96b de3c 83d6 193c 0ad8 193d
000001e0: e68e 82bd 2dfa 1f3d 33a0 aabd c12b 0bbd
000001f0: 1400 a5bc 9cfa 96bc f136 9a3c 45ca 8cbc
00000200: 8f73 bf3a 85ed 803c d1ed 1ebd dad9 923d
00000210: 3d82 f5bc b988 9bbc 1f61 9a3d 4396 42bc
00000220: 350d 2f3b 1df2 12bd fb59 68bd 0571 e2bb
00000230: e5da 6d3d f1e6 04bd 3a83 53bd fb36 bbbc
00000240: e1ca b13d b191 3d3d 71fd 8d3d 3fd1 1cbc
00000250: 021e 94bd 6fa4 92ba 2463 51bd e4a0 58bd
00000260: cd5c 013c 3ef9 3fbc e29e a13d f469 883d
00000270: dbbf 82bc f106 253d 1129 d73a 2241 423d
00000280: 782e a73d bee7 b5bc 1a1f 5d3d 3c37 2f3d
00000290: 5323 9fbb 6263 163d ccfb 0d3d 6860 26bd
000002a0: 9b6f a33d 73b8 40bb 9270 9cbd d755 703d
000002b0: 08d6 9a3d 4cc8 1ebd caa3 74bd 33d0 793d
000002c0: d381 82bd 4bdc 523c 91b6 b83c dbb9 bf3c
000002d0: 314c eb3c 997d 8dbd c715 923d 164d 95bd
000002e0: 3039 653d a8d5 d1bc e7b0 afbd b8a2 913d
000002f0: 505e 353b f742 a63d d9c5 8ebd 7f7e 5a3d
00000300: d780 533d c634 883d ab01 8d3d aabb 443d
00000310: 7ca9 60bd b5ab 92bd f950 a73d fe46 893c
00000320: fc57 31bd 968b b1bd 3d9b 363d 5f01 283c
00000330: da44 5fbc bab9 b1ba 76ee 21bd e6cc 483d
00000340: f4dc d3bc 08b5 953d 776a a73d 8f5d 553d
00000350: b6b1 9d3d 306a a93d f093 a7bd 47a7 9cbd
00000360: df95 0fbd c0d2 41bd a4d3 79bc 0db1 263c
00000370: aa29 afbd 18e2 a9bd e14d 0b3d b7c5 a23d
00000380: 66c6 8abc ef4c d13c 8b47 4d3d 42e2 cdbc
00000390: 6248 073c 0bfc 26bd cb99 8cbd baea 903b
000003a0: 015e 8abd 3d9c 58bd da55 81bd 42b7 3d3c
000003b0: 989c da3c 6421 883d 082d 273c 31f3 95bc
000003c0: 2117 5f3d 8ed1 27bd bed1 a43d f467 403c
000003d0: 3542 97bd 9ff4 b33d 05f5 8fbd f467 233d
000003e0: 5f1c 4abc 1a15 dfba 38b6 df3c ec50 773d
000003f0: b61b 933d 57ea 91bd 92f7 71bb 5d9f 9e3d

rnn.bias_ih f4 [384]
-0.079332985 -0.06921972 0.08457478 -0.04731512 0.0053360485 0.04741732 0.046258282 -0.007938587
0.028265646 0.027706256 0.07931911 0.019524224 0.07137711 0.029763326 0.06206487 -0.07303152
-0.08453748 -0.056536622 0.06523986 0.028003335 0.05298098 -0.034339216 0.020328421 -0.08072422
0.06435186 -0.08376983 0.07002987 0.009721329 0.06463786 0.08343149 -0.00342819 -0.067742966
0.013612099 0.02979045 0.022120487 0.027978208 -0.05519842 -0.028278647 -0.039634675 -0.066683196
0.030482328 -0.03504759 -0.029272351 -0.08593828 -0.04254261 -0.012759358 0.026226582 -0.060099777
-0.013143173 -0.054243572 0.012421235 -0.08002393 -0.04159932 0.086061016 -0.0012132714 0.04489956
-0.07096659 -0.0011245818 0.06093101 0.07623626 0.05442793 -0.023070874 -0.07781323 0.02733827
-0.08411043 -0.0035423357 -0.04098809 -0.08209667 0.02447292 -0.036019802 0.08685245 -0.047630593
-0.03621458 0.060084358 -0.06502923 0.0016692993 0.00077739084 -0.065650605 -0.021064332 -0.031033473
-0.019196423 0.023674766 -0.040615883 0.08193693 0.058069568 -0.058189563 -0.048504908 -0.036451884
-0.028991105 -0.06213341 -0.0581891 0.045741998 0.0033505433 0.077286355 -0.027546545 -0.047794122
0.034979302 -0.016200505 -0.06019655 0.0052386867 -0.028896777 -0.07290449 -0.060953263 -0.054778647
-0.05634569 -0.05721885 0.0032375641 -0.06607445 0.029872485 -0.049104165 -0.081841074 -0.03297976
-0.003525379 -0.032052174 0.068910226 0.053112447 0.014591631 -0.07611522 0.0062235864 0.07645772
-0.03483532 0.047906186 -0.011188955 0.024294738 -0.0868168 0.074958965 -0.029425008 -0.000257655
-0.041169092 -0.06304704 -0.0541269 -0.04174152 -0.05481805 0.010300861 -0.047162525 -0.08716871
-0.04301824 -0.06234725 -0.042649526 -0.013544905 -0.07027668 0.048710074 -0.021991804 -0.040415164
0.05075209 -0.08082193 -0.009614827 0.075508505 -0.022315392 0.071355596 0.008513068 0.029365335
-0.054711048 -0.055353027 0.04171948 -0.060305774 0.037751887 0.036917593 -0.07519242 0.02907666
0.07993143 0.011690704 0.038800493 0.07034448 -0.01940204 0.0864615 0.0662577 -0.0022934459
0.058134582 -0.07830051 0.023063177 -0.07025378 -0.0043711676 -0.057784166 -0.050872732 -0.027820757
0.047930364 0.034891374 -0.04094087 0.053351313 -0.06181975 -0.023723157 -0.050151568 0.02211053
-0.04055919 -0.06250985 -0.002040194 -0.023856131 0.06274958 -0.08420448 -0.046709877 0.077859744
0.08171393 0.02914139 0.020731216 0.06778334 0.044698432 -0.077764295 0.00026188963 -0.01654503
-0.02312665 -0.0589642 0.0035024055 0.011666859 0.048340805 -0.07917364 -0.0067976117 -0.018687043
0.0894507 -0.012892234 -0.055800542 -0.0036392633 -0.03862589 -0.0071431273 -0.07588104 0.022742396
0.089074075 0.07032412 -0.0042493106 0.05864676 -0.061292246 0.039038107 0.08792033 -0.059898492
-0.06461794 0.010377189 0.06324577 -0.076093726 -0.04097267 -0.017647661 -0.06475652 0.081527464
0.030660922 -0.0038596557 0.020126477 0.0045959195 0.08928885 -0.0044084913 -0.06545999 0.04485168
0.05002155 0.04156522 -0.04498613 -0.07211082 -0.034961957 0.050750714 -0.08478056 0.07111432
-0.06826774 0.068784535 0.027863048 0.07584698 -0.0808157 0.0315527 -0.027883755 0.041019127
00000000: 5579 a2bd 12c3 8dbd 8b35 ad3d 80cd 41bd
00000010: 05da ae3b aa38 423d 5379 3d3d d910 02bc
00000020: 5b8d e73c 3bf8 e23c 0f72 a23d 44f1 9f3c
00000030: 2a2e 923d 38d2 f33c bc37 7e3d 8d91 95bd
00000040: fc21 adbd f292 67bd 7a9c 853d 4067 e53c
00000050: 9602 593d 47a7 0cbd ca87 a63c bd52 a5bd
00000060: e8ca 833d 848f abbd d26b 8f3d 3646 1f3c
00000070: db60 843d 21de aa3d 7cab 60bb d3bc 8abd
00000080: 4805 5f3c 1a0b f43c 0636 b53c 8e32 e53c
00000090: bd17 62bd 9fa8 e7bc f857 22bd 3391 88bd
000000a0: 13b6 f93c 108e 0fbd 92cc efbc 6900 b0bd
000000b0: 2941 2ebd a00c 51bc 21d9 d63c 2f2b 76bd
000000c0: 7756 57bc 822e 5ebd 7082 4b3c 96e3 a3bd
000000d0: 0c64 2abd c240 b03d a206 9fba 9ae8 373d
000000e0: ee56 91bd b466 93ba cb92 793d c221 9c3d
000000f0: d2ef 5e3d 21ff bcbc 8b5c 9fbd 82f4 df3c
00000100: 1742 acbd 8826 68bb 21e3 27bd 4d22 a8bd
00000110: 6f7b c83c 8089 13bd b3df b13d 4c18 43bd
00000120: bd55 14bd 041b 763d 0c2e 85bd 64cc da3a
00000130: d1c9 4b3a d373 86bd 1b8f acbc e939 febc
00000140: d141 9dbc 95f1 c13c d75c 26bd 8dce a73d
00000150: 5bda 6d3d 2e58 6ebd 15ad 46bd 924e 15bd
00000160: c17e edbc 9a7f 7ebd b257 6ebd f65b 3b3d
00000170: ca94 5b3b 4f48 9e3d 4ba9 e1bc c5c3 43bd
00000180: 7546 0f3d ecb6 84bc a890 76bd 4aa9 ab3b
00000190: efb8 ecbc f34e 95bd 21aa 79bd 935f 60bd
000001a0: bdca 66bd 505e 6abd 502d 543b 0b52 87bd
000001b0: 24b7 f43c 7321 49bd 4b9c a7bd c915 07bd
000001c0: 0c0a 67bb 2449 03bd ce20 8d3d 708c 593d
000001d0: bc11 6f3c 4ce2 9bbd 3aef cb3b dd95 9c3d
000001e0: 7baf 0ebd 4739 443d e151 37bc c205 c73c
000001f0: 02cd b1bd 1684 993d b70c f1bc de15 87b9
00000200: eca0 28bd ce1e 81bd 2bb4 5dbd 28f9 2abd
00000210: e488 60bd f1c4 283c 7e2d 41bd 8285 b2bd
00000220: e533 30bd d45f 7fbd 45b1 2ebd 73eb 5dbc
00000230: 38ed 8fbd 3784 473d 2828 b4bc 5f8a 25bd
00000240: 6ce1 4f3d f885 a5bd 8287 1dbc 34a4 9a3d
00000250: c5ce b6bc e222 923d 657a 0b3c 928f f03c
00000260: b118 60bd dbb9 62bd 0ce2 2a3d 3003 77bd
00000270: b9a1 1a3d e736 173d 7cfe 99bd 2d32 ee3c
00000280: 17b3 a33d 5e8a 3f3c 44ed 1e3d c410 903d
00000290: 07f1 9ebc ba12 b13d 1eb2 873d a34d 16bb
000002a0: 871e 6e3d 055c a0bd fdee bc3c 37e1 8fbd
000002b0: 033c 8fbb 17af 6cbd ed5f 50bd 5be8 e3bc
000002c0: a152 443d 42ea 0e3d 9db1 27bd e886 5a3d
000002d0: b536 7dbd 1157 c2bc bb6b 4dbd 2421 b53c
000002e0: 6521 26bd 2a05 80bd c7b4 05bb ef6d c3bc
000002f0: da82 803d 6673 acbd db52 3fbd ee74 9f3d
00000300: a259 a73d edb9 ee3c 83d4 a93c fed1 8a3d
00000310: b415 373d e342 9fbd 3b4e 8939 7189 87bc
00000320: 1a74 bdbc 7284 71bd 9d88 653b 5a26 3f3c
00000330: 0201 463d ca25 a2bd 80be debb 9215 99bc
00000340: ee31 b73d f339 53bc 1c8f 64bd b580 6ebb
00000350: 2e36 1ebd e510 eabb 8567 9bbd 434e ba3c
00000360: 786c b63d 1806 903d cd3d 8bbb 9637 703d
00000370: 940d 7bbd 6ce6 1f3d 930f b43d 1f58 75bd
00000380: 6956 84bd 1605 2a3c 0087 813d 07d7 9bbd
00000390: f5d2 27bd d491 90bc 119f 84bd dff7 a63d
000003a0: 9d2c fb3c 47f2 7cbb 48e0 a43c 5e99 963b
000003b0: 13dd b63d 1b75 90bb e30f 86bd 65b6 373d
000003c0: 66e3 4c3d 4b40 2a3d 6043 38bd d6ae 93bd
000003d0: 4534 0fbd fbdf 4f3d 6ea1 adbd 62a4 913d
000003e0: f5cf 8bbd e8de 8c3d 0c41 e43c a955 9b3d
000003f0: b482 a5bd 673d 013d 796c e4bc ac03 283d

rnn.bias_hh f4 [384]
-0.050632287 0.049375184 -0.06874572 -0.059940904 -0.0087791355 0.01935167 -0.003804374 0.038729366
-0.07287239 0.048862375 0.041434694 -0.036786105 0.009582612 0.03571405 -0.06754558 -0.088997506
0.0024413876 0.07017641 0.08501057 -0.042498633 -0.02464292 0.057616767 -0.0136907585 0.033136666
0.023834212 -0.018917289 -0.04890135 -0.04101759 -0.040683217 -0.08425492 0.08372202 -0.021315264
0.06755855 0.0663873 -0.04968833 -0.053071592 -0.056064814 0.0824975 -0.017803328 0.0013568398
0.03047865 0.018449297 -0.025127947 -0.026080009 -0.050030585 0.07641487 0.067596786 0.0657793
-0.04334922 0.05804503 -0.07627457 -0.05086312 -0.08488678 -0.041576773 -0.03752772 -0.06876348
0.03448082 -0.07364762 0.019172126 -0.024566432 -0.060687978 0.034653198 -0.010896554 -0.08505213
0.026882874 -0.085946314 0.032820385 -0.032723807 -0.0449517 0.06483223 0.018510053 -0.074654475
-0.0056552743 0.05801811 -0.07061326 -0.08113582 -0.045460854 0.011423144 0.08325013 0.032077905
-0.003819437 -0.012971101 0.042940214 -0.08125672 0.015328254 0.07767517 -0.012417535 0.034020387
0.080664985 -0.079993375 -0.025956461 -0.03665946 -0.030992635 0.034310937 0.04974262 0.0049017705
-0.059228953 -0.072325125 -0.05122596 0.060292717 -0.019747823 -0.06275591 0.07973906 0.018680472
0.054361656 0.03841279 -0.08219309 0.074193135 -0.056887984 0.049852956 -0.015304888 -0.047730207
0.035253193 -0.036506012 -0.02805242 -0.08090969 0.08790078 -0.03610307 0.011151083 0.014502588
-0.008364701 0.010835255 -0.0149122495 -0.06795369 0.08127283 -0.041652814 -0.015535115 0.06665392
-0.027074613 -0.07510024 -0.03920205 0.0787339 -0.0451862 -0.05607064 -0.056447454 0.061469954
0.023858042 0.039290413 -0.015591467 -0.028342383 -0.07202289 0.04812004 0.018143881 -0.05771339
-0.073426306 0.038475253 -0.05936087 0.08346238 0.08321983 0.028033754 -0.051155683 -0.0511136
-0.052783694 -0.015360628 -0.0345315 0.06540954 0.040667333 -0.020494899 -0.0370035 0.050221216
-0.042591713 0.016028147 0.00351556 -0.023458874 -0.021006782 0.05490188 -0.02629883 -0.015162247
0.010122933 -0.061923 -0.08054936 -0.046813495 0.08483829 -0.043326322 0.08181213 -0.05744448
0.04811681 -0.054271735 -0.07314204 -0.08064544 0.036352176 0.019039055 -0.03461768 -0.073437095
-0.010370127 0.052031633 0.008129522 -0.07292083 -0.009576682 0.041503537 0.03359738 0.039393205
0.086563475 0.06524266 -0.07694706 -0.07470261 -0.034820195 0.030477919 0.022401944 0.060829982
0.0266712 -0.039087504 -0.08313801 -0.013812944 0.03450288 0.06356226 -0.004993611 -0.005759996
0.049735665 -0.050631948 0.0643956 0.032655973 -0.050319478 -0.06735172 -0.048754293 0.0043916306
-0.0054036756 0.047652397 0.063022 0.028702112 -0.018759275 -0.016640905 -0.05691156 -0.06580804
0.024791367 -0.082907364 -0.08132706 0.053078316 0.08835428 0.063571684 -0.03329861 0.05755599
-0.040818457 0.0657604 -0.08311442 -0.029261515 0.043709956 -0.07937311 -0.028320383 0.0014754239
0.06988195 -0.027816491 -0.018567512 0.0030046008 0.060577814 0.055348154 0.02144541 -0.06731852
-0.06135417 0.081363775 0.032886475 0.02884703 -0.041456223 -0.08461111 0.02183272 0.04855397
00000000: cd63 4fbd a23d 4a3d 8eca 8cbd 9884 75bd
00000010: 5dd6 0fbc 6587 9e3c ce52 79bb afa2 1e3d
00000020: 1f3e 95bd ea23 483d 6db7 293d 07ad 16bd
00000030: 6300 1d3c e548 123d 5655 8abd 5344 b6bd
00000040: b0ff 1f3b a6b8 8f3d 061a ae3d 0c13 2ebd
00000050: f3df c9bc 8fff 6b3d 344f 60bc 50ba 073d
00000060: f73f c33c 6ef8 9abc c84c 48bd 0f02 28bd
00000070: 72a3 26bd d88d acbd 7376 ab3d 599d aebc
00000080: 235c 8a3d 11f6 873d fe85 4bbd 9961 59bd
00000090: 38a4 65bd 73f4 a83d 49d8 91bc fdd7 b13a
000000a0: 5dae f93c fb22 973c 20d9 cdbc bea5 d5bc
000000b0: dfec 4cbd 667f 9c3d 2f70 8a3d 4cb7 863d
000000c0: f48e 31bd a0c0 6d3d d735 9cbd d955 50bd
000000d0: 1fd9 adbd 684c 2abd abb6 19bd ded3 8cbd
000000e0: c33b 0d3d 90d4 96bd dd0e 9d3c 8b3f c9bc
000000f0: f593 78bd 83f0 0d3d 7687 32bc d02f aebd
00000100: 7939 dc3c 9f04 b0bd ab6e 063d 6609 06bd
00000110: 461f 38bd c3c6 843d 65a2 973c 72e4 98bd
00000120: e14f b9bb 66a4 6d3d af9d 90bd 892a a6bd
00000130: 2935 3abd 2328 3b3c 0b7f aa3d 1f64 033d
00000140: 854f 7abb be84 54bc 14e2 2f3d ec69 a6bd
00000150: 5b23 7b3c 2914 9f3d eb72 4bbc f658 0b3d
00000160: af33 a53d 91d3 a3bd a5a2 d4bc 3b28 16bd
00000170: 44e4 fdbc a089 0c3d ebbe 4b3d 089f a03b
00000180: 0f9a 72bd 321f 94bd 50d2 51bd 7ff5 763d
00000190: 30c6 a1bc 2c86 80bd 3b4e a33d ca07 993c
000001a0: 54aa 5e3d bb56 1d3d da54 a8bd 92f2 973d
000001b0: 6003 69bd 9d32 4c3d 5ac1 7abc c080 43bd
000001c0: a765 103d 5487 15bd 30ce e5bc fbb3 a5bd
000001d0: 5305 b43d d0e0 13bd 08b3 363c 439c 6d3c
000001e0: 190c 09bc 5a86 313c 8252 74bc 4e2b 8bbd
000001f0: 5f72 a63d 249c 2abd ff86 7ebc da81 883d
00000200: 94cb ddbc 28ce 99bd 5492 20bd 3d3f a13d
00000210: 2a15 39bd 54aa 65bd 7235 67bd ebc7 7b3d
00000220: f171 c33c fcee 203d 5a73 7fbc 492e e8bc
00000230: bd80 93bd 8519 453d 7aa2 943c e064 6cbd
00000240: 8860 96bd 3a98 1d3d 6224 73bd 53ee aa3d
00000250: 296f aa3d 0ba7 e53c 9f88 51bd 7f5c 51bd
00000260: b733 58bd 25ab 7bbc e770 0dbd 70f5 853d
00000270: ca92 263d ebe4 a7bc fb90 17bd c3b4 4d3d
00000280: a674 2ebd 764d 833c 4f65 663b d32c c0bc
00000290: 6a16 acbc cbe0 603d a570 d7bc 136b 78bc
000002a0: a9da 253c f9a2 7dbd 10f7 a4bd 82bf 3fbd
000002b0: b3bf ad3d f176 31bd 1e8d a73d e74a 6bbd
000002c0: 2216 453d 0a4c 5ebd 7ecb 95bd 7029 a5bd
000002d0: 05e6 143d cbf7 9b3c 45cb 0dbd 3066 96bd
000002e0: 77e7 29bc 1f1f 553d b031 053c 8457 95bd
000002f0: 84e7 1cbc 9dff 293d 689d 093d c55a 213d
00000300: 3148 b13d f29d 853d 6c96 9dbd affd 98bd
00000310: 9f9f 0ebd d4ac f93c 4884 b73c dc28 793d
00000320: 8f7d da3c 381a 20bd 4344 aabd b04f 62bc
00000330: e452 0d3d ee2c 823d 72a1 a3bb 59be bcbb
00000340: a0b7 4b3d 7263 4fbd d7e1 833d 45c2 053d
00000350: cc1b 4ebd b3ef 89bd 95b2 47bd abe7 8f3b
00000360: 5111 b1bb 292f 433d ae11 813d b120 eb3c
00000370: 0dad 99bc 8252 88bc 191c 69bd 5ec6 86bd
00000380: 4417 cb3c 56cb a9bd cd8e a6bd a668 593d
00000390: 17f3 b43d df31 823d 2064 08bd d4bf 6b3d
000003a0: 4131 27bd 63ad 863d e537 aabd d8b5 efbc
000003b0: 3609 333d 5e8e a2bd 2600 e8bc 0363 c13a
000003c0: 451e 8f3d 69df e3bc e51a 98bc d6e8 443b
000003d0: 7120 783d bfb4 623d 49ae af3c 4bde 89bd
000003e0: 834e 7bbd 0da2 a63d f8b3 063d 9b50 ec3c
000003f0: 00ce 29bd 9748 adbd 88da b23c 87e0 463d

fc2.weight f4 [19, 128]
0.064189576 0.061405856 0.06953768 -0.03669599 -0.054485008 0.07608102 0.082759745 -0.0019188893
0.02728909 -0.08096877 0.07208573 0.079439625 0.019213896 0.01721027 0.0642114 0.072658785
0.033422355 -0.036835607 0.008581518 -0.064555 0.05118276 0.06256457 0.05185552 0.039031677
-0.079601094 -0.07438067 -0.021591486 0.078798376 0.02259301 0.07641573 -0.040147774 -0.061145555
0.029530613 0.034795348 0.052463643 0.08471243 -0.06501499 -0.040852338 0.04904685 -0.08010906
0.08944472 0.07975246 0.07168182 -0.020212047 -0.013405846 -0.057082463 -0.057517465 0.037338234
0.04628816 -0.01944322 0.01687205 -0.045245554 -0.05091854 -0.08308633 -0.028395459 -0.025697477
0.011619231 0.074328855 0.06060165 -0.077002004 -0.060776174 -0.0077232486 -0.082515456 -0.058490157
0.04886262 -0.059654176 -0.060214784 -0.078456886 0.0857723 0.054008186 0.05381906 -0.028122414
0.06115955 -0.034348585 -0.046210352 -0.061521754 0.061180487 -0.026568232 0.06516471 -0.062696025
0.056407526 -0.015788205 -0.07607267 0.029931372 -0.037458286 -0.055142652 0.06416337 0.05502708
-0.038805168 -0.05451919 0.07529517 -0.01256628 -0.048545394 0.057756074 0.027819842 -0.07271448
0.06273827 0.041794855 -0.01765958 -0.08494332 0.084222086 0.08059489 0.07817001 -0.020107375
0.062858686 -0.023910632 0.06193256 0.07930046 -0.012999814 0.0048487345 0.06251963 -0.047291905
0.08184689 0.046688393 -0.03802591 0.022072671 -0.007065021 0.0027902757 -0.08004966 0.073982805
0.054877758 -0.024796389 0.03648777 0.05852428 0.006258825 0.021482725 -0.039071687 0.043179244
0.020675136 0.009359952 0.030054614 0.037832424 -0.0695649 -0.026273606 -0.010593819 -0.07921478
0.05583432 -0.0487918 -0.052319083 -0.082471564 0.053552944 -0.06457618 0.037969943 -0.0472604
0.04101277 -0.016965978 0.004763306 -0.0018202364 0.07907003 0.019902993 -0.014434673 -0.028713744
0.06563878 -0.022448476 0.059773594 0.054209728 -0.062359378 0.0024180235 0.03242174 0.08652605
-0.066071235 0.0291553 0.07073664 -0.036725592 0.0056922347 -0.025571158 0.08252838 0.044694636
-0.013843731 0.051926028 -0.07638667 -0.062268622 0.07729696 0.0173103 -0.072468214 -0.010301083
0.0028722545 -0.051956005 -0.023189412 0.013451035 -0.039524335 0.027694177 0.07466354 0.020288646
-0.030296348 0.0048041907 0.018614491 -0.08618383 0.00977258 0.05912152 -0.06309673 0.026478527
-0.066938005 0.00998903 0.04105829 -0.076274075 0.08572399 -0.051554937 -0.008385416 -0.058698177
0.018046303 -0.088394895 -0.004967616 -0.08064491 -0.0020902315 0.029857269 0.041653734 0.082736455
-0.03409558 -0.019511346 -0.0697072 -0.0037551832 -0.044990234 0.07547124 0.08602439 -0.07327409
0.08509814 0.07228136 -0.07410807 -0.059787877 -0.029287709 -0.027328806 0.08737599 0.08214171
0.08803903 -0.084367305 -0.03352732 -0.04517478 0.06270864 -0.0650788 -0.028155386 -0.06463651
-0.08360946 0.06042488 0.0597382 0.008302419 0.04416739 0.00037159584 0.026888987 -0.0019094872
0.068625934 0.05972321 0.06703048 0.00075509935 0.0132359 0.035846867 -0.07186552 0.08407808
-0.0057180733 -0.014981142 0.06835102 0.015643058 -0.06958498 -0.045924637 0.09167976 -0.08284454
00000000: d375 833d b584 7b3d c569 8e3d 894e 16bd
00000010: ac2b 5fbd 5ed0 9b3d f17d a93d 3e83 fbba
00000020: 5f8d df3c f4d2 a5bd afa1 933d 3eb1 a23d
00000030: 7666 9d3c 8dfc 8c3c 4481 833d 21ce 943d
00000040: e1e5 083d efe0 16bd 7f99 0c3c 6935 84bd
00000050: 04a5 513d da21 803d 7466 543d aedf 1f3d
00000060: e605 a3bd e554 98bd a1e0 b0bc 0b61 a13d
00000070: fa14 b93c da7f 9c3d fe71 24bd c373 7abd
00000080: 2fea f13c 9185 0e3d 1ee4 563d b67d ad3d
00000090: 9426 85bd c854 27bd 5ae5 483d 3810 a4bd
000000a0: cb2e b73d 4255 a33d ebcd 923d bc93 a5bc
000000b0: 32a4 5bbc 4dcf 69bd 6f97 6bbd faef 183d
000000c0: a798 3d3d 6347 9fbc 4137 8a3c 6753 39bd
000000d0: f68f 50bd 2a29 aabd 989d e8bc 8483 d2bc
000000e0: 965e 3e3c ba39 983d 7039 783d 3ab3 9dbd
000000f0: 70f0 78bd 4e13 fdbb ddfd a8bd 6093 6fbd
00000100: 2c24 483d f057 74bd c7a3 76bd 01ae a0bd
00000110: 63a9 af3d b037 5d3d 6071 5c3d fa60 e6bc
00000120: 7082 7a3d 1ab1 0cbd 1147 3dbd 3cfe 7bbd
00000130: 6498 7a3d 9fa5 d9bc 1375 853d c666 80bd
00000140: 940b 673d 4456 81bc fdcb 9bbd a332 f53c
00000150: dc6d 19bd 43dd 61bd 1668 833d 1364 613d
00000160: 2bf2 1ebd 844f 5fbd 5b34 9a3d cce2 4dbc
00000170: 89d7 46bd a291 6c3d 70e6 e33c 54eb 94bd
00000180: ec7c 803d 1531 2b3d d3aa 90bc c3f6 adbd
00000190: a17c ac3d ef0e a53d 9917 a03d 39b8 a4bc
000001a0: 0ebc 803d 3be0 c3bc ffac 7d3d 4868 a23d
000001b0: 2cfd 54bc 22e2 9e3b 4b0a 803d 28b5 41bd
000001c0: 589f a73d 543c 3f3d 0ec1 1bbd bfd1 b43c
000001d0: b181 e7bb 0fdd 363b 13f1 a3bd 4c84 973d
000001e0: 80c7 603d cc21 cbbc 3374 153d 28b7 6f3d
000001f0: d416 cd3b 8afc af3c a209 20bd b8dc 303d
00000200: e75e a93c 7c5a 193c 1835 f63c 2cf6 1a3d
00000210: 0b78 8ebd bf3b d7bc b391 2dbc 5c3b a2bd
00000220: 87b2 643d e9d9 47bd 894c 56bd dae6 a8bd
00000230: 555a 5b3d 8440 84bd 5f86 1b3d 1f94 41bd
00000240: 02fd 273d 3cfc 8abc 8215 9c3b 0095 eeba
00000250: 78ef a13d 9a0b a33c 687f 6cbc 1639 ebbc
00000260: a06d 863d dee5 b7bc 28d5 743d 050b 5e3d
00000270: 8c6c 7fbd b477 1e3b a9cc 043d 9234 b13d
00000280: 5b50 87bd 19d7 ee3c 5fde 903d 936d 16bd
00000290: ed85 ba3b 9b7a d1bc a404 a93d b911 373d
000002a0: d1d0 62bc 63b0 543d 9d70 9cbd 620d 7fbd
000002b0: de4d 9e3d 55ce 8d3c 376a 94bd e0c5 28bc
000002c0: 6f3c 3c3b d2cf 54bd b9f7 bdbc bb61 5c3c
000002d0: 45e4 21bd e6de e23c 33e9 983d 6034 a63c
000002e0: 0c30 f8bc 796c 9d3b 6b7d 983c 2681 b0bd
000002f0: 2c1d 203c 6829 723d dc38 81bd 7fe9 d83c
00000300: cb16 89bd 07a9 233c bd2c 283d 9535 9cbd
00000310: 0f90 af3d 452b 53bd fc62 09bc 806d 70bd
00000320: d7d5 933c 6208 b5bd 62c7 a2bb 2929 a5bd
00000330: 44fc 08bb 3b97 f43c 1b9d 2a3d bb71 a93d
00000340: cfa7 0bbd 42d6 9fbc a6c2 8ebd 8519 76bb
00000350: ae47 38bd aa90 9a3d 8e2d b03d ba10 96bd
00000360: ef47 ae3d 4008 943d f9c5 97bd 22e4 74bd
00000370: c7ec efbc a9e0 dfbc 2ff2 b23d ea39 a83d
00000380: cf4d b43d c4c8 acbd f153 09bd 3109 39bd
00000390: 636d 803d 0948 85bd 20a6 e6bc 2660 84bd
000003a0: 703b abbd 1480 773d 0bb0 743d df06 083c
000003b0: dde8 343d c0d2 c239 4b46 dc3c c247 faba
000003c0: c18b 8c3d 53a0 743d 4747 893d dcf1 453a
000003d0: 63db 583c 2ad4 123d 3b2e 93bd 2131 ac3d
000003e0: ad5e bbbb 7773 75bc 9ffb 8b3d df25 803c
000003f0: 9282 8ebd 791b 3cbd 99c2 bb3d 66aa a9bd

fc2.bias f4 [19]
0.03558785 -0.03836526 -0.02192556 -0.06447204 0.039131436 -0.074065894 -0.08228853 0.020790208
0.037241627 -0.050428573 -0.0008388039 -0.023622703 0.02009916 0.050261598 -0.07707524 0.0025979672
0.009438725 -0.072035015 0.016252887
00000000: 91c4 113d e424 1dbd 3b9d b3bc eb09 84bd
00000010: 4948 203d dcaf 97bd e486 a8bd 3a50 aa3c
00000020: ad8a 183d 318e 4ebd 2de3 5bba 6684 c1bc
00000030: fea6 a43c 1bdf 4d3d a0d9 9dbd a842 2a3b
00000040: e2a4 1a3c 1887 93bd c624 853c
