trunk/models/model_300/mixer.pth (torch, 863867 bytes, 13 tensors)

hyper_w_1.0.weight f4 [64, 1064]
00000000: cf1e d23c c0a5 88bc 7824 673c 5b80 f33c
00000010: 2abf d93c aa31 a7bc 8329 67bc 135f 1fbc
00000020: 97ee 8e3c 6661 873b c7b6 f83c 0e6f 5c3c
00000030: c41f e7bb 5948 e13b aa84 da3c 7ae1 a1bc
00000040: d773 67bc da81 2cbb 3518 ab3a eb9d 1dbc
00000050: be39 373c a9d5 c3bc 8e38 e23c d2bf 69bc
00000060: 8dbe 2fbc 0789 a9bc 5628 78bc dd36 5cbc
00000070: 86dd ddbc 4aa3 e73c a28a 963c 2fdd b73c
00000080: 0d88 49bc 1f20 eb3c 7ec3 873c 8d29 803c
00000090: 2a4e da39 1734 6d3b 39b6 1bbc 8c97 c73b
000000a0: 5f88 e9bc 6158 be3c 139f abbc ea72 3bbb
000000b0: d181 e63b e23c dc3c e63f 3bbc c82b bdbc
000000c0: 1ae2 c23a dd29 e0bc 014e 6abc 84a1 9e3c
000000d0: c427 543a 78ea 07bc 0411 d13c 3bdb fc3c
000000e0: 59d0 1b3a 1a94 a43c a2dd bdbc af9c a8bc
000000f0: 3712 debc 7e80 34bc 23e5 7dbc 02ab ab3c
00000100: 373f b1bb 3930 4b3c 0e18 bfbc 6df1 853c
00000110: 0ec1 a43c 363c ef3a 3c4d c23c 2e4f 9dbc
00000120: 3e61 853c 6561 693b d78c 153c 5b16 d8bc
00000130: bc46 75bb a4c2 35bc 2e0d bc3c ce6b b8bc
00000140: e934 503c b582 8cbc ef4f e0bb 7fc0 a1bc
00000150: 806e 90bc 178f e23c 3e2d 9fbb 7844 4cbb
00000160: e20b a03c 552f 8abc 08c2 c4ba 3d43 453b
00000170: 162a 6b3c ee65 713c 0d82 1e3c b451 90bc
00000180: 44c2 02bc 7fa1 653c 8aa3 efba 0035 db3b
00000190: 5e66 95bc 98db 8a3b dfd1 2c3c bbde 20bc
000001a0: f58c 82bb 277a c13c 80f1 073c 0538 efbc
000001b0: b395 29bc c473 5c3c b1f1 133c e7b0 873c
000001c0: 7b8c 933c 8c82 ca3c c268 e8bb bd52 5e3c
000001d0: fbcb d0bc 33e2 ea3c 91ba e93b 6dc9 4a3c
000001e0: 86b9 c83b 29f8 643c e3ae 943c 0a14 043c
000001f0: d2ab fa3c 43fa 7cbb f03d c0bc 9419 e23c
00000200: 1b42 603c 3bf0 ecbc ad64 99bc 1563 74bb
00000210: 8d25 22bc 21dd 9c3c 78ad 243a 2d74 f7bb
00000220: 5447 3dbc 41ba 54bc c3c1 b33b e1a1 003d
00000230: 27c3 a9bc 800f cd3a 8822 963c 3f1c 9a3c
00000240: 31ae 3a3a d10b 21bc fd61 c83c 4e4e a4bb
00000250: d298 c3bc 1cf3 86bc 2086 7b3c a909 5d3c
00000260: 882e 703c d652 9c38 319c 8d3c d801 bdbc
00000270: aaf0 913a f9f8 da3c 5f92 95bc c688 483c
00000280: c564 aabc 6fbd 653c 02ea 11bc 48c8 e23c
00000290: 9051 813c 7eb9 40bc 6657 87bc fb73 963b
000002a0: e2a9 123c 286b 9d3a d01b aa3c ef0b ce3c
000002b0: 381b 8f3c 727a aa3c eb65 1dbc 517f 54bc
000002c0: dfc2 b339 7489 c7ba bfc2 b83b 2030 7d3c
000002d0: c397 b4bc ca5d b1bc 1289 f6bb 32bb f1bc
000002e0: 37d3 3bbc 847c 0b3c 4f74 fa3c 1c7e 8a3c
000002f0: 6426 673b aaf7 8abc cc05 ac3c cee2 0b3c
00000300: f5a4 653c 87a9 ebbc b3b8 afbb f91c b4ba
00000310: 1adc f83c 22d0 fa3c e006 003c 7db1 343c
00000320: efce 993b 0a17 413c 9225 92bc 65ed c1bb
00000330: 0b02 a1bc 0e31 8d3c 0194 e6bc 5aaf 01bb
00000340: ab1a bc3c c028 013c d2e4 a5bb ed87 a8bc
00000350: 1d3a 2cbc 2eca 723b 8a9c 1c3c e174 8abc
00000360: 40a8 8e3c ab7d 3bbc 79c2 9f3c 158e f93b
00000370: fee4 173c 98d6 5b3c bf0b 6dbc 3164 babc
00000380: 9de2 7bbc d931 bf3b 5374 a3bc ee21 32bb
00000390: 1a56 bd39 d16d 283b 91a9 82bc 21ef ce3b
000003a0: ea7f 9d3a 3325 9c3c 7750 d73c e4d8 6abc
000003b0: e980 87bc d072 ba3c cffc 38bc c297 79bc
000003c0: 3e76 013c 0336 cdbc 7592 a8bb ac18 acbc
000003d0: 3a8a ac3c e2dc f8bb dfc3 1cbc 5b0b c9bc
000003e0: 66fb 45bc 0ed4 913b a227 483c 26c5 f1bc
000003f0: abab 33bc e2ce 0abc c2df f23c 0d4b 9dbc
0.025649456 -0.016680598 0.014107816 0.02972429 0.026580412 -0.020409424 -0.014109018 -0.009727257
0.017447753 0.004131484 0.030360593 0.013454212 -0.0070533473 0.0068750796 0.026674587 -0.019760836
-0.014126739 -0.0026322515 0.0013053479 -0.00962017 0.0111832 -0.023905592 0.027614858 -0.014266925
-0.010726583 -0.020695223 -0.015146336 -0.013440815 -0.02708317 0.028276104 0.018376652 0.022444336
-0.012300503 0.02870184 0.01657271 0.015644813 0.00041638437 0.0036194378 -0.0095038945 0.006091064
-0.02850741 0.023235502 -0.020949876 -0.002860243 0.0070345183 0.0268845 -0.011428809 -0.023092166
0.0014868409 -0.027363712 -0.014300824 0.019364126 0.0008093084 -0.008295648 0.025520809 0.030866256
0.0005943827 0.020090152 -0.023176972 -0.020582525 -0.027108295 -0.011016963 -0.015496525 0.020955566
-0.005409147 0.012401634 -0.0233269 0.016350472 0.020111587 0.0018252197 0.023718469 -0.019202795
0.01628172 0.003561103 0.009127817 -0.026377847 -0.0037426194 -0.011093769 0.022955503 -0.022512343
0.012707927 -0.01715217 -0.0068454663 -0.01974511 -0.017630816 0.027656121 -0.004857688 -0.003116874
0.019536916 -0.016868273 -0.0015011439 0.0030099892 0.014353296 0.014733775 0.009674561 -0.017617084
-0.007980887 0.014015554 -0.0018282991 0.0066896677 -0.018237289 0.0042376034 0.010548084 -0.009818728
-0.0039840885 0.023617817 0.008297324 -0.029201517 -0.0103506325 0.013455335 0.009029792 0.016563846
0.018011322 0.024720453 -0.007092566 0.013569531 -0.02548789 0.028672313 0.007132836 0.012377125
0.0061256317 0.013975182 0.018149799 0.008061418 0.030599508 -0.0038601316 -0.023467034 0.027600087
0.013687636 -0.028923145 -0.018724764 -0.0037290503 -0.009896648 0.019148411 0.00062819524 -0.007551691
-0.0115526505 -0.0129838595 0.0054857447 0.03140438 -0.020722939 0.0015644878 0.018327013 0.018812297
0.00071212935 -0.009829477 0.024460787 -0.0050142175 -0.023876581 -0.016473345 0.015351802 0.013491073
0.014659531 7.454089e-05 0.017286392 -0.023072168 0.0011134346 0.026730048 -0.018258272 0.012239641
-0.020800004 0.014022215 -0.0089058895 0.027683392 0.015785962 -0.011762975 -0.016521167 0.0045914627
0.008951636 0.0012010084 0.020765215 0.025152175 0.017469034 0.02081034 -0.009606819 -0.012969808
0.0003428673 -0.0015223459 0.00563845 0.015453368 -0.022045022 -0.021651167 -0.0075236643 -0.029508207
-0.011463932 0.008513574 0.030573038 0.016905837 0.0035270685 -0.016963799 0.020998858 0.008537961
0.01401638 -0.02876736 -0.005362594 -0.0013741545 0.03037839 0.030616824 0.007814139 0.011028645
0.004693858 0.011785278 -0.01784018 -0.005918192 -0.019654294 0.017235305 -0.028146746 -0.0019788356
0.022961935 0.007883251 -0.005062678 -0.020572627 -0.010511902 0.0037046778 0.009558806 -0.016901435
0.017414212 -0.011443536 0.019501911 0.0076158145 0.009270905 0.013417862 -0.0144681325 -0.022752853
-0.015373853 0.0058347997 -0.019952929 -0.0027180868 0.0003611304 0.0025700221 -0.015949996 0.0063151275
0.0012016271 0.019060707 0.026283486 -0.014333937 -0.016540961 0.022759825 -0.011290743 -0.015233936
0.007901726 -0.025050169 -0.005144412 -0.021007858 0.021062005 -0.0075946907 -0.009568184 -0.024541548
-0.012083864 0.0044503277 0.01221648 -0.029512953 -0.010966222 -0.008472176 0.029647712 -0.019200826

hyper_w_1.0.bias f4 [64]
00000000: 530a cfbc 31fa e3bc baac 603c 133a 943b
00000010: a430 7a3c 538b c7bc fd75 2bbc c07f 60bc
00000020: e117 0ebc 8bf6 b3bc 2290 c9bb b2cf 93ba
00000030: c784 e8bc 7b88 753c cccb b43c 0a83 6a3c
00000040: be9f e53c 1a54 a53c 1f8f 8fbc fa22 f7bc
00000050: d177 00ba 69b7 9cbc ff84 b7ba 7f1e e43c
00000060: f945 613c 937e 183c 1350 7a3c a455 813c
00000070: 81cf 5fbc 526a 5abc dbd4 b63c ad14 da3c
00000080: 30e3 ed3b 0a5b 8a3c fe84 78bc 6439 273c
00000090: b9a6 8b3b 37a7 c43c b9fb 003b 0b08 47bc
000000a0: 9207 02bc ed35 d7bc f7c5 dd3b 3a4d 6c3b
000000b0: b20d 23bc ffe0 c43c 1fe7 a73c f7fb a83c
000000c0: 6602 90bc 1c56 8bbc d5f0 79bc 61ef 8ebb
000000d0: b531 65bc 7f21 b13c c12a 01bc 7c8b 8ebc
000000e0: cc84 9639 2838 b63c b053 c3bc febb 513c
000000f0: 49bb fbbb 7e60 d4bc ed4c febc 448a ac3b
-0.025273478 -0.027829261 0.013713056 0.0045235245 0.015270386 -0.024358427 -0.010465142 -0.013702333
-0.008672685 -0.021968147 -0.006151215 -0.0011277108 -0.028383626 0.014986153 0.022069834 0.014313469
0.028030273 0.020181704 -0.0175243 -0.030168045 -0.00049006665 -0.019130426 -0.0014001428 0.027846573
0.013749593 0.009307521 0.01527788 0.015787907 -0.013660313 -0.013331013 0.022318294 0.026621187
0.007259749 0.016889114 -0.015168427 0.010206554 0.0042618182 0.024005516 0.0019681288 -0.012147914
-0.007936375 -0.026270831 0.006767984 0.0036056773 -0.009951996 0.024033068 0.02049595 0.020627959
-0.017579269 -0.017008834 -0.015255173 -0.0043620323 -0.013988902 0.021622417 -0.0078837285 -0.017400496
0.0002870917 0.022243574 -0.023843616 0.0128011685 -0.0076822382 -0.025924917 -0.03104254 0.005265506

hyper_w_1.2.weight f4 [128, 64]
00000000: 76dd f83d ef15 7c3d 69a0 233d 53aa d2bb
00000010: 60b8 503d 5449 13bb e946 cc3b 4f70 5fbd
00000020: 4b28 efbd ffe0 27bc 7cd1 48bd be83 2bbd
00000030: f1ce babd d535 e13d f199 e0bd d428 4d3d
00000040: 95d7 6abd 6ca3 a83d 90fc 0cbd c8fb 72bc
00000050: bd4c d5bd e928 343d ec85 dfbc e160 a7bd
00000060: 2898 cf3d 1e02 543d bb68 0ebd 7acc 16bd
00000070: ebbc 4ebd 4404 f0bd 4817 a03c 0914 5a3d
00000080: 1a04 6cbd 6666 b33d 865e f2bd 4c49 ff3b
00000090: 0db9 bcbd 99da b5bd 95ec acbd be9e 913d
000000a0: 6da8 813d 7cb7 703d 4648 e63d e242 983d
000000b0: d01c a0bd 8107 3f3d f31d 8a3d 4856 e63d
000000c0: e07d 9f3d 5e7e c0bd 2faf efbd e72b 3fbd
000000d0: cf4e c93d 82d3 933d ee41 bd3c 71f7 d7bd
000000e0: bf17 a53d aba8 ecbd 9e0b eb3d bfdf 3abd
000000f0: 84da c63d ec80 813d d781 973d 69fb 82bd
00000100: 6101 d33c 1a87 d6bd 596c 00bd 85d4 043d
00000110: b444 65bd 93c3 893c 6118 febc 2cf5 79bd
00000120: 8c97 723d 3be4 0bbd 2964 963d ef5a ba3d
00000130: 9a80 a2bd 3cf7 4ebd e3b4 cb3a d149 ccbd
00000140: 7f99 1fbc 6e50 753c 0b18 82bd 5dce 9dbc
00000150: 7532 553c 979b 12bd e4c7 733d 6cf9 663b
00000160: 0ace c53c e505 95bc fb4d dcbd 052a e4ba
00000170: 2bb8 79bd 7627 eb3d b258 223d ce03 98bd
00000180: 7943 6b3d fe15 94bb a2f7 cf3d b900 d73c
00000190: c8ef 2c3d fb0e b7bd 8fbd 64bc b13a e03d
000001a0: 7c36 11bd d7b6 153d 0ca1 dc3c 2d91 dfbc
000001b0: f1ce b43d b293 d3bd efbf 863d 1308 213d
000001c0: a883 84bd 1806 203d 60a6 b6bd 7835 e43c
000001d0: 091b 38bc f44c 053d 1e81 ce3c e242 83bd
000001e0: 04fc cfbd 30a6 4abd 5a80 fd3c 0eb1 81bd
000001f0: 6cbc 40bd a5f7 50bb 0628 183d 1ecf 633c
00000200: 49b7 41bd 8837 11bd 4f5a 0ebd 56db f0bd
00000210: b050 53bd 1d45 a23d 0155 b13d f0e0 573d
00000220: 4f1f 9dbd c58b 71bd 662a 733c c659 c23d
00000230: 946a 00bd 95e5 0a3d 73a6 cc3d af7f 103d
00000240: 4dd2 9b3d f415 dcbd 6cf7 5d3d f28e 93bd
00000250: c100 f03d 7034 93bd 72dd aabc 1776 4b3c
00000260: 012c fa3d 47de d2bd b3de 81bd 2665 e3bc
00000270: 14f8 76bc 8bb7 67bd 0865 213d e16a 90bc
00000280: 9bbb 0a3d fa08 c53d 84f1 0cbc 21c1 f7bd
00000290: 2ad7 cdbd b0b7 e93d 8708 c13d 22fc cfbd
000002a0: 3698 c7bd 14de 92bd 5620 df3d 9e8d e4bd
000002b0: 7974 623d 6225 c83d 2dfb a93d f13f 16bb
000002c0: 02f4 f43d 6e96 1e3d 49b7 d3bd c09c cabc
000002d0: 0021 98bd 7027 e2bd 4950 bb3d 7188 76bd
000002e0: be32 1b3d e1e2 d2ba 5687 2d3d a480 8abd
000002f0: b244 99bb e1ea c73b a5b5 da3c 87e1 f3bd
00000300: 7082 bd3d 5530 a9bd 6cd3 633d 4634 8ebd
00000310: e345 773d f55c 1cbc 00e7 b13d b41f 723c
00000320: f94d 5b3b 5f2c c2bc 2f79 df3d 9df0 2c3d
00000330: a257 86bd b1d6 633d 05ad e6bd d657 3b3d
00000340: edba 19bd 7a92 303c ba6f fd3c ebac 263c
00000350: d1c3 97bc 9a53 0b3c 8c51 553c 6a89 9bbd
00000360: 08f5 edbd c9f6 9abd 310d 62bc 3c58 b13d
00000370: 4f47 12bd 310d 2a3d 240e 513d 612b 103d
00000380: 4250 ab3d 5bb6 b03d dc3a 713d f402 12bd
00000390: ac2b 443d c630 6b3c cc84 8a3d 47ca 093d
000003a0: 1621 edbd 5f8e 87bc 159c 153c ac2b bd3d
000003b0: 4564 a73d e846 21bd c86b 42bd e45d bbbb
000003c0: 2385 ab3d cf33 3abd a3a3 c3bd 6a81 b6bd
000003d0: 937c 8a3d 529e 6cbd c581 ddbd b11a eebc
000003e0: 596f 5cbd 50bf 4c3d 5d12 5f3d b967 42bc
000003f0: 0009 c43a 4746 ea3d a4e3 b5bd d570 8abd
0.12151615 0.061544355 0.0399479 -0.0064289956 0.050957084 -0.0022474127 0.006234039 -0.054550465
-0.11677607 -0.010246514 -0.049027905 -0.041873686 -0.09121502 0.10996596 -0.10966862 0.050087765
-0.0573345 0.08234295 -0.03442055 -0.014830537 -0.10415027 0.043984327 -0.027285539 -0.08172775
0.101364434 0.05175983 -0.034767848 -0.036816098 -0.050473135 -0.117195636 0.019542351 0.053241763
-0.0576211 0.08759765 -0.11834435 0.00779072 -0.09214983 -0.08879585 -0.08443562 0.07110356
0.06330953 0.058768734 0.11244254 0.07434632 -0.078179955 0.046638016 0.067439936 0.112469256
0.077876806 -0.09399103 -0.117033355 -0.046672728 0.09829485 0.07218076 0.023102727 -0.105452426
0.0806117 -0.11555608 0.11476825 -0.045623537 0.09709647 0.06323418 0.07397812 -0.06395609
0.025757493 -0.10474987 -0.03135333 0.032429237 -0.055973724 0.01681689 -0.031017484 -0.06102483
0.059226558 -0.034153204 0.07343323 0.090993755 -0.07934685 -0.05052875 0.0015541579 -0.09975017
-0.009741186 0.014972789 -0.06352242 -0.01926344 0.013012518 -0.035792913 0.059516802 0.0035243882
0.024146099 -0.018191287 -0.10757061 -0.0017407542 -0.060966652 0.11482136 0.039635368 -0.07422601
0.057437394 -0.0045192232 0.10154654 0.026245462 0.04222086 -0.08938404 -0.01396121 0.109486945
-0.03545235 0.036551323 0.026932262 -0.027290905 0.088285334 -0.10330905 0.06579577 0.03931434
-0.06470424 0.03906831 -0.08918452 0.027857527 -0.011236914 0.03254409 0.025208052 -0.06409241
-0.1015549 -0.049474895 0.030944992 -0.063325986 -0.047054693 -0.003188589 0.037147544 0.013904361
-0.047293935 -0.03545335 -0.034754094 -0.11760585 -0.05159062 0.079233386 0.08658791 0.05270475
-0.07671987 -0.058971185 0.014841652 0.09489779 -0.03135164 0.033910353 0.09992685 0.03527802
0.07608471 -0.10746375 0.054191038 -0.07204999 0.11718894 -0.07187736 -0.020857546 0.0124182915
0.12215424 -0.10296302 -0.06341305 -0.027758192 -0.015073795 -0.056571525 0.03940299 -0.017629089
0.03387032 0.09620853 -0.008602504 -0.12097383 -0.10050805 0.11411989 0.094254546 -0.101555124
-0.09745829 -0.07171264 0.108948395 -0.11159824 0.05528686 0.09772755 0.08299861 -0.0022926296
0.11960603 0.03871768 -0.10337693 -0.024732947 -0.07428169 -0.11042678 0.091461726 -0.060188714
0.03789019 -0.0016089344 0.042365395 -0.067628175 -0.0046773786 0.006100998 0.026697943 -0.1190825
0.092533946 -0.08261172 0.05562155 -0.06943564 0.060369384 -0.009543647 0.08686638 0.014778066
0.0033463223 -0.023702798 0.10911786 0.042221654 -0.065596834 0.055624668 -0.112634696 0.045738064
-0.037531782 0.01077711 0.030937064 0.010173063 -0.01852599 0.008503819 0.013019931 -0.07594569
-0.116190016 -0.07566602 -0.01379709 0.086594075 -0.035712536 0.041516487 0.051038876 0.03519762
0.08364917 0.086285315 0.058894023 -0.035647348 0.04789321 0.01435489 0.0676361 0.033640172
-0.11578576 -0.01654738 0.009131451 0.092368454 0.08173422 -0.039374262 -0.04746607 -0.0057179797
0.08375003 -0.045459565 -0.095526956 -0.089114025 0.06762042 -0.057768174 -0.10815767 -0.029065462
-0.053817127 0.049987137 0.054460872 -0.01186555 0.0014956295 0.114391856 -0.0888131 -0.06759802

hyper_w_1.2.bias f4 [128]
00000000: e4ad 2b3c 8db4 0b3d 0631 2fbb 75fa 943b
00000010: b5a4 4cbd 49b5 e9bc c4c1 c53c 5eba 3bbd
00000020: 0086 863d 4953 a2bd 77b9 cdbd e88f d83d
00000030: 953e bc3b f297 d4bd 893d 8d3c 7afb bb3b
00000040: 92ca acbb bdd0 24bd 63c9 f73d ae97 41bc
00000050: 4984 98bd 0def 3dbd a79f 21bd 1cab 90bd
00000060: 2bad 84bd 843d 5bbb 4c54 8bbc e2c7 463d
00000070: 0afa aebd 0ccc 7c3d b03d 6fbc 2617 ea3d
00000080: d0b9 d93b 1957 b73d a277 2ebd 0dd6 babc
00000090: 5c0f 863d a147 363d b913 efbd 6366 e73d
000000a0: c2bd 3b3d 2852 d5bc 314c 06bc 8113 5f3d
000000b0: cfa2 7ebd bb4b f8bc 7547 863d 3067 e43d
000000c0: 397f ca3d 7713 8abd 9c98 efbd a433 2e3d
000000d0: 954c 023d ee2e 44bd 10a4 aa3d 42f5 743d
000000e0: a598 d23c 1367 ed3d dc53 7dbd 0544 603c
000000f0: 1250 41bc bd93 27bc 45ba 803c 8523 29bd
00000100: d6e0 2d3d 4130 b1bd 5a8a c33d 3166 50bd
00000110: 0555 31bd d3cd dbbd 0cd3 2c3d a1a5 d93d
00000120: 786b 1f3d 2aac 983d 1841 b13d 69b0 e2bd
00000130: 2c89 35bd db2a 1cbd d0fa c23b 06e8 693d
00000140: 9b1a 72bd 863f 723d a26c 1d3d c280 4fbd
00000150: c166 5f3d 602e e2bd 8b49 e23d 6172 b8bd
00000160: 01dd 98bd 5479 fabd ae1f e93b 6e4a a7bd
00000170: f7d3 673d fe0f 58bd 080d 423d 82b5 9abc
00000180: bbc3 db3d 9958 eabd a79c 653d 333c a0bd
00000190: 6cd9 7d3d ee1c 803d 9d62 bb3d 6e25 01bd
000001a0: e332 87bd adb1 d23d 4a9d b33d 95f9 223d
000001b0: 76df c5bd 4391 d23a 347c ce3d 0ae8 113d
000001c0: 91c6 ad3c 5e3d 94bd a6d6 af3d 8f1f 19bd
000001d0: d140 473d f6a2 813d c4d5 dfbd b368 e03d
000001e0: bd13 d4bd 784d 47bc f5f1 27bc df89 a13d
000001f0: aaa5 733c 6f96 adbd 5d12 e7bd 5662 03bb
0.0104784705 0.034107734 -0.00267321 0.0045464584 -0.049961764 -0.028528826 0.024140246 -0.04583203
0.06568527 -0.07926042 -0.1004514 0.10574323 0.005744765 -0.10380544 0.017241256 0.0057367655
-0.0052731717 -0.04023813 0.12098958 -0.011815948 -0.074471064 -0.046370555 -0.039458897 -0.070638865
-0.06478342 -0.0033453414 -0.01700797 0.048530467 -0.08543785 0.06171803 -0.01460211 0.114301965
0.006644465 0.089521594 -0.04259456 -0.022807145 0.06545898 0.044501904 -0.11673684 0.112988256
0.045835264 -0.026040152 -0.008196876 0.05446196 -0.062166985 -0.030309549 0.06556598 0.11152494
0.09887547 -0.06741994 -0.1169903 0.042529717 0.031811316 -0.04789632 0.08332074 0.05980421
0.025707552 0.115919255 -0.061847553 0.013688092 -0.011798875 -0.010228095 0.01571382 -0.04129364
0.04245075 -0.08651782 0.09547873 -0.050878707 -0.04329397 -0.10732617 0.042193457 0.10627294
0.03892085 0.07454713 0.08654994 -0.11068804 -0.04432027 -0.038126808 0.0059503093 0.05710604
-0.059107404 0.059142612 0.03843368 -0.050659902 0.054541353 -0.110440016 0.110491835 -0.09006191
-0.07464028 -0.12230173 0.007114372 -0.08168493 0.05659863 -0.052749626 0.04737571 -0.018885378
0.10730692 -0.1144268 0.0560576 -0.07823982 0.061974928 0.06255518 0.09149668 -0.031529836
-0.06601503 0.10287795 0.08770235 0.0397888 -0.096617624 0.001606502 0.100822836 0.03562168
0.021212848 -0.07238267 0.08585863 -0.037383612 0.048645798 0.063299105 -0.109294444 0.1095747
-0.10355327 -0.012164466 -0.010250558 0.07887625 0.01487104 -0.084759586 -0.112827994 -0.0020047626

hyper_w_final.0.weight f4 [64, 1064]
00000000: 2b60 d2bc 3ec9 263a 5fda d9bc 3917 cc3c
00000010: d0a4 dfbc b373 2cbc c0f9 19bb 6e18 433b
00000020: 711d fabb 9081 513c 3000 d4bc 558e eebc
00000030: c89e 3039 1a5f e13c 7ea8 06bc 8c06 e33c
00000040: 9bbb 5ebc c1fb 8abc 791e b0bb 615b 9c3c
00000050: 74d5 99bc a398 a0bb ca23 1a3b 1f2f aebc
00000060: ebee 64bc 844b 7f3c dcff 533c 5c93 b73b
00000070: 5d17 ecbc a37b f2bc c9f9 c6bc edfb b7bc
00000080: c6ef afbb 3f7b f0bb b35b 2abc e500 9c3b
00000090: e629 baba cdf7 a8bc 5e18 e73c de32 893a
000000a0: 4b04 b03c e1a1 ec3c 72c0 d13b bc74 273c
000000b0: 3f8e 11bc 2a43 a3bc 8be8 943c 59a1 c6bc
000000c0: 48fc 7bbb d55d 5fbb a5b0 6a3c d31b 563c
000000d0: 028d 633b bf2d c63c b0b8 303b 728b 01bc
000000e0: df20 043c 76a4 e33c 0cf2 073c ede9 43bc
000000f0: e306 883c 86f3 4a3c 7838 33bc 2121 bcbb
00000100: b96b f1bc 1e4a 193b 5fbd cbba 9256 bebc
00000110: 75e1 c3bc 40c8 8dbc f992 b23c 65f4 e73c
00000120: 7016 153c 3339 38bb 5849 f2bb d176 b8bc
00000130: 1ac9 c63c 2a36 c03c 9fe6 1ebc 48c9 573b
00000140: 1d35 56bc f86d 9cbc 9dae 97bc fd3b 7a3c
00000150: 94ea e43c f7ef 8fbc 70fa f33c 0336 e83c
00000160: be2a 18bc 706c 9c3c 2d61 8abc c153 c7bc
00000170: 9e31 5dbc b784 a53c 3438 83bc e402 f5bc
00000180: eeee c9bc 0733 b5bc 6b91 9a3c b764 9e3c
00000190: 2a20 e93c 1942 b9bc 83aa 653c e00b 993c
000001a0: 75ba 59bc e581 653c 128a 77bc 36c6 a13c
000001b0: d148 7a3c 30a4 a63c 9fac d5bc cf7e a53b
000001c0: 10c6 d83b a08b 283c 39fa 9b3c b747 d03c
000001d0: 2e48 6abc c22f d33c adc4 eb3c 6389 0abd
000001e0: 7fda a7bc 1a14 2cbc 435b 613c 905d de3c
000001f0: 7849 693c d944 bd3c d7df 883c f631 b9bc
00000200: 36fa bebc d68f f0bc f88b 6e3c 8952 e2bc
00000210: f2ed ae3b 1c3c 5ebc e523 1bbc 1145 bdbc
00000220: 808b bcbc ba2a f3bb 7a51 e33c 629f a7bc
00000230: 8320 08bb 8c5f 953c e41e 10bd d4dc 84bc
00000240: 71cd 093b 56da 643c 33f1 1b3a 1fba 103b
00000250: f1a6 adba 8008 a7bc bc9b 6c3c 4945 16bd
00000260: 45f0 853c de14 6cbc 8d98 6f3c 2cd6 41bc
00000270: 8333 da3c 8100 0ebc 83ec b43b fe00 4bbc
00000280: 978f a33c 9c0d f63c 57fd f43c 9178 043c
00000290: eb57 d93c e6b3 a1bc 46d3 dabc 4223 99bc
000002a0: 760c 563c b685 053c a133 86bc 94c7 5a3c
000002b0: 6295 e13c 804b 033d ca11 a9ba 441d c53b
000002c0: 17f6 c9bc c454 aa3c 6816 90bc 3703 56bc
000002d0: c1d3 a83b 5fdc 823c 6293 b53c c877 99bc
000002e0: fcc6 94bc 8080 33bc deff 033c c85c 173c
000002f0: 1873 b03b fc73 5cbc 8a26 84ba cf97 ccbb
00000300: 2ceb bf3b a54c 7b3c 8c65 b33c 38f2 eabc
00000310: 04ba c63c 6ee2 3abc 8586 bc3c d33c b9bc
00000320: ba5f 8bbc cc32 87bc e8ec b7bc 4d57 a5bc
00000330: dba7 67bc 217e 28bc 93ef b6bc ac4f b93c
00000340: e667 cb3c 544a 643c dfca ea3c 1443 cfbc
00000350: 2b3b b8bb 8f05 6d3b 796d 323c ac47 a53c
00000360: 2d55 86bb 34c0 e4ba fa3d 69bc a8b7 8fbc
00000370: c073 5239 6eac 67bc 4864 f23b 481f 973c
00000380: 5751 b23c a4d9 893b 0ee8 c33c d7df b13c
00000390: 721b b03c 9fe8 f8bc 533e 813c 155b 94bc
000003a0: edde 783c eb3d e3bc b55f 1dbc 50dc d0bb
000003b0: 328d b9bc 9e92 5c3b b2e4 d2bb 89a6 f4bc
000003c0: b590 b2bc 9f24 26bb 0b59 ce3b 4679 53bc
000003d0: cb1d 123c 4ea9 08bc f9b8 a9bc cbcf 70bc
000003e0: defd bd3c e7ad 403c 81f3 c53c 660e 6dbc
000003f0: 3129 8b3a a616 673b 7301 5d3b 7e2e d63c
-0.025680622 0.0006362385 -0.026593385 0.024913417 -0.027300268 -0.010525632 -0.002349481 0.00297692
-0.007632904 0.012787238 -0.025878996 -0.029120604 0.00016843819 0.027511168 -0.008218883 0.027713083
-0.013594533 -0.016965749 -0.0053747264 0.019086542 -0.01877854 -0.004901008 0.0023519867 -0.021262703
-0.013972978 0.015581969 0.01293942 0.0056022834 -0.028819734 -0.02959997 -0.024289029 -0.022458995
-0.0053691594 -0.007338911 -0.010397839 0.004760849 -0.001420316 -0.020625973 0.028209861 0.001046743
0.021486422 0.028885784 0.006401115 0.010220703 -0.008884012 -0.019929487 0.018177291 -0.024246858
-0.0038449932 -0.0034083028 0.014324342 0.013068157 0.0034721498 0.024191735 0.002696555 -0.0079067815
0.008064478 0.027788382 0.008297455 -0.011957628 0.016604846 0.012387162 -0.010938756 -0.005741254
-0.029470311 0.0023390125 -0.0015544108 -0.02323464 -0.023911217 -0.0173074 0.021798598 0.028314779
0.009099588 -0.0028110265 -0.007393997 -0.022517594 0.024265815 0.023463327 -0.009698539 0.003292637
-0.013074187 -0.019095406 -0.01851588 0.015273091 0.027943887 -0.017570479 0.029782504 0.028346067
-0.009287534 0.019094676 -0.01689204 -0.02433193 -0.013500599 0.020204885 -0.01601801 -0.029908605
-0.024650063 -0.022119058 0.018868169 0.019335134 0.02845772 -0.022614526 0.014017704 0.01868242
-0.013289084 0.01400802 -0.015108602 0.019747835 0.01527615 0.020341963 -0.026083289 0.005050517
0.0066154078 0.010287195 0.019040214 0.025424821 -0.014299436 0.025779609 0.028780306 -0.03382243
-0.02048993 -0.010502839 0.013754669 0.027144223 0.014238708 0.023104118 0.016708298 -0.022606831
-0.02331267 -0.029365461 0.014559738 -0.027627246 0.005338424 -0.013564136 -0.009469007 -0.023104222
-0.023015738 -0.007420865 0.027748812 -0.020461742 -0.0020771332 0.018234037 -0.03518571 -0.01621858
0.0021026994 0.013968071 0.0005948722 0.0022083593 -0.0013248605 -0.020389795 0.014441427 -0.03668717
0.016349921 -0.014409272 0.014623773 -0.011830848 0.02663589 -0.008667112 0.0055213585 -0.012390373
0.01996593 0.030035786 0.029905958 0.008085386 0.02653118 -0.019739103 -0.026712071 -0.01869357
0.013064494 0.008149555 -0.01638204 0.013353247 0.027537052 0.032054424 -0.0012898978 0.0060154516
-0.024653478 0.020792373 -0.01758881 -0.01306229 0.005152196 0.015974222 0.022165004 -0.018733874
-0.01816129 -0.01095593 0.008056609 0.009238429 0.005384814 -0.013455387 -0.0010082286 -0.006243683
0.005856892 0.015338098 0.021899007 -0.028679952 0.024258621 -0.011406524 0.023013363 -0.022612011
-0.01701342 -0.016503714 -0.022451833 -0.02018323 -0.014139141 -0.010283978 -0.022331035 0.022620998
0.024829816 0.013933737 0.02866119 -0.02530054 -0.0056222877 0.0036166643 0.010890358 0.020175777
-0.004099509 -0.00174523 -0.014235968 -0.017543629 0.00020070281 -0.014140232 0.0073972084 0.018447533
0.021767301 0.004206853 0.023914363 0.02171318 0.021497462 -0.03038436 0.015776789 -0.018109838
0.015189868 -0.027739486 -0.009605338 -0.0063739195 -0.022650335 0.0033656727 -0.006435954 -0.029864566
-0.021797517 -0.0025351418 0.006297236 -0.012907332 0.008918236 -0.008341147 -0.020718085 -0.014697979
0.023192342 0.011760212 0.024163963 -0.014468765 0.0010617134 0.0035261302 0.0033722788 0.026145216

hyper_w_final.0.bias f4 [64]
00000000: 8ef6 88bc 0fdd 83ba 138c e0bc 1977 a5bc
00000010: c19c 03bc 5b05 be3b 15cf 8e3c ee6d d93b
00000020: 7643 48bc f677 f03c 40b5 2bbc 456e 203b
00000030: 1e88 d8bb 1144 d6bc beff eebc ef0a 7a3c
00000040: 2fb2 a7bc 2015 74bc da21 873c 0cde e33a
00000050: 1d33 e33c af40 47ba c94d 13bc fcae 8fbc
00000060: faca 5339 8501 4c3c cf0c f0bc 8744 efbc
00000070: 73cb 77b9 6a64 3a3c 1826 69bc ee88 9cbc
00000080: b9eb 48bc 6e39 bf3c cb7a 4d3c 2a41 d53c
00000090: 2b6f 6e3c e112 c5bb 0d75 eabc 21b8 6a3c
000000a0: d523 d53c 2592 74ba 770c e4bb 5218 86bb
000000b0: c82c eb3c 70ff f23c 7dfb 893a 0e48 e5bc
000000c0: 83fa 4a3c 8755 e4bc a98b fbbb 182f b1bc
000000d0: 5ab2 883c e1f0 99bc 526f 953c c273 1a3c
000000e0: 6a37 18bc f842 863c 67d6 d0bc 8f8e 8dbc
000000f0: 7a13 9a3c e347 39bb c1a3 543c 192e 0f3c
-0.016719129 -0.0010060387 -0.027410543 -0.020198392 -0.0080329785 0.0057989783 0.017432729 0.006635419
-0.012223115 0.029354077 -0.010480225 0.0024479788 -0.0066080233 -0.026155503 -0.029174682 0.015261396
-0.020470707 -0.014897615 0.016495634 0.0017384901 0.027734334 -0.0007600886 -0.008990713 -0.017539494
0.00020198143 0.012451534 -0.029302983 -0.029207481 -0.00023631546 0.01137648 -0.014230274 -0.019108262
-0.012263232 0.023342814 0.012541483 0.02603205 0.014552872 -0.0060142134 -0.028620267 0.014326126
0.026018063 -0.00093296386 -0.0069594937 -0.0040922547 0.028707877 0.029662818 0.001052722 -0.02798846
0.012388828 -0.027872814 -0.007676561 -0.021628901 0.016686607 -0.018791618 0.018241558 0.009427013
-0.0092905555 0.016389355 -0.02549286 -0.017279891 0.018808115 -0.0028271608 0.012978495 0.008739018

hyper_w_final.2.weight f4 [32, 64]
00000000: c884 383b de61 133d 809c aabb 9a79 00be
00000010: 1391 c33d 08a0 c33d 5990 99bd eb30 7bbd
00000020: efaa 653b 0cc4 93bc f6cd de3c 613f e4bd
00000030: fca9 65bd 2fb9 2d3d 5a6c c9bd ef14 b53d
00000040: cc26 ebbd df2f 30bc e13d fbbd 46a2 cb3c
00000050: b4b4 e03d 090c 74bc 4672 95bc 1153 8fbd
00000060: e0da d2bd a730 703d 13c4 febc 0773 d23b
00000070: 053c bbbd 663e 59bd d750 49bd 9f13 cb3d
00000080: bd45 fbbb 0e6e 8a3d c52c 4ebd a21c 88bc
00000090: dc28 ab3d f487 703d 1261 abbd edf2 94bd
000000a0: 998a 413c 310e 65bd b804 b0bd 6274 b53d
000000b0: fff5 c2bd cbbf f93d 7a84 893d 8b44 bd3d
000000c0: db23 f73d a740 e0bd 0dad 833d 0b35 acbc
000000d0: a99d 9abd 812c bfbd 8796 50bd af65 21bd
000000e0: c43c 683c 7b75 acbc f945 72bc 4de6 88bd
000000f0: 38a9 033d b2a3 c23d bdd0 8f3d acfa 44bd
00000100: 7df6 983d b5ed b1bc 1553 373d df1d 95bb
00000110: 6d07 f8bd 47ad b1bd b4d9 73bd ad90 813c
00000120: 7bcf efbc 864b a7bd 6ecb be3d 626d d03d
00000130: 4958 8f3d 81ed b1bc ab8d e23d 4463 35bd
00000140: 5bc6 eb3d 9bf6 643b 85b2 f43d d678 783d
00000150: 5b7d 49bd 16f4 d1bd 8709 e6bc ee22 00bd
00000160: d1b1 93bd bf4e a33d 477b 923d ba94 4e3d
00000170: 0ad2 71bc 6f3f 853d 87bf ebbd 7c3b 62bb
00000180: d88c ac3c 8c99 bebd 36e6 f1bd c285 38bc
00000190: c41e 7cbd ddd5 cb3d 6340 96bc 1ebf 0fbc
000001a0: a3bd 233d bdb5 43bd 464a 583d 5344 573d
000001b0: 3b85 a6bd 3672 653b e94e 93bd 7bf2 f6bd
000001c0: 1d5d 3ebc 5a06 09bd 2268 94bd 091a 433d
000001d0: b2a2 8bbd a325 ddbc 0f60 ed3d bc42 983c
000001e0: da16 163d 017d 11bd 46f3 dabc 8e27 613d
000001f0: d448 91bd 1063 8f3d 7f60 293d 5942 00be
00000200: 61ab 11bd dbd9 de3d 641f 5dbc ad33 973d
00000210: ab14 88bd f6eb cc3d ea6d 0a3d 9783 9d3b
00000220: 6830 263d 2938 bdbd 7bc3 9dba 8056 b0bc
00000230: c8f5 2e3c 19a4 fc3d 76d6 e33c dfdd 69bd
00000240: 860b ec3d 9bb0 633c 89e2 65bd 7369 ee3d
00000250: 2c6c f93c 34f9 babd e97d 40bd e762 f23d
00000260: 2eb9 61bd 1fc4 383b 16c8 6fba 377d f23d
00000270: 063e f83d 7fbb 66bd 0fc7 663d 09b5 e3bd
00000280: 09f9 debd 6c56 bbbd 5b68 be3d 03d7 9fbd
00000290: c4bb 42bd 64eb 28bd 7e3f b6bd bbfa 983c
000002a0: f6a5 b1bd 67a4 2a3d 05ed aebd c1f3 d33c
000002b0: 0131 973d 67db de3d 9be0 25bd f830 fabd
000002c0: e524 dd3d 853b eb3d 7610 8d3d 1477 43bd
000002d0: 84b7 be3d 0a8e bb3d 934c b53c 9f26 debd
000002e0: a83e dabc 5bcb a93d a1a3 93bd 447f dabd
000002f0: a670 64bd 73c9 0e3d 6571 af3d a773 4c3d
00000300: a566 c8bd aaf3 023d bc37 fdbd 98d5 8a3d
00000310: fb4b 46bd 0089 ad3d d867 773d 3ece d0bd
00000320: 61a2 05bc 4666 bb3d 7828 d23d d7e5 2ebc
00000330: d48d 2f3d 8622 2bbd d610 da3c 0850 8a3d
00000340: 2a73 5ebd 41d7 133b 6edb 4bbd f627 cabd
00000350: d361 a6bc 1f59 dd3d abbf 8e3d b0f8 9d3d
00000360: 2cd1 923d 0a58 30bd 34a3 c9bd 056f c33d
00000370: 6ccb 423d 68dd f43d 8666 483d 1136 efbc
00000380: af5c f2bd 30a9 2f3d 9a02 e4bc f1de 833d
00000390: a097 febd f8de 873d f46c 80bb 8643 bb3d
000003a0: 63cd 753b 5a5a 9d3d fdc0 59bc 9e16 d63b
000003b0: 96b9 803d d836 dcbc c63e 0cbd 4c86 e8bc
000003c0: 507b 05bd 6b23 dfbc 4706 853d 28e8 2abc
000003d0: 2bbb dcbd 6697 e9bd 95b2 b3bd 309c 9d3c
000003e0: 232b 6d3d a359 48bd decc c23c c10d e73c
000003f0: 9524 d3bd cccf cebc 3090 9b3c 6a73 e3bd
0.0028155316 0.035982005 -0.0052066445 -0.12546387 0.09549155 0.09552008 -0.07498235 -0.06132595
0.0035044511 -0.018037818 0.02719782 -0.11144901 -0.056070313 0.042412933 -0.098351195 0.088418834
-0.11482009 -0.010753601 -0.12267662 0.024857651 0.109719664 -0.0148954475 -0.018242966 -0.069982655
-0.10295653 0.05864015 -0.031099355 0.0064224037 -0.09142307 -0.053038023 -0.04914936 0.09915852
-0.0076682256 0.067592725 -0.050335664 -0.016615216 0.08357403 0.058723405 -0.08368124 -0.07272897
0.011812829 -0.055921737 -0.0859465 0.08860089 -0.09519576 0.12194785 0.06714721 0.09241589
0.12067386 -0.109498315 0.06429491 -0.021021387 -0.075496025 -0.0933466 -0.050924804 -0.039403614
0.014174644 -0.021052113 -0.014787191 -0.066845514 0.0321438 0.09503879 0.070222355 -0.04809062
0.07468889 -0.021719793 0.044756968 -0.00455068 -0.12110791 -0.08675628 -0.05953379 0.015816057
-0.02927374 -0.08168702 0.09316145 0.10177113 0.06999261 -0.021719696 0.11062177 -0.04428412
0.11512443 0.0034937027 0.119481124 0.060662113 -0.049191814 -0.10251634 -0.028080715 -0.03128331
-0.0721165 0.07974004 0.071524195 0.050434805 -0.01475955 0.065062396 -0.1151114 -0.0034520319
0.021063253 -0.093066305 -0.118114874 -0.011262359 -0.061552778 0.099529006 -0.018341249 -0.008773593
0.039975774 -0.04778074 0.052805208 0.052555393 -0.081308804 0.0035010702 -0.07192785 -0.12057968
-0.01161888 -0.033453323 -0.07246424 0.04763225 -0.06818141 -0.026995486 0.11590587 0.018586509
0.036642887 -0.035519604 -0.02672733 0.054969363 -0.07093969 0.070013165 0.04135179 -0.1252531
-0.03556383 0.108813964 -0.013496254 0.07382903 -0.06644567 0.100059435 0.03379623 0.0048069465
0.040573508 -0.09239227 -0.0012036407 -0.021525621 0.010678716 0.12335987 0.027812224 -0.05709636
0.115256354 0.0138970865 -0.056124244 0.116412066 0.030447088 -0.09129563 -0.046995077 0.118352704
-0.05510824 0.002819307 -0.00091469416 0.11840289 0.12121205 -0.056331154 0.05634218 -0.11118514
-0.108873434 -0.09147343 0.09297248 -0.07804682 -0.04754235 -0.04124011 -0.08898829 0.018674245
-0.08674233 0.041660693 -0.08541302 0.025873067 0.07382394 0.108816914 -0.040497404 -0.12216371
0.10798053 0.11485962 0.06887905 -0.047720984 0.093123466 0.09157951 0.02213124 -0.1084721
-0.026641205 0.0829074 -0.07208944 -0.10668805 -0.055771492 0.034860086 0.0856655 0.049914982
-0.09785203 0.031970657 -0.12364146 0.06779021 -0.048412304 0.08473396 0.060401767 -0.101955876
-0.00815639 0.091503665 0.10261625 -0.010674915 0.042859867 -0.04178097 0.026619356 0.06753546
-0.054309048 0.0022558721 -0.04976981 -0.09870903 -0.020310318 0.10808014 0.069701515 0.07713449
0.071688026 -0.04305271 -0.09845582 0.0954266 0.04755728 0.119562924 0.0489259 -0.029200586
-0.11834084 0.04288596 -0.027833272 0.06439007 -0.12431264 0.06634325 -0.003919238 0.091437384
0.0037506453 0.07683249 -0.013290641 0.006533458 0.06285398 -0.02688162 -0.034239553 -0.02838435
-0.032588303 -0.027238568 0.06495338 -0.010431327 -0.10777887 -0.1140583 -0.08774296 0.019239515
0.057902467 -0.04891361 0.023779329 0.0282048 -0.10309712 -0.02524557 0.018989652 -0.11105998

hyper_w_final.2.bias f4 [32]
00000000: aaae e2bd d84b 183d 394e 483d d324 ee3c
00000010: 8049 cbbd f762 453d b645 03bb ddc0 7c3d
00000020: 0ffc ba3d 1504 aa3d e5c4 833d fb7a 953d
00000030: 6f34 76bd 69c0 103c b304 dabd 73c1 ff3d
00000040: 5b72 523d 06a9 f33d 3354 9ebc 69fd 053c
00000050: adaa 633d 261c 92bd 0147 95bb 84c3 533d
00000060: 29c5 ba3d 47f5 163d 0b9a 8e3d 40f1 94bd
00000070: 8763 c23c 8331 cd3d 9606 e5bd b1eb 763d
-0.11068471 0.037181705 0.048902724 0.029070294 -0.099261284 0.048190083 -0.0020030565 0.061707366
0.091301076 0.0830156 0.06434039 0.07298847 -0.0601086 0.008834937 -0.106454276 0.124880694
0.05137859 0.11897473 -0.019327259 0.0081780935 0.05558269 -0.07134275 -0.0045555835 0.05170013
0.091196366 0.03685501 0.06962975 -0.07272577 0.023729099 0.10019209 -0.11182897 0.060283367

hyper_b_1.weight f4 [32, 1064]
00000000: 0484 4e3a e470 983b 36ac 7abb 0dae 01bd
00000010: ab79 e03c aa42 143b 8ca2 a5bc 6e8f 443c
00000020: cff5 be3c a52d b8bb 966e cfbc 4fdb 573c
00000030: dcb3 03bd 7743 d93c c1ca 973c c354 01bd
00000040: b29e 8ebc 2b6a 80bc 810b 09bd 0e01 543b
00000050: 9e6f 7c3c ef0c c1bc 3dae 3d3c d947 1238
00000060: 1230 5c3c 00c7 f9bc fe7b eebc 9aa3 dc3c
00000070: 1711 0fbc a129 0cbb d620 f33c 8f51 c3bb
00000080: 11a6 8b3c eaa3 9cbc 6f11 b33b 2352 84bc
00000090: 4264 95bb e9fb 493c efc9 1a3c 70eb 563c
000000a0: 0cf7 e33c b76b a03c f676 93bc bf37 493c
000000b0: e0f6 e7bc 8711 da3c 951a db3c dde8 d1bb
000000c0: c05a 72bc e225 8b3c 8388 773c 033f 92bc
000000d0: 0aa8 993c 6a1f f0bc 5907 99b9 b029 253a
000000e0: e422 fdbc e15f 413c fb8e 013c 19af 613a
000000f0: 63c6 dabc 0fe2 a33c 4d13 c23c 6256 aebc
00000100: 4372 ccbc 875b 5cbc 5325 f9bc bc2a 4ebb
00000110: 217a b43c 0242 b33b a591 f9bc 758e 06ba
00000120: dde5 cebc 2779 833c 8bea 133b 333c 67bc
00000130: ca1d 933b b4e2 233c 8378 90bc 2747 96bc
00000140: a748 fdbb f3e5 6a3b c778 bd3b ab7c 553c
00000150: 290e 9f3c c679 b9bc fdda a43c a376 a43c
00000160: 731e ef3b 34aa 8bbc 9805 1dbb 42f5 71bb
00000170: 884a 60bb 9a0b df3c b538 d7bc ade5 efbc
00000180: e0aa e2bc c1ff 6d3c 204b 8fbc d68a 5d3b
00000190: e933 cb3c 834f af3c ee83 10bc 6aa1 8a3c
000001a0: dcef 5e3b 3af1 243c fb7e 8ebc b152 423b
000001b0: a3a7 7d3b e5cd d13c 775a 03bd f701 99bc
000001c0: 327c 4dbc 29ea af3a b850 97bc 8765 c83c
000001d0: ccda 493c 3c6d de3a b3c4 dbbb f5a9 39bb
000001e0: 0fff 12bc b395 313c 871f 733c a8bf 643c
000001f0: 4307 c23c 98cb c6bc 361e 7c3b 34a8 50bb
00000200: d126 55bb 4557 603b 43c5 c03c 05f7 b9bc
00000210: 27e8 13bc 90fd b93c e811 173c 1664 4cba
00000220: 926d 983c 62e2 bc3a f747 d0bb cc24 33bc
00000230: 5da0 d5ba 878f 13ba 9d0b 853c a9ed 77bb
00000240: 658d 98bb 500c 443b b778 9dbc 143d bd39
00000250: 1b6d cdbc 680a 68bc 9969 67ba a781 94bc
00000260: c66c e3bb 5a34 613c 53c6 e33c 647d 83bc
00000270: a4f4 bcbc f077 ddbc 6386 2b3c 2cf2 05bc
00000280: ba01 80bc 0cd5 ebbc 4529 933c 738d 8e3c
00000290: d9e4 97bc 7789 29bc 64ec d13c feb6 dcbc
000002a0: 6e09 7f3c f02a 683b ecdc 7c3c 60e3 d93c
000002b0: 90b9 d1bc d640 cf3b 68f2 b1bc 4c7c c83c
000002c0: 74cd d93c 9f49 ca3c fa57 c33c 6ae8 8dbb
000002d0: 34d6 d4bc 24b0 f3ba 40de 863b 4857 f7bc
000002e0: 3d96 ed3c 9245 6a3c e76d a53c 9def 193c
000002f0: 7a80 c13c 735f 23ba 8eb4 a83c faae f43c
00000300: 8f47 e63c 151d 833b 26aa 04bc cd76 29bb
00000310: 4130 083c dd58 9dbc a4a6 e83c 8180 31ba
00000320: 956f 35bb 786b 673c 7104 d33a 04be 28bc
00000330: cd24 3f3c 4dc2 30bc 6001 2b3c 4f7f 5bbb
00000340: d4ed 863c 0063 423c 109d 913c 3b42 933b
00000350: 44a4 0fbc fd0b c93c 7193 24bc d42b dbbb
00000360: 08e5 99bc 47ff 14bb 2d17 c73c 065b dc3c
00000370: 8af8 24bb 671b a03c 74fc 62bc d5fd 013b
00000380: 21ec c5bc 5a3b 933c 4a45 a43c 231f 95bc
00000390: 8003 35bc 31ed cdbc 91db 753c 6480 4dbc
000003a0: e2c0 d5bc 9384 0d3b 9aa8 35bc 7d05 983c
000003b0: 2e5c 18bb e7e3 c5bc b517 96bb 3906 9c3c
000003c0: a72a 64bc 5c7f a8ba 356f 9abb e217 b33b
000003d0: 584d eebc 4eb4 1f3c 8df4 ae3c 8688 91bc
000003e0: 92f4 123c d222 9a3c 653d 95bc 0391 1dbc
000003f0: a278 b7bc 9c29 7b3c 72b3 a43c 2565 a73b
0.0007877948 0.0046521295 -0.0038249618 -0.03166013 0.027401766 0.0022622743 -0.02021911 0.011997087
0.02331057 -0.0056206756 -0.025321286 0.013174846 -0.03215395 0.026521428 0.018529298 -0.031574976
-0.017409656 -0.015675625 -0.033458237 0.0032349261 0.015407471 -0.023565738 0.011577186 3.4876026e-05
0.013439195 -0.030490398 -0.029111858 0.02693348 -0.008732102 -0.0021387117 0.029678743 -0.0059606503
0.01704696 -0.019121129 0.0054647247 -0.016152447 -0.004559071 0.0123281265 0.009447559 0.013117656
0.027827762 0.019582612 -0.018001061 0.012281357 -0.028315961 0.026619686 0.026746074 -0.0064059333
-0.014792144 0.016985837 0.0151082305 -0.017852312 0.018756885 -0.029311854 -0.00029187909 0.00063004624
-0.030900426 0.0118026445 0.007907624 0.00086091604 -0.026705926 0.020005254 0.023690844 -0.021281425
-0.024956828 -0.013449556 -0.030413305 -0.0031458577 0.022030892 0.005470515 -0.030464957 -0.0005132922
-0.025256092 0.01604898 0.0022570218 -0.014113474 0.004489635 0.010002781 -0.01763559 -0.018344475
-0.007729608 0.0035842627 0.00578222 0.013030211 0.019415932 -0.022641074 0.020123953 0.020076102
0.007297331 -0.017048933 -0.0023959633 -0.0036919867 -0.0034224112 0.027227212 -0.026272157 -0.029284323
-0.02766937 0.0145263085 -0.017491877 0.0033804676 0.024805026 0.021400219 -0.008820517 0.016922671
0.003401748 0.0100672785 -0.017394533 0.0029651339 0.0038704656 0.025610873 -0.032068696 -0.018677695
-0.0125418175 0.0013421226 -0.018471107 0.024462475 0.012320232 0.001696981 -0.006706798 -0.0028330062
-0.0089719435 0.010838914 0.01483906 0.01396171 0.023685103 -0.024267003 0.0038470156 -0.0031838538
-0.0032524357 0.0034231704 0.023531562 -0.022700796 -0.009027517 0.022703916 0.009220578 -0.00077968964
0.018606935 0.0014410729 -0.006356235 -0.010934066 -0.0016298402 -0.0005628992 0.01624089 -0.0037830865
-0.0046555274 0.0029914565 -0.0192226 0.00036094396 -0.02507644 -0.014162637 -0.0008827686 -0.01812823
-0.006940457 0.013745392 0.02780453 -0.016051002 -0.023065872 -0.02703473 0.010469052 -0.008175414
-0.015625823 -0.028788112 0.017964015 0.017401433 -0.01854174 -0.010347716 0.025625415 -0.026942726
0.015566213 0.0035425983 0.015433531 0.026597679 -0.025601178 0.0063248677 -0.021722034 0.024473332
0.026587225 0.024693308 0.023845661 -0.0043306844 -0.025981046 -0.0018591923 0.0041158497 -0.030192986
0.029002303 0.014298813 0.020194007 0.009395507 0.023620833 -0.00062321796 0.020593908 0.029868592
0.028110294 0.0040012696 -0.008097207 -0.0025858164 0.008312286 -0.019207412 0.028399773 -0.0006771163
-0.0027684916 0.014124744 0.0016099346 -0.0102992095 0.011666489 -0.010788512 0.01043734 -0.003349263
0.016470827 0.011864424 0.017775089 0.0044939793 -0.008767191 0.02454185 -0.010044918 -0.0066885743
-0.018785968 -0.0022735165 0.024303043 0.026898872 -0.0025172555 0.019544316 -0.013854135 0.0019835134
-0.024160447 0.017972637 0.02005257 -0.018203324 -0.011048198 -0.025137516 0.015005962 -0.012542818
-0.02609295 0.0021593913 -0.011087561 0.018557305 -0.0023248303 -0.024156524 -0.004580463 0.019045936
-0.013926185 -0.0012855339 -0.004712964 0.0054654935 -0.029089615 0.009747578 0.021356845 -0.017765295
0.008969443 0.018815432 -0.018217752 -0.009617093 -0.02239639 0.015329745 0.020105097 0.005108493

hyper_b_1.bias f4 [32]
00000000: 68b5 d93b b2dc 93ba 3041 97bc bb89 a93b
00000010: cbd8 a4bb 2d44 43bc f857 4ebc 5390 d13c
00000020: e03b ae3c f948 eabc 5caa 833b ab17 bcbb
00000030: cb9a 60bb 0ce1 26bb 6d76 0d3c 0056 16bc
00000040: 6907 603c 2f45 ca3c b63f 233c 19da 43bc
00000050: 2e40 613c f2cb 353c f74b c6bc aa2a 753c
00000060: 6d54 9abb 81c8 abbb 000d d13c b2c3 c73b
00000070: c206 e43b 7196 eabc 0641 7abc 94d9 c93c
0.0066439398 -0.0011280982 -0.018463701 0.0051738895 -0.0050307265 -0.01191811 -0.012594216 0.025581514
0.021268785 -0.02859925 0.004018111 -0.005740126 -0.0034271951 -0.0025463728 0.008634192 -0.009175777
0.013673642 0.024691192 0.00996392 -0.011953854 0.013748212 0.011095988 -0.024206145 0.014963785
-0.0047097714 -0.005242408 0.025518894 0.0060963267 0.0069588134 -0.02863619 -0.015274292 0.024639882

V.0.weight f4 [32, 1064]
00000000: 2cda 96bc a104 aa3a 64a3 adbc 5a61 93bc
00000010: 93bb f13c da72 6dbc 92e9 f63c 8db3 423c
00000020: 7605 4f3c e5f6 573b 70da 88bc 6203 8bbc
00000030: 88e5 a13c e617 d43c a285 033b 7f68 17bb
00000040: 082b 14bc 7088 213b 3909 8fbc a163 753c
00000050: bad7 b13c 2466 ec3b 1140 7e3c c716 9bbc
00000060: 74b0 0ebc e812 063c 6fd4 c93b 1292 373b
00000070: 94e8 aabb c3f2 e33c 7ed7 cdbb 68e2 693b
00000080: 69dc 0dbc 8487 0d3c c816 123a ea3d 89bb
00000090: 2fe0 8ebb 1344 cf3c 7f55 01bd e6bd 9b3c
000000a0: cb96 d83c af28 d0bc 484f cbbb 9ba1 823c
000000b0: 238b 20bc 08f2 413c fb91 d6bc ba45 80bc
000000c0: f629 b5bc d8e0 49bc e07e fb3c ea60 f2bb
000000d0: 403e eb3c 6f16 df3c c417 e2bc 2cfe 29bb
000000e0: 14ae cd3c 613d dbbc 0ff7 553c 398b 1bbc
000000f0: 8edf aabc 13f7 89bc c3dd cbbc 2473 33bc
00000100: 1c46 4d3c 4506 0a3c 625d 42bc d357 e7bc
00000110: c8cc 603c 8204 c23c 0b9c b13c 82ea b0bc
00000120: f1c4 8ebc d711 743c 00bf 8b3c 0dd1 a3bc
00000130: 8747 2cbc 36d4 d0bc 3428 84bc b75e 8abc
00000140: 05e9 84bc c287 82bc cab3 cfbc 504d e93c
00000150: e6f8 223c 82db b5bc 2ff1 a7bc 8e23 9ebc
00000160: f7c8 1cbc fd3d 3b3c cf44 4c3c 2ee1 b73b
00000170: 78d7 86bb 347b 59bc 2a49 85bc 5a77 38bc
00000180: d4d1 8abc 778f 13bc 8e97 a03b 41ab 4ebc
00000190: 65e1 b33c e024 19bc 8947 cc3c 2caf 8a3c
000001a0: 986b ebbc 8f44 053d c0de a13c 69f5 fe3b
000001b0: 6d17 dfbc 5169 cebc 6def 9b3b ced4 64bc
000001c0: deff c13c 0b11 5c3c e170 b73c 7429 32bc
000001d0: 7744 ebbc 536e 5ebc ce87 09bc 15df 2bbb
000001e0: ae1f 0dbc 5464 153c eab5 c6bc ce6e 4ebc
000001f0: 5806 5ebb f2a2 ec3c 36ad e83c 21db 65bc
00000200: a56d e53b 9d0b 9abc 51c2 e1bc c889 d43b
00000210: 0e2b 24bc d648 553b 7764 8ebc 207a 41b8
00000220: c12f 5dbc 12fd 873b dbe3 d03c 221a 88bb
00000230: ddc8 b6bb 8bf5 acbc a3eb b1bc 728b c1bc
00000240: 959d 10bc 27e2 6e3b 6fc9 c5bb 29ad 403c
00000250: 8e31 f63b 0814 b4bc d2a6 033c c054 e83c
00000260: 986d de3b dad7 783c 30e2 ca3b 3306 423c
00000270: 6295 173a b111 c33c 251f 723a 7ac1 c7bc
00000280: 79d5 a6bc 7d4f dcbb a701 bdbc c2b1 443a
00000290: 4d9a ac3c 676f 0fbb b3e3 bc3c cd40 b33b
000002a0: 8f4e 92bb 8c61 b53c 12f8 a4bb f866 db3c
000002b0: d366 c1bb aa7f f5bb 8fcc a0bc 44ba bfbc
000002c0: 0afd 643b 95bb 48bc b0ea 57ba 5422 b9bc
000002d0: e5f4 2c3b 0179 f4bc c043 c7bc f27a eabc
000002e0: 25aa ebbc 318e edba fc9e e13c 21b9 a53c
000002f0: 339c 0abc 6547 40bc 02ea 133c da9d bebc
00000300: 9d60 f0bc b5f1 b23c 1898 7a3c aa66 ac3a
00000310: ffb6 6bbc e3f6 043d 5d95 9bbc 3efe 423c
00000320: 48f7 8f3c f375 d93c 8413 d23c 3d21 7dbb
00000330: 6898 9f3c b6a4 e73c d8a4 173c 13b5 b83c
00000340: 8b18 fbbb e9d2 b6b9 4b90 91bc c319 5e3b
00000350: 8ae9 ca3c d8c5 b03c 70f5 cc3c 2631 4abc
00000360: e172 8f3c b919 553c bc06 4dbc 983e 1fbc
00000370: 67c9 9a3c 7b0c 013d 0b8d 8e3a ff1b dabc
00000380: d662 6ebc c667 d23c 9a9a c13c e828 a33c
00000390: e299 29bc b5ac e1bc c8b4 e4bc 3bbb 98bc
000003a0: c358 02bd 675a 6ebc fd4c aebc 116f 663a
000003b0: 1520 a4bc 3636 853c 128c b33b 885b 9ebc
000003c0: 4629 1e3c 4b16 00bd 0e3f 1bbc 2d34 aa3c
000003d0: eb92 cabc faee d23c e9e0 9a3c 2362 1a3c
000003e0: 48ec d93c 46a3 2dbc 2b83 fb3b 955d 6f3c
000003f0: 53bc 903c b84d 6f3c 4e2b f63c 8a7c f4bc
-0.01841458 0.001297135 -0.021196075 -0.017990757 0.029508388 -0.014492715 0.030140672 0.011883629
0.012635579 0.0032953557 -0.016705722 -0.016969386 0.01976277 0.025890302 0.0020068665 -0.0023103056
-0.009043463 0.0024647973 -0.017460452 0.014977367 0.021709312 0.0072143245 0.015518204 -0.01893176
-0.008709062 0.008183219 0.0061593573 0.0028010649 -0.0052157138 0.027825719 -0.006281792 0.0035687927
-0.008658507 0.0086382665 0.00055728527 -0.004188289 -0.004360221 0.025301015 -0.031575676 0.01901145
0.026439091 -0.025410024 -0.0062045194 0.0159462 -0.009798798 0.01183749 -0.026192656 -0.015658248
-0.022114735 -0.012321673 0.030700147 -0.007396807 0.028716207 0.027232377 -0.027599223 -0.0025938852
0.025107421 -0.026762666 0.013059392 -0.0094936425 -0.020858552 -0.016841447 -0.024886018 -0.010952745
0.012528922 0.008424346 -0.0118630845 -0.02824012 0.013720699 0.02368379 0.021680852 -0.021596197
-0.017427893 0.0148968315 0.01705885 -0.019997144 -0.0105151 -0.025491815 -0.016132452 -0.016890867
-0.016224394 -0.015933875 -0.025354285 0.028479248 0.009947037 -0.022199396 -0.020500747 -0.019304063
-0.009569398 0.011428353 0.012467577 0.0056115603 -0.0041150413 -0.013274003 -0.016270239 -0.011258924
-0.016945757 -0.009006373 0.004900879 -0.012614072 0.021958062 -0.009347171 0.024936454 0.016929232
-0.028737828 0.032536086 0.019759536 0.00778072 -0.02723285 -0.025196703 0.0047587664 -0.013966752
0.023681577 0.013431798 0.022392692 -0.010874141 -0.02871917 -0.013576108 -0.008394195 -0.0026225497
-0.00861351 0.009118158 -0.024256665 -0.01259966 -0.0033878293 0.028886292 0.028402906 -0.014029295
0.007001596 -0.018804366 -0.027558478 0.0064861514 -0.010020031 0.0032544634 -0.01738189 -4.6128524e-05
-0.013500155 0.0041500414 0.025499275 -0.004153506 -0.005578144 -0.021113178 -0.021718806 -0.023626063
-0.008826633 0.0036450715 -0.0060359756 0.011760035 0.0075132316 -0.021982208 0.0080353785 0.028360724
0.006787967 0.015188182 0.0061915144 0.011842298 0.00057824526 0.023812147 0.0009236208 -0.024384249
-0.020365464 -0.006723343 -0.023072077 0.00075032946 0.02106967 -0.002188647 0.023057794 0.0054703713
-0.0044649313 0.02214124 -0.005034455 0.026782498 -0.00590215 -0.0074920254 -0.019628791 -0.023404248
0.0034940862 -0.012251754 -0.000823657 -0.022599377 0.0026391086 -0.029842855 -0.024324298 -0.028623078
-0.028767655 -0.0018124041 0.02754163 0.020229878 -0.008460092 -0.011735772 0.00902796 -0.023268629
-0.029342944 0.02184377 0.015295051 0.0013153155 -0.014386891 0.032462012 -0.01899212 0.011901436
0.017573968 0.0265455 0.025644071 -0.0038624548 0.019481853 0.028276782 0.00925561 0.02254728
-0.007662838 -0.00034870885 -0.017769 0.0033889867 0.024769563 0.021578714 0.025019377 -0.012340819
0.017510833 0.013006621 -0.012513813 -0.009719513 0.018894864 0.031506043 0.0010875774 -0.026624678
-0.0145499315 0.025684249 0.02363329 0.019916967 -0.01035163 -0.027548173 -0.027918234 -0.018643966
-0.03182293 -0.014547921 -0.021276945 0.0008790354 -0.02003483 0.016261201 0.005479344 -0.019330755
0.009653395 -0.03127126 -0.009475483 0.020776832 -0.02472826 0.025748719 0.018906074 0.009422812
0.026601925 -0.010598009 0.0076755485 0.014609714 0.017667925 0.014605932 0.030049946 -0.029844541

V.0.bias f4 [32]
00000000: 1f5b 9a3b 71e2 7c3c 9ee4 7e3c 737e ba3c
00000010: abad 9cbc 7853 f9b9 82c0 cbbc bc0f 9c3c
00000020: 0a25 b4bc 8adf e9bc 11cc e0bc 2c8d 01bc
00000030: 1c44 be3c 2cd2 d63b a429 a73c 2b7d 25bc
00000040: 3584 a63c dac6 133c 5a7f db3c d815 c23c
00000050: f593 ca3c 16b0 2ebc 0f6f e1b9 64d4 b43c
00000060: 784d b1bb 287f fe3c cd7d c23c 1818 de3c
00000070: cf58 cfbc 98ef 21bc 7376 3c3b fb4e 1f3c
0.0047105695 0.015434847 0.015557436 0.022765374 -0.01912578 -0.0004755517 -0.024872068 0.019050471
-0.021990318 -0.028548975 -0.027441056 -0.007907193 0.023225836 0.006555816 0.020405598 -0.010100643
0.020326713 0.009019578 0.026794124 0.023692057 0.024728755 -0.010662099 -0.0004299809 0.022073932
-0.0054108463 0.031066492 0.023741627 0.027111098 -0.025310902 -0.009883784 0.0028757125 0.00972342

V.2.weight f4 [1, 32]
00000000: 688d f6bd 273d ad3d d340 e6bd 78ea 0cbe
00000010: 32a1 2cbe 3f51 d93d f4fc 04bd 36a4 b73d
00000020: 1701 ff3d ff42 263e 3aee 073e 91d2 d93d
00000030: 1e0a da3d 0852 7ebd 3994 f33d dce4 01be
00000040: 46ca 01be 733b acbd 5386 6bbd 1438 0cbe
00000050: 0e38 d53d 8d30 db3b 21c9 f33d 64bd 8f3d
00000060: a29f ee3d 37fe 65bd a6fc 32bd 1a77 a73d
00000070: b1fd 2ebe 9432 873c 0a52 abbd 6b74 8bbd
-0.1203869 0.084589295 -0.11242833 -0.13761318 -0.16858366 0.106111996 -0.032467797 0.089668676
0.1245138 0.16236494 0.1327447 0.106358655 0.10646461 -0.06208995 0.118935056 -0.12684959
-0.12674817 -0.084097765 -0.05750115 -0.13693267 0.10411082 0.0066891373 0.11903597 0.07018545
0.11651541 -0.05615064 -0.043697976 0.08177014 -0.17088963 0.01650361 -0.08365257 -0.06809314
