trunk/models/model_0/agent.pth (torch, 477519 bytes, 8 tensors)

fc1.weight f4 [128, 134]
0	0xbda05f8e	-0.078307256
1	0xbc62d9c6	-0.013845867
2	0xbdaabcc1	-0.08336783
3	0x3c9ae2d9	0.018906998
4	0xbd8a611e	-0.06756805
5	0x3b5d6f65	0.003378832
6	0xbd0c511c	-0.03425704
7	0x3d4e72ff	0.050402638
8	0x3c32425e	0.010880081
9	0xbc48d3b5	-0.012257506
10	0xbd3c8171	-0.046021882
11	0xbc806acb	-0.015675923
12	0x3d192ee6	0.03739824
13	0x3d8e9e9a	0.069638446
14	0x3cda8907	0.026676668
15	0xbd9e2675	-0.07722179
16	0x3d0560a3	0.032562863
17	0x3d0416d6	0.03224834
18	0xbd12e790	-0.035865366
19	0x3d19fcf6	0.037594758
20	0xbda4204f	-0.08013975
21	0xbcfe897d	-0.031071419
22	0xbce03401	-0.027368547
23	0xbd215c2b	-0.03939454
24	0xbd3d07ad	-0.0461499
25	0x3d15722f	0.036485847
26	0x3a07dd6b	0.0005182835
27	0x3cd5f634	0.026118375
28	0x3d3a4cd9	0.045483444
29	0x3d91d611	0.07120908
30	0x3c084288	0.008316644
31	0xbdaee914	-0.0854055
32	0x3d90ee77	0.070767336
33	0x3d861d6c	0.065485805
34	0x3dae5736	0.08512728
35	0x3bfdad23	0.007741587
36	0x3d6decfa	0.058087327
37	0xbd40110c	-0.046891257
38	0x3d226aa0	0.039652467
39	0x3d14a00a	0.036285438
40	0x3d49d199	0.049272154
41	0x3c09f6be	0.008420644
42	0xbc900505	-0.017580518
43	0xbd81efef	-0.06344592
44	0x3c8cfafa	0.017209519
45	0xbcfd1011	-0.03089145
46	0xbba831f8	-0.00513291
47	0xbcb384e5	-0.021913955
48	0xbd4fe2b9	-0.05075333
49	0xbb072093	-0.002061878
50	0xbc8651eb	-0.016396483
51	0x3d86e615	0.065868534
52	0x3d2b2297	0.041781034
53	0x3da2b726	0.07945089
54	0xbd372593	-0.044713568
55	0x3d0563e3	0.032565963
56	0xbc29c5b2	-0.010362076
57	0xbd0a577c	-0.033774838
58	0xbbd5c917	-0.006524216
59	0xbd618d05	-0.055066127
60	0xbc89b9e8	-0.01681228
61	0xbce5cec8	-0.028052703
62	0x3d8c57fa	0.06852718
63	0x3c3fc0fb	0.011703725
64	0xbd436762	-0.047706015
65	0xbd23d951	-0.04000217
66	0x3da5f347	0.08103042
67	0xbcea67ff	-0.028614042
68	0x3d80f0fb	0.062959634
69	0x3d7e61f8	0.06210515
70	0xbd8f2204	-0.0698891
71	0xbd894f1f	-0.06704544
72	0xbd20daef	-0.03927129
73	0x3d76c7f4	0.060249284
74	0xbc289a8a	-0.010290751
75	0x3d81c125	0.063356675
76	0xbd0c963a	-0.034322955
77	0xbdadbcbe	-0.08483265
78	0xbccf940c	-0.025339149
79	0x3d887811	0.06663526
80	0xbca46da7	-0.020071818
81	0x3d774ec2	0.060377844
82	0x3d975645	0.073895015
83	0x3d24864e	0.040167145
84	0x3d6015a9	0.054708157
85	0x3c9adeeb	0.018905124
86	0x3ba69d81	0.005084694
87	0xbb3c9f7b	-0.0028781581
88	0xbcd0b731	-0.025477977
89	0xbcdc67b8	-0.026904926
90	0xbc1a952a	-0.009434978
91	0x3d9b3861	0.07579113
92	0xbc52cb5b	-0.012865867
93	0xbd81709e	-0.06320308
94	0xbc5a7fc9	-0.01333613
95	0x3d635bc9	0.055507455
96	0x3ce964d6	0.028490465
97	0x3c6ff66b	0.014646153
98	0x3d1bd56c	0.03804533
99	0xbd878dd0	-0.066188455
100	0xbd519b7e	-0.05117368
101	0x3d020e37	0.031751838
102	0x3ceca05b	0.028885057
103	0xbda5e8b8	-0.08101028
104	0x3d0aa6a6	0.033850335
105	0x3d5cc148	0.053895265
106	0xbd47ba66	-0.048761748
107	0xbd3180da	-0.043335773
108	0x3bf2d016	0.0074100597
109	0xbcc58d47	-0.024115218
110	0xbc564670	-0.013078317
111	0x3cb18d2c	0.021673761
112	0xbcc2bb79	-0.023771035
113	0x3d8daa43	0.069172405
114	0x3d96a5c4	0.07355836
115	0xbb5178fb	-0.003196298
116	0x3cbbe27d	0.022935146
117	0xbd1aa291	-0.03775269
118	0xbd5cd3e0	-0.053912997
119	0x3da11870	0.07865989
120	0x3ca6a584	0.020342596
121	0x3d854275	0.06506816
122	0xbd78af5b	-0.060714107
123	0x3d8fde19	0.07024784
124	0xbd90bffd	-0.07067869
125	0xbd9e40b1	-0.07727183
126	0xbd260c9f	-0.04053938
127	0xbd1dfb36	-0.03856965
128	0xbcbd2a4e	-0.023091462
129	0x3d986569	0.074412175
130	0x3da7c8aa	0.081925705
131	0xbd46ffb7	-0.048583712
132	0x3d89d55b	0.067301475
133	0xbcf7db55	-0.030255953
134	0xbca5b4a6	-0.020227741
135	0xbc02b485	-0.0079776095
136	0xbce8af24	-0.028403826
137	0xbd70a72d	-0.05875318
138	0xbd8c682f	-0.06855809
139	0xbd8f49f8	-0.0699653
140	0xbd9e5316	-0.07730691
141	0xbd8bef0c	-0.06832704
142	0xbda0dfca	-0.078551844
143	0x3c8bad28	0.01705034
144	0xbd8ff763	-0.07029607
145	0xbdafefa8	-0.08590633
146	0x3b99fc38	0.0046992563
147	0x3d477b71	0.048701707
148	0x3ce6996c	0.02814933
149	0xba8599ef	-0.001019297
150	0x3d08315a	0.03325019
151	0xbd94b2cc	-0.07260665
152	0xbd80dde6	-0.06292324
153	0xbd058207	-0.032594707
154	0x3d3e5bbd	0.046474207
155	0x3c6cd1f1	0.014454351
156	0xbb5e3cfe	-0.0033910866
157	0xbd21049b	-0.039311033
158	0x3d7f21ae	0.06228798
159	0x3d63fc1e	0.05566036
160	0x3d93d2cd	0.072179414
161	0xbd8f81a4	-0.07007149
162	0x3d966e95	0.073453106
163	0xbd836a43	-0.06416752
164	0xbb036fad	-0.0020055578
165	0xbda44d6a	-0.08022578
166	0x3d9e3477	0.077248506
167	0xbdaf7f60	-0.08569217
168	0xbcf4877e	-0.029849764
169	0xbcac6409	-0.021043794
170	0xbcec4460	-0.028841197
171	0x3d374f31	0.044753257
172	0xbd1090dc	-0.0352944
173	0x3d714736	0.058905803
174	0xbc872264	-0.01649589
175	0x38db66a7	0.00010461854
176	0xbccb3f88	-0.024810567
177	0x3d5c87b7	0.053840365
178	0xbd9e6529	-0.077341385
179	0xbc4633a9	-0.012097278
180	0x3d877c90	0.06615555
181	0x39d22595	0.00040082322
182	0x3cd37b90	0.025815755
183	0xbcd31af6	-0.025769692
184	0x3d5fc82e	0.054634266
185	0xbced496a	-0.02896567
186	0xbd83313b	-0.06405874
187	0x3d84c125	0.06482152
188	0xbcd568a9	-0.026050882
189	0xbd8f85c4	-0.07007936
190	0x3d4028d1	0.046913926
191	0x3ccb7538	0.024836168
192	0x3d97d629	0.07413895
193	0x3b2d1667	0.0026411058
194	0x3d1adbc7	0.037807252
195	0xbd1782c9	-0.03698996
196	0xbdad6269	-0.08466036
197	0x3d9488ae	0.07252632
198	0x3c7aada2	0.015300186
199	0x3da55b81	0.080740936
200	0x3d91344b	0.07090052
201	0xbd6f2b40	-0.058390856
202	0xbd98a7fa	-0.07453914
203	0xbc495695	-0.012288709
204	0xbc1cf243	-0.009579244
205	0xbd49e5bc	-0.049291357
206	0x3d10f5d3	0.035390686
207	0xbd4d1205	-0.050066013
208	0xbd2ee520	-0.04269898
209	0x3da71397	0.08158033
210	0x3dacd4aa	0.08439
211	0xbd819515	-0.06327263
212	0x3c3fc4b2	0.011704611
213	0x3d9da446	0.07697348
214	0x3cfdf934	0.031002618
215	0xbd4b7121	-0.049668435
216	0xbbe51860	-0.006991431
217	0x3d932809	0.071853705
218	0x3da1b96a	0.07896693
219	0x3d8ab1ae	0.06772171
220	0xbd95cf1e	-0.07314895
221	0x3d740083	0.0595708
222	0xbd121adc	-0.035670146
223	0xbdaabc34	-0.08336678
224	0x3b733990	0.0037113167
225	0x3d82e500	0.063913345
226	0xbd1506d7	-0.036383476
227	0xbd13dc1d	-0.03609859
228	0xbd9ff1a7	-0.078097634
229	0xbdada4ab	-0.084786735
230	0xbd5dbcaa	-0.054135002
231	0x3c129d87	0.00894869
232	0xbd8f7020	-0.07003808
233	0xbd4d9881	-0.050194267
234	0x3c7cddcf	0.015433743
235	0x3da60a84	0.081074744
236	0xbc0ad209	-0.008472928
237	0x3d92867c	0.07154557
238	0xbd6e8fc1	-0.058242563
239	0xbccccef1	-0.025001021
240	0xbcdde52e	-0.02708682
241	0x3b5a6f11	0.003333036
242	0x3d80e6ff	0.06294059
243	0x3d858275	0.06519023
244	0x3d752dbc	0.05985807
245	0xbd8005a4	-0.06251076
246	0xbb2520b6	-0.00251965
247	0x3c2dac96	0.01060023
248	0x3d81481d	0.06312583
249	0xbcfcd7be	-0.030864593
250	0x3d56f660	0.052481055
251	0x3caebfa5	0.021331618
252	0xbd748cd4	-0.059704617
253	0xbda394bf	-0.079873554
254	0x3d994bc9	0.07485158
255	0x3daecd1c	0.08535215

fc1.bias f4 [128]
0	0x3d1fc2f5	0.039004285
1	0xbcaad7b7	-0.020854814
2	0xbd2e738f	-0.042590674
3	0x3cbd5afc	0.023114674
4	0xbcea7377	-0.028619511
5	0x3b7562f5	0.0037443016
6	0xbd9547d4	-0.07289091
7	0xbd020ef0	-0.031752527
8	0x3da22718	0.07917613
9	0xbca5fb24	-0.020261355
10	0x3d77bec0	0.060484648
11	0xbc2b114b	-0.010441135
12	0xbda5e2a5	-0.0809987
13	0xba7fa80e	-0.000975252
14	0xbd147275	-0.036241967
15	0xbc9cd18b	-0.019142887
16	0x3d1d2bb8	0.03837177
17	0x3d8afefd	0.067869164
18	0x3b732b39	0.003710462
19	0xbd1bcb7d	-0.03803586
20	0xbd85b266	-0.065281674
21	0x3cf3a441	0.029741408
22	0x3cda0c17	0.026617093
23	0xbd45a8b7	-0.048256602
24	0x3bc0aad4	0.0058797393
25	0xbc25ca3f	-0.01011902
26	0x3d173ba3	0.03692211
27	0xbc734b51	-0.0148495
28	0x3ce0f415	0.027460137
29	0xbc80f1d7	-0.015740318
30	0xbd5b852e	-0.053593807
31	0xbd565d6d	-0.05233519
32	0xbd3d1da9	-0.046170864
33	0xba77fa95	-0.0009459642
34	0x3cc70d6b	0.02429839
35	0xbd431471	-0.047626916
36	0xbdab1e76	-0.08355419
37	0xbd266789	-0.040626083
38	0xbd81b5c8	-0.063335
39	0xbd26e276	-0.040743314
40	0xbd98b171	-0.07455719
41	0x3d4c57ff	0.049888607
42	0x3d1215f5	0.03566547
43	0x3d741832	0.059593387
44	0xbda621b9	-0.08111901
45	0xbd580655	-0.052740414
46	0xbd95143b	-0.07279249
47	0xbd93c835	-0.07215921
48	0xbd3e1bca	-0.04641322
49	0x3d7919b0	0.060815513
50	0x3d8f1b62	0.06987645
51	0x3c26cfa7	0.010181344
52	0x3d78f31e	0.06077873
53	0x3c7d91cc	0.015476655
54	0xbd5bbf75	-0.053649385
55	0xbdae7859	-0.08519048
56	0xbd93f21d	-0.07223914
57	0xbc3bb576	-0.011456838
58	0x3d3e2ef8	0.04643151
59	0xbda64ac7	-0.081197314
60	0x3b45f073	0.0030203133
61	0xbd23e27f	-0.040010925
62	0xbdb079d7	-0.08616989
63	0xbd700eac	-0.058607742
64	0xbd931e05	-0.0718346
65	0xbb45de4f	-0.003019232
66	0xbc63943d	-0.013890323
67	0x3d601473	0.054707002
68	0xbd0adbbc	-0.03390096
69	0x3cc45245	0.02396501
70	0x3d84b5d4	0.064799935
71	0x3c94bcb5	0.018156389
72	0x3d55cbf3	0.052196454
73	0xbd1d766f	-0.038443025
74	0xbd1771ee	-0.036973886
75	0xbda8ff4e	-0.082518205
76	0x3dae1805	0.08500675
77	0xbd831f8f	-0.06402504
78	0x3d95142f	0.0727924
79	0xbd8954b3	-0.06705608
80	0xba2264ce	-0.00061948306
81	0xbca2831b	-0.019837907
82	0xbcc1849c	-0.023622803
83	0xbd219b5d	-0.039454807
84	0x3c0680d9	0.008209431
85	0x3d56f3ef	0.052478727
86	0x3da03499	0.07822532
87	0xbcd29765	-0.025706956
88	0x3c84fb9c	0.016233258
89	0xbd577917	-0.052605715
90	0xbd310570	-0.043218076
91	0x3d46967c	0.048483357
92	0xbd84e0df	-0.06488203
93	0xbd9fe2a9	-0.07806904
94	0xbd87ff05	-0.06640438
95	0xbcc77c30	-0.02435121
96	0xbc2a3570	-0.010388717
97	0xbd6c6e88	-0.0577226
98	0x3b868386	0.0041050343
99	0x3d7a15e2	0.061056025
100	0x3c38ce0f	0.011279597
101	0x3d74d43d	0.05977272
102	0x3d929bed	0.07158647
103	0xbda5ba5e	-0.08092187
104	0x3d97c519	0.0741064
105	0xbbbe1bd8	-0.005801659
106	0x3d98d0bb	0.07461687
107	0xbdaf8ca8	-0.0857175
108	0x3c8cf0a7	0.017204596
109	0x3d8fb5ce	0.07017098
110	0xbd2d66f3	-0.04233451
111	0xbd86c8b6	-0.06581251
112	0xbd30a645	-0.043127317
113	0xbbbe1334	-0.005800629
114	0x3d95ef4e	0.07321034
115	0xbd19dc44	-0.037563577
116	0x3d8aa3ef	0.06769549
117	0x3d44bb38	0.04803011
118	0xbd66d534	-0.05635567
119	0x3d44d1bb	0.048051577
120	0xbd3709ee	-0.044687204
121	0x3d2e093d	0.04248928
122	0x3d0cce7d	0.03437661
123	0x3d908cab	0.0705808
124	0xbcc74715	-0.024325887
125	0x3d4fc95c	0.05072914
126	0xbd3baf09	-0.045821223
127	0x3cb01a8d	0.021497035

rnn.weight_ih f4 [384, 128]
0	0xbd32ff26	-0.04370036
1	0x3d978103	0.07397654
2	0xbb8814ad	-0.0041528554
3	0xbd0efc7a	-0.03490875
4	0x3c04c98a	0.008104691
5	0x3d5ab9e8	0.05339995
6	0xbc482128	-0.012214936
7	0xbd851406	-0.0649796
8	0xbda6a2a8	-0.08136493
9	0x3da22b74	0.07918444
10	0x3cefc7c3	0.029270058
11	0x3cd4657c	0.025927298
12	0x3daa437d	0.083136536
13	0xbd7192c6	-0.058977865
14	0xbd0ee201	-0.034883503
15	0x3cc52d04	0.024069317
16	0xbd70777d	-0.058707703
17	0x3d11c0ff	0.035584446
18	0xbcf0410e	-0.029327895
19	0xbc85cc46	-0.016332757
20	0x3db05aaa	0.08611043
21	0x3d6aac93	0.057293486
22	0x3d3795ad	0.044820476
23	0x3d667bce	0.056270413
24	0x3c97b93e	0.018520948
25	0x3dace4d7	0.08442085
26	0x3c7ac727	0.015306271
27	0x3d82b922	0.063829675
28	0x3d77bf4d	0.060485173
29	0x3da16f33	0.07882538
30	0xbd9795bd	-0.07401607
31	0x3c8722a0	0.016496003
32	0x3d6ab397	0.057300176
33	0x3cc246d7	0.02371542
34	0xbd2a67ae	-0.041602783
35	0x3ae2f8bb	0.0017316559
36	0x3dade496	0.08490865
37	0xbdb2e81a	-0.08735676
38	0x3d6fae46	0.05851581
39	0xbd25d6b4	-0.04048796
40	0x3d3ad875	0.045616586
41	0x3d6d9f42	0.05801321
42	0x3d8961da	0.06708117
43	0xbd914312	-0.07092871
44	0xbd9b086e	-0.07569967
45	0xbd88a29c	-0.0667164
46	0x3d9666d0	0.07343829
47	0x3c9c56c0	0.019084334
48	0xbcee5cf9	-0.029097067
49	0xbda1e002	-0.07904054
50	0xbccfc1fc	-0.025361054
51	0x3d8f5eb7	0.07000487
52	0xbda6289b	-0.08113214
53	0x3d80c223	0.06287029
54	0xbd9ae9a3	-0.07564094
55	0xbd12b09b	-0.035812955
56	0x3bdbd80b	0.006709104
57	0xbd96f7b6	-0.07371466
58	0x3d417705	0.047232646
59	0x3c4e53dc	0.012593236
60	0xbd0598f7	-0.03261658
61	0x3da947a1	0.08265615
62	0x3da52ac2	0.08064796
63	0xbc795a8d	-0.015219343
64	0x3d9a24c7	0.07526546
65	0x3d39207f	0.045197006
66	0xbbff00e4	-0.0077820886
67	0x3c5a2a6e	0.01331578
68	0xbd35ae2b	-0.044355553
69	0xbd5dc2c9	-0.05414084
70	0x3d871b56	0.06597011
71	0x3d703864	0.05864753
72	0x3d626733	0.0552742
73	0x3d307d70	0.043088377
74	0x3d7d491b	0.061837297
75	0x3cdabafd	0.026700491
76	0x3c008608	0.007844456
77	0xbc67c806	-0.01414681
78	0xbdb3729e	-0.08762096
79	0xbd8a8b6d	-0.067648746
80	0xbb428df3	-0.002968666
81	0x3b7147b9	0.0036816432
82	0xbc86cb6e	-0.016454425
83	0xbcd2c1c0	-0.025727153
84	0xbd673c84	-0.056454197
85	0x3d409c8b	0.04702429
86	0x3d9160fe	0.07098578
87	0xbc81b206	-0.015831959
88	0xbd803be0	-0.0626142
89	0xbd015c4f	-0.031582173
90	0x3d82da37	0.063892774
91	0xbd64c0df	-0.055848
92	0xbd2075ff	-0.03917503
93	0xbd143836	-0.03618642
94	0x3c9edb09	0.019391553
95	0x3bd0774b	0.006361877
96	0x3cccde6b	0.0250084
97	0xbd0d6f3a	-0.034529902
98	0x3d945865	0.072434224
99	0xbc8af8dd	-0.01696437
100	0x3cfb06ed	0.03064295
101	0x3dadcc28	0.08486205
102	0x3d466104	0.048432365
103	0x3a92faeb	0.0011213695
104	0x3db459f3	0.08806219
105	0xbd881f00	-0.06646538
106	0xbd999e8b	-0.07500943
107	0xbd07d2c5	-0.03315999
108	0x3ceeba1c	0.029141478
109	0x3d146de5	0.036237616
110	0xbc03d076	-0.008045306
111	0x3c19d34e	0.009388758
112	0xbcfa8e0e	-0.030585315
113	0xbcfac7f8	-0.03061293
114	0x3dae91bd	0.08523891
115	0xbcf592a2	-0.029977147
116	0x3d85680f	0.06513988
117	0x3da49466	0.08036117
118	0xbd04c330	-0.032412708
119	0xbd4398e2	-0.047753222
120	0xbd911552	-0.07084145
121	0x3d54c2d2	0.051943608
122	0xbdb0ab81	-0.08626462
123	0x3d1b689c	0.03794156
124	0xbd9029fb	-0.07039257
125	0xbdb186b5	-0.086682715
126	0xbd89ef44	-0.067350894
127	0xbd71cdda	-0.059034206
128	0x3c07dc81	0.008292318
129	0x3d88b470	0.06675041
130	0x3d2379b5	0.03991099
131	0x3d6bd01a	0.057571508
132	0x3da81d8a	0.08208759
133	0x3d63c866	0.055611037
134	0xbb3b7cfe	-0.0028608437
135	0xbd705ae2	-0.058680423
136	0x3c845719	0.016154813
137	0xbdb2aaf0	-0.0872401
138	0xbd634f49	-0.055495534
139	0x3d90b031	0.07064856
140	0x3d50625e	0.05087506
141	0x3d6bf08d	0.057602454
142	0xbdabfe86	-0.08398156
143	0x3da5a6a7	0.08088427
144	0xbd762fda	-0.06010423
145	0x3d20e34a	0.03927926
146	0xbcf8c954	-0.030369438
147	0xbd8230c8	-0.063569605
148	0xbd935884	-0.071946174
149	0xbb49ce48	-0.003079312
150	0xbd5aa94d	-0.053384114
151	0x3ce38775	0.027774552
152	0xbd819f0a	-0.063291624
153	0x3ca50d03	0.020147806
154	0xbd46e435	-0.04855748
155	0x3d262a68	0.040567786
156	0x3cf85935	0.030315975
157	0xbcd5bb4e	-0.02609029
158	0x3d9ebf3e	0.0775132
159	0x3d535fec	0.05160515
160	0x3da1b3e6	0.07895641
161	0xbd5754c0	-0.05257106
162	0xbbf548f0	-0.0074855015
163	0xbd365413	-0.044513773
164	0x3d98fe61	0.07470394
165	0x3c3b42ec	0.01142953
166	0x3d9662f3	0.07343092
167	0xbd9eb682	-0.07749654
168	0xba30429b	-0.0006723792
169	0x3d52f15b	0.051499706
170	0xbdab0fe7	-0.083526425
171	0x3d6e2af5	0.058146436
172	0xbc80dcd4	-0.015730299
173	0x3d8381f7	0.06421273
174	0x3d176cff	0.03696918
175	0x3d48b214	0.048997954
176	0x3cc59a2d	0.024121368
177	0x3b8f9d0b	0.0043827347
178	0xbd1c636f	-0.038180765
179	0x3cd015e9	0.025401073
180	0x3dac9071	0.084259875
181	0x3da2060e	0.07911311
182	0xbcb83899	-0.022487925
183	0x3da9cd74	0.0829114
184	0xbc30d2c4	-0.010792438
185	0x3d54d5cb	0.0519617
186	0xbd17deff	-0.0370779
187	0xbd4d71a7	-0.050157215
188	0xbcc545ad	-0.024081076
189	0xbc1c76fe	-0.009549854
190	0xbb390340	-0.0028230697
191	0xbdb229dd	-0.08699391
192	0xbd31706e	-0.043320112
193	0x3cac1e19	0.021010445
194	0x3d7ebff6	0.062194787
195	0xbc8cf567	-0.01720686
196	0x3d962683	0.07331564
197	0x3b835622	0.0040080706
198	0x3ce5cbd0	0.028051287
199	0x3d2e8f83	0.042617332
200	0xbd737491	-0.05943734
201	0x3c806cc6	0.015676867
202	0x3d8421a0	0.06451726
203	0xbc0fa626	-0.00876764
204	0x3d1a4e47	0.037672307
205	0xbd401ebf	-0.04690432
206	0x3da92c99	0.082604595
207	0x3bda5ad3	0.006663659
208	0x3cefc988	0.029270902
209	0xbc9dfe33	-0.01928625
210	0x3cece1c9	0.028916257
211	0x3ce6ff5c	0.028197937
212	0x3d3e50ac	0.046463653
213	0x3c2c49a7	0.010515607
214	0xbd823c79	-0.063591905
215	0x3d9c0dc4	0.07619813
216	0xbc38ff0d	-0.011291278
217	0xbd46da62	-0.04854811
218	0x3d719b42	0.058985956
219	0xbd04fff4	-0.03247066
220	0x3c1a717a	0.009426469
221	0x3b72e47f	0.0037062464
222	0x3d392123	0.045197617
223	0xbcfb44cc	-0.030672453
224	0xbd9aa234	-0.07550469
225	0xbdb1474a	-0.086561754
226	0x3d59fa6a	0.05321733
227	0xbb2dfef4	-0.002654967
228	0xbc0f5825	-0.008749043
229	0xbb719c0b	-0.003686669
230	0x3ab607c0	0.0013887808
231	0x3d3164f6	0.043309174
232	0x3d9c1809	0.07621772
233	0x3cc2fac1	0.02380121
234	0xbd4e20bd	-0.05032419
235	0xbd95ce7d	-0.07314775
236	0xbd734805	-0.059394855
237	0x3daa414b	0.08313235
238	0xbade4159	-0.0016956731
239	0x3d4734a4	0.048634186
240	0xbd28cd43	-0.041211378
241	0xbcf473f7	-0.029840453
242	0xbba99d38	-0.0051762126
243	0x3cdd30e4	0.027000852
244	0xbd063ebd	-0.032774676
245	0x3db431ab	0.08798536
246	0xbb473f80	-0.003040284
247	0x3d95356f	0.07285582
248	0x3d82d68c	0.06388578
249	0x3c8d92d9	0.017281936
250	0xbd85564b	-0.065106
251	0xbc8cc3f9	-0.01718329
252	0x3d33505b	0.043777805
253	0x3d4ef0e4	0.0505227
254	0xbcb883fe	-0.022523876
255	0xbd234912	-0.039864607

rnn.weight_hh f4 [384, 128]
0	0x3cecef7c	0.028922789
1	0x3d7e7bfa	0.062129952
2	0x3cf2c704	0.029635914
3	0x3d4c9b22	0.049952634
4	0xbd6e5aaa	-0.058191933
5	0x3d58e50a	0.052952804
6	0xbd3faed0	-0.046797574
7	0x3d181311	0.03712756
8	0x3cfcc3e5	0.030855129
9	0xbc4b2239	-0.012398296
10	0x3c3b5a09	0.01143504
11	0xbc2d0d14	-0.0105622
12	0xbbfce55f	-0.007717773
13	0xbd89d0ce	-0.067292795
14	0x3c95c4b3	0.01828227
15	0xbd862be9	-0.06551344
16	0x3a118043	0.00055504235
17	0xbd86cdd8	-0.0658223
18	0x3d5490c5	0.051895875
19	0xbd9529c3	-0.07283356
20	0xbcbd0e9c	-0.023078255
21	0x3da7d259	0.081944175
22	0xbd3722e4	-0.04471101
23	0x3db37279	0.08762068
24	0x3d4646a5	0.048407216
25	0xbd1f715d	-0.03892647
26	0xbd0e1c53	-0.03469498
27	0x3c2bd621	0.010488064
28	0x3cde4262	0.027131263
29	0xbd2be4a5	-0.0419661
30	0xbd9da55e	-0.07697557
31	0x3d3d1200	0.046159744
32	0x3d007c08	0.031368285
33	0x3cb4600a	0.022018451
34	0xbdabc241	-0.0838666
35	0x3d9d6eb4	0.076871306
36	0x3d8eb619	0.06968326
37	0xbc23eee0	-0.010005683
38	0x3d890141	0.06689692
39	0xbcc1528f	-0.023598937
40	0x3da12da6	0.07870035
41	0x3d3b39ff	0.045709606
42	0x3d965df4	0.07342139
43	0x3d07e4b4	0.033177093
44	0xbd968a26	-0.073505685
45	0x3dae023f	0.08496522
46	0x3d54ffcc	0.05200176
47	0x3d850fb5	0.064971365
48	0x3c21efa3	0.009883794
49	0x3d531b38	0.05153963
50	0xbd05d4e4	-0.03267373
51	0xbbf094e9	-0.00734197
52	0xbd9660b9	-0.07342667
53	0xbd47240e	-0.04861837
54	0x3d299390	0.041400492
55	0xbdaed983	-0.08537581
56	0xbc9c325c	-0.019066982
57	0x3cde70d0	0.027153403
58	0xbdb17060	-0.08664012
59	0x3d70d8c0	0.05880046
60	0x3d491d79	0.049100373
61	0x38be3bdb	9.071055e-05
62	0xbc797670	-0.015225992
63	0x3d031831	0.032005493
64	0xbd30647b	-0.043064576
65	0x3d37aef7	0.044844594
66	0xbccf99e1	-0.02534193
67	0xbd53d12b	-0.05171315
68	0xbd970785	-0.07374481
69	0x3c328230	0.010895297
70	0x3d8b6acd	0.0680748
71	0x3d517d1c	0.051144704
72	0x3cc9d25f	0.024636446
73	0xbcaf2a3d	-0.021382445
74	0x3d1e6679	0.038671944
75	0x3d815080	0.06314182
76	0xbd218c25	-0.039440293
77	0x3dace00d	0.08441172
78	0x3d859d56	0.0652415
79	0x3d7e0d3a	0.062024333
80	0x3d99e811	0.07514966
81	0x3b134037	0.0022468695
82	0x3d8f73b5	0.07004491
83	0x3bb8eb90	0.0056433156
84	0xbd73f176	-0.059556447
85	0xbd9a5d89	-0.07537372
86	0x3d4dc41e	0.05023586
87	0x3d73d880	0.059532642
88	0x3d58e020	0.052948117
89	0x3ccadaa6	0.024762463
90	0x3d4c995b	0.04995094
91	0x3d9be5cd	0.076121904
92	0xbce06582	-0.027392153
93	0xbb3f2205	-0.0029164564
94	0xbd808323	-0.06275012
95	0x3853d29b	5.050246e-05
96	0x3d864edd	0.06558011
97	0x3c018e72	0.007907497
98	0xbbdd32e1	-0.00675045
99	0x3d907448	0.07053429
100	0x3d9e771e	0.077375636
101	0x3da032ec	0.078222126
102	0xbcf4a812	-0.029865298
103	0xbbe5f687	-0.0070179137
104	0xbd827c44	-0.06371358
105	0x3d202029	0.03909317
106	0xbd8d33cc	-0.06894645
107	0xbd93bdfd	-0.07213972
108	0xbd74dc2d	-0.05978029
109	0x3d36401c	0.044494733
110	0x3c2ceb23	0.010554108
111	0x3d05703d	0.032577742
112	0x3db35e7c	0.08758256
113	0xbcc51d37	-0.024061782
114	0x3c99e628	0.018786505
115	0xbd888754	-0.06666437
116	0xbd01d117	-0.031693544
117	0x3d0741ea	0.033021845
118	0xbd7aed9a	-0.06126175
119	0x3d3300a1	0.04370177
120	0x3d3bf8fe	0.045891754
121	0x3c74f6c8	0.014951415
122	0x3cb26d0b	0.021780511
123	0xbd83f057	-0.064423256
124	0x3cb218c4	0.021740325
125	0x3d7f4c8e	0.062328868
126	0x3d9a9e35	0.07549707
127	0xbdb25715	-0.08708016
128	0xbcdb8a32	-0.026799295
129	0x3b981b39	0.004641917
130	0x3ae352e3	0.0017343428
131	0xbd980c0a	-0.07424171
132	0x3d02a30e	0.031893782
133	0xbc8e8d4b	-0.017401358
134	0x3c5da3d7	0.013527832
135	0x3daad632	0.08341636
136	0xbd7db545	-0.06194045
137	0x3d82dba0	0.063895464
138	0x3d99d50d	0.07511339
139	0xbc7e9fee	-0.01554106
140	0xbc8defa2	-0.01732618
141	0x3db0439b	0.08606645
142	0x3db35abe	0.08757542
143	0xbd84c7ad	-0.06483398
144	0x3d26346a	0.04057733
145	0xbd67e8a1	-0.056618337
146	0x3b8c630e	0.004284269
147	0xbd9b41f9	-0.07580943
148	0x3d337a62	0.043817885
149	0xbd88b618	-0.066753566
150	0xbd207c9e	-0.039181344
151	0x3ca9eb71	0.02074215
152	0x3cf72b13	0.030171907
153	0xbd3b6b8f	-0.045756873
154	0xbdaed010	-0.085357785
155	0x3d37cd0d	0.044873286
156	0x3d76a9a7	0.060220387
157	0xbc4c3d55	-0.012465795
158	0xbd941431	-0.07230414
159	0xbcbd0c8e	-0.023077276
160	0x3d728c2f	0.05921572
161	0xbd256c0d	-0.04038625
162	0xbd227aed	-0.039668012
163	0x3d114070	0.035461843
164	0xbc96a518	-0.01838927
165	0x3cc88c15	0.024480859
166	0xbcc96d63	-0.024588292
167	0xbd385ade	-0.045008533
168	0x3c779d84	0.015113238
169	0x3c2e3632	0.010633038
170	0xbd91655b	-0.0709941
171	0xbd62b065	-0.055344004
172	0xbd67652f	-0.05649298
173	0xbd0eced6	-0.034865223
174	0x3d227452	0.039661713
175	0x3d93e6a7	0.07221728
176	0xbd4a604a	-0.049408235
177	0xbceae4c8	-0.028673545
178	0x3c350a79	0.01104986
179	0x3d8a4256	0.06750934
180	0xbc63c0aa	-0.013900915
181	0x3b58f02a	0.0033102133
182	0x3c05ff35	0.008178522
183	0x3ceb04f4	0.028688885
184	0xbd7c313c	-0.06157039
185	0x3a009a2f	0.00049057876
186	0x3a912a5a	0.0011075244
187	0xbd4d206f	-0.05007976
188	0xbcd261df	-0.025681434
189	0xbd0ef699	-0.034903143
190	0xbb35dad9	-0.0027748852
191	0xbd95f0bc	-0.07321307
192	0xb7fa0cf6	-2.9808358e-05
193	0x3d227205	0.03965952
194	0xbd90ee9f	-0.07076763
195	0x3caaf3b3	0.020868158
196	0xbd8c29d6	-0.06843917
197	0xbd78d94e	-0.060754113
198	0x3d883794	0.06651226
199	0x3cae4616	0.021273654
200	0x3d79232f	0.06082457
201	0x3d8ae82f	0.06782567
202	0x3c218ecf	0.009860708
203	0xbc415f5a	-0.011802519
204	0x3cb438af	0.021999685
205	0xbd276049	-0.04086331
206	0x3c68f5b2	0.014218735
207	0x3d86de22	0.06585337
208	0x3c3e288b	0.011606346
209	0xbc5f5650	-0.013631418
210	0x3bb4e8d7	0.0055209207
211	0x3db0edd6	0.086391136
212	0x3d97d3b7	0.07413428
213	0x3d4f8c06	0.050670646
214	0xbce81e0c	-0.02833464
215	0x3d3cd040	0.04609704
216	0xbdac8dcd	-0.08425484
217	0x3ce8bca4	0.028410263
218	0x3b3c7aab	0.002875964
219	0xbd28284c	-0.041054055
220	0x3cb7f90c	0.022457622
221	0xbd916c17	-0.071006946
222	0x3d539338	0.05165407
223	0xbcd599ce	-0.026074316
224	0xbb8debad	-0.0043310733
225	0xbd9268b4	-0.07148877
226	0x3ca9f535	0.020746807
227	0x3cbff008	0.023429886
228	0xbca4d2e5	-0.020120094
229	0xbd87c2a1	-0.066289194
230	0xbd654826	-0.05597701
231	0xbd6f8bc8	-0.058482915
232	0xbcc85cc0	-0.02445829
233	0xbc7ceeea	-0.015437821
234	0xbd48d2ba	-0.04902909
235	0x3cbc4263	0.022980874
236	0xbd40091a	-0.04688368
237	0xbd62a49e	-0.055332772
238	0x3adea074	0.0016985075
239	0xbd4a7d88	-0.049436122
240	0xbdae53f7	-0.08512109
241	0x3bef2eda	0.0072992863
242	0xbd82f2a1	-0.06393934
243	0x3ce7dcf3	0.028303599
244	0x3d88ae36	0.06673853
245	0xbd925be7	-0.07146435
246	0x3b964285	0.0045855665
247	0x3c5876b8	0.0132118985
248	0x3cbfc398	0.023408696
249	0xbd8b4383	-0.06799986
250	0xbd9b7777	-0.075911455
251	0x3ceac36f	0.028657643
252	0xbc7fb6cc	-0.015607547
253	0x3d34594f	0.044030484
254	0xbca3d3b2	-0.019998405
255	0x3d5e0a5c	0.0542091

rnn.bias_ih f4 [384]
0	0x3d2f6082	0.042816646
1	0xb9df44db	-0.00042585176
2	0x3da6677b	0.08125206
3	0xbd793aa4	-0.06084694
4	0xbb0f2739	-0.0021843447
5	0xbdaf0f68	-0.085478604
6	0xbd978d3f	-0.073999874
7	0xbd534556	-0.051579796
8	0xbd6e8f06	-0.058241867
9	0x3c964822	0.018344942
10	0xbd8017b2	-0.062545195
11	0xbd1ad5bb	-0.037801486
12	0x3d02aa92	0.03190095
13	0x3cfa527b	0.030556908
14	0xbd96f571	-0.07371033
15	0x3d4137a2	0.047172196
16	0x3d2b337c	0.041797146
17	0x3c26a497	0.010171077
18	0xbd2ee324	-0.042697087
19	0x3d1d7278	0.038439244
20	0xbd909676	-0.07059948
21	0xbd5ada1d	-0.053430665
22	0x3d05ae41	0.032636885
23	0x3cb890b8	0.022529945
24	0xbd706983	-0.058694374
25	0xbd95aa2c	-0.07307848
26	0x3a0bb4c1	0.00053293636
27	0x3da85254	0.08218828
28	0x3ce70768	0.028201774
29	0x3d9e77e7	0.07737713
30	0x3d7b12ca	0.061297216
31	0x3d0d205f	0.0344547
32	0xbdab9a51	-0.08379043
33	0xbd34f192	-0.044175692
34	0xbd9f7979	-0.07786841
35	0x3cef133b	0.029183974
36	0x3d854fd6	0.06509368
37	0x3d187062	0.03721655
38	0xbd633492	-0.055470057
39	0x3c6c5e44	0.014426772
40	0xbcebd181	-0.028786423
41	0xbd66e752	-0.056372948
42	0xbd02aa15	-0.031900484
43	0xbd8d865a	-0.06910391
44	0x3d4d7edb	0.050169807
45	0x3ccca5a1	0.024981322
46	0xbd1293f2	-0.035785623
47	0x3d9d639b	0.07685014
48	0x3da65858	0.08122319
49	0x3d508dcf	0.05091649
50	0xbc2f52b8	-0.010700874
51	0x3d91ede2	0.07125451
52	0x3d6b3131	0.05741996
53	0xbd91f05f	-0.07125925
54	0x3bb764f9	0.0055967537
55	0x3d32b6fd	0.043631542
56	0x3cbec5b9	0.02328764
57	0x3d6a8ded	0.057264257
58	0x3d81846e	0.06324087
59	0xbb12225e	-0.0022298316
60	0xbd997e65	-0.07494811
61	0x3d619588	0.055074245
62	0x3da2352d	0.07920299
63	0xbcca1d74	-0.024672247
64	0x3bb10dcf	0.0054032574
65	0x3cd55a08	0.026043907
66	0xbaf5153b	-0.0018698344
67	0xbbfa5ff5	-0.0076408335
68	0xbd786636	-0.06064435
69	0x3ce19b22	0.027539793
70	0x3d9d5bab	0.076835
71	0xbd5eb922	-0.054375775
72	0x3d7397ae	0.059470825
73	0x3d4b0cdb	0.049572807
74	0x3d0fea73	0.035135698
75	0x3c345c4e	0.011008335
76	0x3dabd721	0.08390642
77	0x3c540cad	0.012942475
78	0x3d3704e2	0.04468239
79	0xbd194b14	-0.037425116
80	0x3dafbd17	0.08580988
81	0xbd3007bd	-0.04297613
82	0x3d211004	0.039321914
83	0xbd032291	-0.032015387
84	0xbdb1f348	-0.0868898
85	0x3d9b5bf7	0.075859
86	0x3d6c67d8	0.05771622
87	0x3c870246	0.016480576
88	0xbcaba25b	-0.02095144
89	0x3c94d9c3	0.018170243
90	0xbd174deb	-0.036939543
91	0x3ba17f79	0.004928526
92	0x3dab2905	0.08357433
93	0xbdae7b09	-0.08519561
94	0xbd101ee9	-0.03518573
95	0xbcfa5368	-0.03055735
96	0xbd3e94a2	-0.046528466
97	0xbd2a4c8c	-0.041576907
98	0xbda06fa2	-0.07833792
99	0x3d92239f	0.071357004
100	0xbbaace12	-0.005212554
101	0xba349047	-0.0006887954
102	0x3cd86856	0.026416939
103	0x3c176a50	0.0092416555
104	0xbd398a79	-0.045298073
105	0x3db4e466	0.08832626
106	0x3d4c6715	0.049902994
107	0xbd846fba	-0.06466623
108	0x3d8a3bed	0.06749711
109	0xbc2f2a80	-0.010691285
110	0x3cbc66c2	0.022998217
111	0x3c9f3548	0.019434586
112	0xbcce89e3	-0.025212234
113	0xba754934	-0.00093569164
114	0xbd2d7b85	-0.042354126
115	0xbd844823	-0.064590715
116	0xbcac776a	-0.021053035
117	0xbcc2e9cf	-0.02379313
118	0xbd265da0	-0.04061663
119	0x3d5f79e3	0.0545596
120	0x3d6280be	0.05529856
121	0xbce06b6e	-0.027394976
122	0xbd7059f5	-0.05867954
123	0x3d9879b4	0.07445088
124	0xbc87f481	-0.01659608
125	0xbd90ded1	-0.07073749
126	0xbdac1e2a	-0.08404191
127	0xbc850862	-0.016239349
128	0x3dacb501	0.08432961
129	0x3abedd6e	0.0014561841
130	0xbcd931ba	-0.02651297
131	0xbd2869f5	-0.041116673
132	0x3bfdc9f1	0.0077450206
133	0xbd356863	-0.044289004
134	0xbdae5adc	-0.08513424
135	0x3d8dd6a4	0.06925705
136	0xbd197403	-0.037464153
137	0x3b52724a	0.0032111579
138	0xbd838f09	-0.06423766
139	0x3d9d8c03	0.07692721
140	0xbd60ee4d	-0.05491476
141	0xbd054d01	-0.03254414
142	0x3d34abdb	0.044109207
143	0xbda0d3f6	-0.07852928
144	0xbc92aa6b	-0.017903527
145	0xbdaed8a0	-0.08537412
146	0xbd033a94	-0.032038286
147	0x3d8d256c	0.06891903
148	0x3bc867de	0.0061158976
149	0xbda51ecc	-0.08062515
150	0xbd2121f5	-0.039339025
151	0xbd62381c	-0.05522929
152	0x3d23fbc2	0.040035017
153	0xbd3777cd	-0.044791985
154	0x3cb7664c	0.022387646
155	0xbdadc0bc	-0.08484027
156	0xbd878e72	-0.06618966
157	0xbd7068fe	-0.05869388
158	0x3d08534f	0.033282574
159	0x3ca6a7d1	0.020343693
160	0xbda25f7a	-0.07928367
161	0x3c529cef	0.012854799
162	0x3cdc6944	0.026905663
163	0xbc468ea3	-0.012118968
164	0xbdad7be5	-0.08470897
165	0xbb2151b0	-0.002461534
166	0x3db1ea1e	0.086872324
167	0xbc86cc9a	-0.016454984
168	0x3dacf513	0.08445182
169	0xbb9c1629	-0.004763384
170	0xbce19876	-0.02753852
171	0x3d091ed0	0.03347665
172	0x3c7da93d	0.015482244
173	0xbd11d08e	-0.035599284
174	0x3d27afc2	0.0409391
175	0x3cf61134	0.0300375
176	0x3d91c0e7	0.07116871
177	0x3d46f61b	0.04857455
178	0x3cc8d5ab	0.024515947
179	0xbd4b67f0	-0.04965967
180	0xbd37e1e9	-0.04489318
181	0x3c3a6fa1	0.0113791535
182	0x3d1988ed	0.0374841
183	0xbd7f0999	-0.062265012
184	0xbd0269c8	-0.031839162
185	0xbb837363	-0.004011558
186	0x3d8388f3	0.06422605
187	0xbd4e710d	-0.050400782
188	0x3bd22783	0.0064134016
189	0x3da5e9a1	0.08101202
190	0xbd8fcba6	-0.07021265
191	0xbd9d29fa	-0.07674022
192	0xbc996795	-0.01872615
193	0x3d0ef8da	0.034905292
194	0xbdae2501	-0.08503152
195	0x3cdb5d94	0.02677802
196	0xbd9621de	-0.073306784
197	0x3daeef85	0.085417785
198	0xbc608176	-0.013702741
199	0xbc5cf83b	-0.013486917
200	0xbd2744c0	-0.04083705
201	0x3d3ed470	0.046589315
202	0xbc98b4bb	-0.018640867
203	0xbd9cc897	-0.07655447
204	0xbd39826b	-0.045290392
205	0xbd90944a	-0.07059534
206	0x3bf370db	0.007429225
207	0xbdaf45fb	-0.085582696
208	0x3cab6268	0.020920947
209	0x3d57c2c9	0.052675996
210	0xbd71c6ca	-0.05902747
211	0xbd64a723	-0.055823456
212	0xbd45a71d	-0.048255075
213	0x3d82f209	0.06393821
214	0x3d9cbea7	0.076535515
215	0x3db30344	0.08740857
216	0xbd9aeb86	-0.07564454
217	0xbd850d7a	-0.06496711
218	0x3c6ead46	0.014567679
219	0xbd999e25	-0.07500867
220	0x3d2138d7	0.039360847
221	0xbda3e694	-0.08002964
222	0x3d71e1bd	0.05905317
223	0xbd8ff073	-0.07028284
224	0xbda43994	-0.08018795
225	0x3d6a07fc	0.05713652
226	0x3cb6d59b	0.022318652
227	0x3cf3c571	0.029757233
228	0x3d5bacbe	0.053631537
229	0xbd8d8045	-0.06909231
230	0xbd14b0eb	-0.036301535
231	0x3c78b54f	0.015179946
232	0x3c210486	0.009827739
233	0x3daa731b	0.08322736
234	0xbd2d0a3d	-0.042246092
235	0x3c1aaaf9	0.009440177
236	0xbd6643bf	-0.05621695
237	0x3d06fa57	0.032953586
238	0x3cd7ab13	0.026326692
239	0x3d5031f4	0.05082889
240	0xbca52ae8	-0.02016206
241	0xbd2e148e	-0.04250007
242	0x3d9e0d5b	0.07717391
243	0x3d9b2552	0.07575478
244	0xbcdd2314	-0.026994266
245	0x3d494747	0.04914024
246	0xbd892a51	-0.06697524
247	0xbd8004c6	-0.062509105
248	0x3d1fd916	0.03902539
249	0xbd5316ec	-0.051535532
250	0xbd65ad03	-0.0560732
251	0x3c617c4f	0.013762548
252	0x3d55ece4	0.05222787
253	0x3da5ebad	0.08101592
254	0xbc275eea	-0.0102155
255	0xbda7d53a	-0.081949666

rnn.bias_hh f4 [384]
0	0x3d83690a	0.06416519
1	0x3c0966a1	0.008386285
2	0xbdada700	-0.08479118
3	0xbd0e83dc	-0.03479372
4	0xbcd070af	-0.025444357
5	0x3d9bb715	0.076032795
6	0xbd49b39f	-0.049243566
7	0xbd4a1c10	-0.04934317
8	0xbcb0d653	-0.021586573
9	0xbd348a5e	-0.04407727
10	0xbab6229f	-0.0013895816
11	0xbbf2bc47	-0.0074076983
12	0x3b2d84a0	0.0026476756
13	0xbcaa615a	-0.020798374
14	0xbce0dbed	-0.027448619
15	0x3d94c628	0.07264358
16	0x3b24dcba	0.0025155977
17	0xbd95edb0	-0.07320726
18	0xbd383186	-0.044969104
19	0x3c6aaf6a	0.0143240485
20	0xbd716445	-0.058933515
21	0x3c70879c	0.014680769
22	0xba2f4df2	-0.0006687335
23	0x3d33138e	0.04371982
24	0xbd9a3ae6	-0.07530765
25	0x3d1bab36	0.038005076
26	0x3d3e73da	0.046497203
27	0x3d9658de	0.07341169
28	0x3db020da	0.08600016
29	0xbda6692f	-0.08125531
30	0xbd386c48	-0.04502514
31	0xbd8772d8	-0.066137016
32	0xbb880db1	-0.004152023
33	0x3d1b970f	0.037985858
34	0x3d9dc7a4	0.07704094
35	0x3d3d0e5b	0.04615627
36	0x3cb80ba1	0.022466483
37	0x3d46c0f9	0.048523877
38	0x3d87b1d6	0.066257164
39	0xbd8ed972	-0.06975068
40	0xbd2b07d5	-0.041755516
41	0xbc8cff3d	-0.01721155
42	0x3d9b80d0	0.075929284
43	0xbd92a3d0	-0.07160151
44	0xbb2f1eec	-0.0026721312
45	0xbd24a040	-0.04019189
46	0xbc88b355	-0.016687075
47	0x3cbd0138	0.02307187
48	0x3d847c44	0.06469014
49	0xbd22c60c	-0.039739653
50	0x3ceef2d0	0.029168516
51	0xbc310d1a	-0.010806346
52	0xbc9a2412	-0.018816028
53	0x3d5afbd3	0.053462815
54	0x3d33fbaf	0.043941196
55	0x3d39247e	0.045200817
56	0x3db34d3a	0.08754964
57	0x3d55bcb8	0.05218193
58	0x3d25a0b8	0.040436476
59	0xbd9c8efd	-0.0764446
60	0x3dac04c5	0.08399347
61	0x3d695a45	0.056970853
62	0x3d2f6441	0.04282022
63	0x3d38c5d7	0.04511055
64	0x3cfe33d5	0.031030575
65	0x3d738b49	0.059459005
66	0xbd4e9791	-0.050437514
67	0x3d161c12	0.036647864
68	0x3d9bfb5c	0.07616302
69	0xbd16f93b	-0.03685878
70	0xbc491d5f	-0.012275069
71	0x3d845fbe	0.06463574
72	0x3c8e60a8	0.017380074
73	0xbd7c2ae5	-0.061564345
74	0xbcd742aa	-0.026276905
75	0x3cc7ff42	0.024413709
76	0xbcf34d75	-0.02970002
77	0xbd20ed09	-0.039288554
78	0xbd17920b	-0.03700451
79	0x3d8dfb40	0.06932688
80	0xbc85d566	-0.016337108
81	0x3c91feec	0.017821752
82	0x3d25f1b1	0.040513698
83	0xbd816158	-0.06317395
84	0xbd7f7d4a	-0.062375344
85	0xbd33d994	-0.04390867
86	0xbd8d9135	-0.06912462
87	0x3cbafa72	0.0228245
88	0x3d44db53	0.048060726
89	0x3ce006d3	0.027347004
90	0xbd88c5c2	-0.06678344
91	0x3b8916c5	0.0041836225
92	0x3da112a9	0.07864887
93	0xbd8783c9	-0.06616933
94	0xbd886e3e	-0.06661652
95	0xbca25e90	-0.019820482
96	0xbd0f4ee3	-0.03498734
97	0xbc5026f3	-0.012704599
98	0x3d8e9955	0.069628395
99	0x3d0f7572	0.035024114
100	0x3d65c00f	0.056091364
101	0x3dae4332	0.0850891
102	0x3d9d169d	0.07670329
103	0xba961889	-0.0011451404
104	0xbd81890f	-0.0632497
105	0xbd7dcce4	-0.061962977
106	0xbd438c90	-0.047741473
107	0xbcad7ed0	-0.021178633
108	0x3c37fe76	0.011230102
109	0xbd6de6b0	-0.05808133
110	0x3d4e003c	0.050293192
111	0x3d3a89d3	0.045541596
112	0xbd88d516	-0.06681268
113	0x3c833b5f	0.016019521
114	0x3d019a74	0.03164144
115	0xbd658c9e	-0.056042306
116	0x3d97ba3b	0.074085675
117	0xbdb059fd	-0.08610914
118	0x3d85a9d3	0.06526532
119	0x3d0f7b42	0.035029657
120	0x3c82c237	0.01596175
121	0xbc8c1d51	-0.017103823
122	0x3d3a023d	0.04541229
123	0xbcecc345	-0.028901706
124	0xbd0bbf56	-0.03411802
125	0x3cf732c9	0.030175583
126	0x3db23ec7	0.0870338
127	0xbd831a31	-0.0640148
128	0xbd9c9e20	-0.076473475
129	0xbd60226c	-0.054720327
130	0x3c5b30c4	0.013378326
131	0x3c370474	0.011170495
132	0x3d8225f3	0.063548945
133	0x3d797eb6	0.060911857
134	0xbc768a5d	-0.015047637
135	0x3d95bd97	0.07311552
136	0x3d94ac01	0.0725937
137	0xbda22a5e	-0.07918237
138	0xbd06ae8f	-0.032881316
139	0x3da55b99	0.080741115
140	0xbd728b60	-0.05921495
141	0x3d3d3d30	0.04620093
142	0x3d0c2b01	0.0342207
143	0xbd51e045	-0.05123927
144	0x3d38780a	0.045036353
145	0xbb9690d5	-0.004594902
146	0xbd2a487e	-0.04157304
147	0x3d21f43f	0.03953957
148	0xbcc6d915	-0.024273435
149	0xbc9840b3	-0.018585538
150	0x3d5b38be	0.05352091
151	0x3c52eeb2	0.012874292
152	0xbdb306e2	-0.08741547
153	0xbd744abe	-0.059641592
154	0x3d9a4988	0.07533556
155	0x3dabd4a9	0.08390171
156	0xbdb4bdf9	-0.08825297
157	0x3d9a5160	0.07535052
158	0xbd8fe21d	-0.070255496
159	0x3d434edb	0.047682624
160	0xbcfa30f0	-0.030540913
161	0xbc93f372	-0.01806042
162	0xbd28639b	-0.041110616
163	0x3c3a7ddc	0.011382546
164	0x3db313bd	0.08743999
165	0xbd4ddab9	-0.05025742
166	0x3db0a0f1	0.08624447
167	0xbaddae9f	-0.0016913003
168	0x3d8e03c3	0.06934311
169	0x3d180adc	0.03711973
170	0xbd8faee3	-0.07015779
171	0x3cd534aa	0.026026089
172	0xbda44e6e	-0.08022772
173	0x3d404e22	0.046949513
174	0x3db194e1	0.086709745
175	0xbd94e771	-0.072707064
176	0xbc23ded5	-0.010001858
177	0x3d119c0a	0.0355492
178	0xbd99f3eb	-0.07517227
179	0xbd153730	-0.036429584
180	0xbd44e451	-0.048069302
181	0x3d95554d	0.072916605
182	0xbc3a08d6	-0.011354646
183	0xbd53539a	-0.0515934
184	0xbb92e18d	-0.004482454
185	0x3dae86a7	0.08521777
186	0x3d82b15f	0.06381487
187	0xbc99dae3	-0.018781131
188	0x3b058bba	0.0020377473
189	0x3d80f42f	0.06296574
190	0xbccbfe0b	-0.02490141
191	0x3db4359e	0.08799289
192	0xbd7c70f9	-0.061631177
193	0x3d3ac77d	0.045600403
194	0x3db2754e	0.0871378
195	0x3b84e425	0.0040555173
196	0x3db25ef2	0.08709516
197	0xbd43c8a2	-0.04779876
198	0x3d36e3e4	0.044650927
199	0x3cafed8d	0.021475578
200	0xbcca0a19	-0.024663018
201	0xbc26ad2a	-0.0101731215
202	0xbd8ce313	-0.068792485
203	0x3b7a05b7	0.003815038
204	0x3d5a9030	0.053360164
205	0xbd21e70d	-0.039526988
206	0x3d61234d	0.054965306
207	0xbdad569b	-0.08463784
208	0xbd8ef755	-0.069807686
209	0x3c8f3202	0.0174799
210	0x3d4ee600	0.050512314
211	0x3dad1187	0.08450609
212	0x3d880b13	0.06642737
213	0x3d43abc6	0.047771238
214	0x3b16d363	0.002301418
215	0xbd82b074	-0.06381312
216	0xbd51e837	-0.051246848
217	0xbb0fcefc	-0.002194344
218	0xbd967f82	-0.07348539
219	0x3d706529	0.058690224
220	0xbd32bc97	-0.043636885
221	0x3cda28b5	0.026630739
222	0x3cd1ddff	0.025618551
223	0xbd8d0829	-0.06886322
224	0x3d4f9981	0.050683502
225	0xbd924166	-0.0714138
226	0x3d808bf3	0.06276693
227	0x3bfffadb	0.0078118867
228	0x3d466718	0.04843816
229	0x3cb7f3c4	0.022455104
230	0xbced4f6e	-0.02896854
231	0xbdab92ff	-0.08377647
232	0x3cb1c59d	0.021700675
233	0x3d4fe8fa	0.050759293
234	0x3d1d158f	0.038350638
235	0xbd4593e3	-0.04823674
236	0x3db14738	0.08656162
237	0xbcf91a01	-0.030407907
238	0xbd94acf2	-0.07259549
239	0xbdaf7b1f	-0.08568405
240	0x3c2989ba	0.010347778
241	0xbc2fa612	-0.010720747
242	0x3d848c44	0.06472066
243	0x3da1d71f	0.07902359
244	0x3ceb39e6	0.028714132
245	0x3c96ad89	0.018393295
246	0xbcc6dc5f	-0.024275003
247	0xbd807c67	-0.06273728
248	0xbcd1f532	-0.025629614
249	0xbd0baadd	-0.034098495
250	0xbd8cd661	-0.06876827
251	0xbd850192	-0.0649444
252	0x3db306ca	0.08741529
253	0xbcbf5e58	-0.023360416
254	0xbd6c9056	-0.057754837
255	0xbd7828e7	-0.060585883

fc2.weight f4 [19, 128]
0	0xbc1b6eaa	-0.009486834
1	0x3d916903	0.071001075
2	0x3c9a5e08	0.018843666
3	0x3d8f6d8d	0.07003317
4	0x3d2e45c9	0.04254702
5	0x3db4cf29	0.08828575
6	0xbcdcdbd6	-0.026960295
7	0xbda45d14	-0.08025566
8	0xbc924aa1	-0.017857851
9	0xbd6a4aeb	-0.057200354
10	0xbd63958b	-0.055562537
11	0x3cbecef5	0.023292044
12	0xbd97ada4	-0.07406166
13	0xbce19b4a	-0.027539868
14	0xbdafcfec	-0.0858458
15	0xbd65c258	-0.056093544
16	0x3b2f25d1	0.0026725421
17	0x3d34c604	0.044134155
18	0xbd882dbf	-0.066493504
19	0x3d3b5d35	0.045743186
20	0x3d3fb4ec	0.0468034
21	0x3c129716	0.0089471545
22	0xbca8f684	-0.02062536
23	0xbcd1622a	-0.025559504
24	0xbd707230	-0.058702648
25	0x3d5135fe	0.05107688
26	0x3d87832d	0.06616817
27	0xbae07ba1	-0.0017126688
28	0x3c5f96e1	0.013646812
29	0xbcb96a4a	-0.02263369
30	0x3c8b48e6	0.017002534
31	0x3da1ba91	0.07896913
32	0xbd7a9150	-0.061173737
33	0x3b9e7838	0.0048361085
34	0x3db491f2	0.08816899
35	0x3d3b2451	0.04568893
36	0xbd718b1b	-0.058970552
37	0xbd63bd16	-0.05560025
38	0x3d13b9e2	0.036065944
39	0xbcb5f2ab	-0.02221044
40	0x3ca06fb9	0.019584524
41	0xbd475911	-0.048668925
42	0xbd17fc76	-0.037106
43	0xbcc340ea	-0.023834664
44	0x3c937063	0.017997926
45	0x3d7ac636	0.061224185
46	0xbd8e6b50	-0.06954062
47	0xbd4e2ad6	-0.05033382
48	0xbd005f27	-0.031340744
49	0xbc9f89cd	-0.019474888
50	0xbd4a3f1c	-0.049376592
51	0xbd1f2be4	-0.038860217
52	0x3d4bfe36	0.04980298
53	0x3c3924ed	0.011300308
54	0xbd0bf862	-0.034172423
55	0xbca3975f	-0.01996964
56	0xbc6b3c2c	-0.014357608
57	0x3aa11349	0.0012289073
58	0xbdb0ba33	-0.08629265
59	0x3cd691cd	0.02619257
60	0x3cf87dc1	0.030333402
61	0x3d21ecb6	0.039532386
62	0x3d31c720	0.04340279
63	0x3d88aded	0.06673799
64	0x3d707b12	0.05871112
65	0x3d087121	0.033311013
66	0xbc8f2191	-0.01747206
67	0x3da5947b	0.08084961
68	0xbd3aa49e	-0.045567147
69	0xbd283c78	-0.041073292
70	0x3c318895	0.010835786
71	0xbd637c11	-0.05553824
72	0x3d9127d0	0.07087672
73	0xbd864fee	-0.06558214
74	0x3da321ed	0.07965455
75	0xbc65b229	-0.0140195275
76	0x3d705063	0.058670413
77	0xbcd072b8	-0.025445327
78	0xbd8c1eb1	-0.068417914
79	0x3cb404f4	0.021975018
80	0x3d7a8ad4	0.061167553
81	0xbd177d9d	-0.03698503
82	0xbd3d8c98	-0.04627666
83	0x3d1e7e6b	0.03869478
84	0xbcd16d69	-0.025564866
85	0xbd76c6a7	-0.060248043
86	0xbd56336c	-0.052295133
87	0x3d94cd72	0.07265748
88	0x3d91bc81	0.071160324
89	0xbd1aefa7	-0.037826207
90	0x3a61d50d	0.0008614816
91	0x3d81dd34	0.06341019
92	0xbda1521b	-0.078769885
93	0xbc3fb026	-0.011699712
94	0x3b83b2ad	0.0040191025
95	0x3d2bd3e0	0.041950107
96	0xbd1d3641	-0.03838182
97	0x3c8976c8	0.016780272
98	0xbba61819	-0.0050687906
99	0x3d738e3c	0.059461817
100	0xbd5ad442	-0.05342508
101	0x3d3bc20f	0.045839366
102	0x3cfa54f4	0.030558087
103	0x3b97957d	0.0046259747
104	0xbda7f2b3	-0.08200588
105	0x3bd61641	0.0065334146
106	0x3d33ee6a	0.04392854
107	0x3b3725f4	0.0027946206
108	0xbbd15d04	-0.006389262
109	0xbd5deb91	-0.05417973
110	0x3d646769	0.055762682
111	0x3d31dd0f	0.04342371
112	0x3d583c8d	0.05279212
113	0x3d88c4b5	0.06678144
114	0x3da141bd	0.07873867
115	0x3c84cdc2	0.016211394
116	0xbd7f6104	-0.06234838
117	0x3b191fe1	0.0023364949
118	0xbcc52edf	-0.024070201
119	0x3b82afdf	0.0039882506
120	0x3afe7417	0.001941326
121	0xbd5b0520	-0.053471684
122	0x3da00e76	0.07815258
123	0xbd9c7d27	-0.076410584
124	0x3d2c57ac	0.042075798
125	0x3d82fda6	0.06396036
126	0xbda60de4	-0.08108118
127	0xbc8bdeb7	-0.017073972
128	0xbda8ff51	-0.08251823
129	0xbda03b05	-0.07823757
130	0x3d137aa1	0.03600562
131	0x3cdec4bc	0.02719342
132	0xbc80b87b	-0.015712967
133	0xbd8e1973	-0.06938448
134	0x3c74eb34	0.014948655
135	0xbb6dee2d	-0.0036305294
136	0x3d5f7e68	0.05456391
137	0xbd7d7f0e	-0.061888747
138	0xbd33343a	-0.04375098
139	0x3da3d0f5	0.0799884
140	0x3cfdd3cc	0.030984782
141	0x3d4990f1	0.049210493
142	0x3d92911a	0.07156582
143	0xbcec83be	-0.028871413
144	0xbc2d2820	-0.010568649
145	0x3bc4a332	0.0060008997
146	0xbd844e88	-0.06460291
147	0xbbd4a94d	-0.006489909
148	0xbd85082b	-0.064956985
149	0x3d65873f	0.056037184
150	0x3d67deda	0.056609012
151	0x3daacb87	0.08339601
152	0xbd884c66	-0.06655197
153	0xbda57ff0	-0.08081043
154	0xbda4e054	-0.080506
155	0xbce93517	-0.028467698
156	0x3d004b36	0.031321727
157	0xbadd9b88	-0.0016907314
158	0xbd96c62f	-0.07362019
159	0xbd1b8e1f	-0.037977334
160	0x3da7c617	0.081920795
161	0xbda89bd0	-0.08232844
162	0x3da2ce1f	0.07949471
163	0xbd11a08f	-0.03555351
164	0xbc9ce120	-0.019150317
165	0x3da24b5b	0.07924529
166	0x3d89d83c	0.067306966
167	0x3b022739	0.0019859804
168	0x3c79f0db	0.015255178
169	0xbd35df8e	-0.04440265
170	0xbd4de231	-0.05026454
171	0xbd007384	-0.031360164
172	0xbb3caaee	-0.0028788405
173	0x3db26f21	0.087126024
174	0x3cb03153	0.021507895
175	0xbc5a1a36	-0.013311913
176	0x3d3f5103	0.04670812
177	0x3d8f56f1	0.06999005
178	0x3daaafdd	0.083343245
179	0x3d46d7a8	0.04854551
180	0x3cd3ba7f	0.025845764
181	0x3d30f019	0.043197725
182	0x3d90ca76	0.07069866
183	0x3bd76a1c	0.0065739285
184	0x3d2a86d1	0.041632477
185	0xbd507e16	-0.050901495
186	0x3d1169d6	0.035501324
187	0xbd722e4e	-0.05912619
188	0xbcbc2116	-0.022964995
189	0x3d2cc9c0	0.04218459
190	0x3d4a23f6	0.0493507
191	0x3d659994	0.056054667
192	0x3cb58f85	0.022163162
193	0x3dab045f	0.08350443
194	0xbb724319	-0.0036966263
195	0xbc7445ea	-0.014909247
196	0xbca70e26	-0.020392489
197	0x3d5800ee	0.05273526
198	0x3d8aa1f8	0.06769174
199	0xbd3af0dd	-0.04563986
200	0x3d976d5f	0.07393908
201	0xbd41a36c	-0.047274992
202	0xbd680de0	-0.056653857
203	0x3d8d33bf	0.068946354
204	0x3d0b6ed9	0.03404126
205	0x39303f12	0.00016808163
206	0x3d84cf06	0.06484799
207	0xbd4db57d	-0.05022191
208	0x3d72c159	0.059266422
209	0xbd1191ad	-0.035539318
210	0x3d7e3afb	0.062067967
211	0x3d60f2d7	0.05491909
212	0x3cdeb254	0.027184643
213	0x3d1d8704	0.03845884
214	0x3d559171	0.052140657
215	0xbd82ac18	-0.063804805
216	0x39a81d59	0.00032065323
217	0x3ce772c1	0.028252961
218	0x3b52839d	0.0032121905
219	0xbd5e51ee	-0.054277353
220	0x3d8392b2	0.06424464
221	0x3d7d1a9a	0.061792947
222	0x3cd71d1f	0.026259003
223	0xbd40dee7	-0.047087576
224	0xbd2edd38	-0.04269144
225	0x3d31bae8	0.04339114
226	0xbd897364	-0.06711462
227	0xbd54f643	-0.051992666
228	0xbd9cfd49	-0.07665498
229	0xbc59fbda	-0.013304675
230	0x3d3040a6	0.043030404
231	0x3d17d26c	0.03706591
232	0x3da96619	0.08271427
233	0x3d85fc18	0.06542224
234	0xbd617d53	-0.05505116
235	0x3d375ba9	0.04476515
236	0xbd986a3f	-0.0744214
237	0x3d2503ad	0.04028671
238	0x3d8640ff	0.06555366
239	0xbd27892a	-0.040902294
240	0xbd944914	-0.07240501
241	0x3d1cc868	0.03827706
242	0x3c9e2615	0.019305268
243	0x3cc51e30	0.024062246
244	0xbd5d568b	-0.054037612
245	0x3d74936f	0.059710916
246	0xbd71b67c	-0.05901192
247	0xbd9e8c07	-0.07741552
248	0xbcd668f1	-0.026173087
249	0x3d2f5575	0.042806108
250	0xbd4d4cdf	-0.050122138
251	0x3d5a4b28	0.05329433
252	0x3d997c93	0.07494464
253	0xbd156dd0	-0.03648168
254	0x3c8fe926	0.017567229
255	0x3d30816d	0.04309218

fc2.bias f4 [19]
0	0x3d55332d	0.05205076
1	0x3d47e45e	0.048801772
2	0x3cfdbaf6	0.030972939
3	0xbc8e830b	-0.01739647
4	0x3da15143	0.078768276
5	0x3c0b065d	0.008485404
6	0xbd9ff0fd	-0.07809637
7	0xbd855579	-0.06510443
8	0x3d46c356	0.04852613
9	0xbcef9f3c	-0.029250734
10	0x3cce90d9	0.025215553
11	0xbcb63b0a	-0.022244949
12	0xbd475b14	-0.048670843
13	0xbd800fad	-0.0625299
14	0xbc63ccdd	-0.013903824
15	0xbcf7d692	-0.030253682
16	0x3c5df4c2	0.013547124
17	0xbcb917b6	-0.022594314
18	0xbcc1b851	-0.02364746
