trunk/models/model_0/mixer.pth (torch, 863867 bytes, 13 tensors)

hyper_w_1.0.weight f4 [64, 1064]
0.01600247 -0.009816506 -0.020741224 0.0086687915 -0.012725761 0.018451968 -0.0021395755 0.018139424
0.011353486 0.026211763 -0.026421532 0.02603925 0.014885243 0.013255027 0.0037347297 0.026861524
0.015166464 0.020252228 0.01032224 -0.027442858 -0.0040765293 0.004117439 0.028799713 -0.02068054
0.028391512 -0.013466161 0.017379709 0.01956931 -0.029906599 -0.02572952 -0.0070721204 -0.016014326
0.015914224 0.013468565 -0.023187479 -0.002198429 0.028908197 0.0029502378 0.010889382 -0.014834788
0.02290944 -0.029329345 0.027496174 0.005545154 0.018284306 0.0010894495 -0.01359717 -0.0034405529
-0.020656869 -0.028841803 -0.017858509 0.022491798 -0.0011306258 0.029454747 0.026080044 0.010819656
-0.019900287 -0.0014200989 0.01273068 -0.027877351 0.019329699 0.019364147 0.019146016 -0.019331362
-0.012718902 -0.022825247 0.014092237 -0.015629442 -0.026881764 -0.028411759 -0.010102102 0.0048015974
-0.010697592 -0.028234387 0.025197988 -0.020236704 0.008886514 0.025284456 0.022403814 0.013110085
0.026442751 -0.020177938 -0.0068795965 0.026737757 -0.025688658 -0.020656858 -0.011245504 -0.01636134
0.0028870646 -0.01644747 0.018696807 0.028759256 -0.014472924 0.02823388 0.01692067 0.01370023
-0.019120721 -0.010881335 0.029502492 -0.01681059 0.012141355 -0.009632113 0.00060104573 0.0020150123
0.0069689513 0.009975448 -0.023548188 -0.02983386 -0.013705211 0.024115091 0.014231977 0.015234743
0.012001808 -0.0148261525 0.00019967613 0.019034613 -0.013595409 -0.0017310905 0.02683373 0.0027959482
-0.004807233 0.0027805585 0.020910231 -0.011903718 -0.023127258 -0.019997701 0.0061974335 -0.02338415
-0.023050796 -0.012707046 -0.027571093 0.0014573868 -0.022737058 -0.011781435 -0.019507864 0.013989995
0.024130039 0.004070075 -0.02860906 -0.0034424022 0.017011208 0.018898113 -0.024569094 0.005654905
-0.0015177096 0.021407085 -0.020558717 -0.021178 0.0281186 -0.029998563 0.018079199 -0.011370465
0.015560017 -0.0086449785 -0.011051573 -0.0013275719 0.029644761 0.0032339478 -0.025578363 -0.02920889
0.018782288 -0.00777324 0.007841132 -0.000946986 -0.021631474 0.0022182078 0.028445086 0.01853931
0.029249268 0.023600232 -0.017806504 -0.021741245 -0.029235823 -0.0023739082 -0.02473425 0.012744239
0.01125369 -0.0048164385 -0.027459387 0.0075572096 0.027972952 -0.01878255 -0.012076205 0.004068281
-0.012808377 0.026956828 -0.022185883 0.024169955 -0.02737957 -0.024778532 0.012897637 0.011675036
-0.01499305 -0.023113942 0.008208722 0.00425123 0.010707419 -0.013934417 0.018603513 0.027417058
0.028041903 0.01359478 0.025190573 0.025026314 -0.018065568 0.027206331 0.013181888 -0.015002676
-0.0049267747 0.02182146 0.0076660328 0.020363417 -0.009208729 -0.010210135 -0.01141446 -0.01273307
-0.0013863487 -0.025668189 -0.030655578 -0.0148570845 -0.015740989 -0.020375816 0.0104393 -0.027894152
0.014220922 0.006176635 -0.022548107 0.015957998 0.022589963 -0.001039663 -0.0274531 0.016785212
-0.020671817 -0.017316638 0.021962827 0.024462188 0.01612321 -0.023369854 0.008778027 -0.0105209
0.016633062 0.023783978 -0.023618111 0.01965289 -0.026154535 0.0053046304 -0.0018958066 0.022497386
0.014217074 0.011477494 -0.02037968 -0.00036469937 0.009587622 -0.006579953 -0.0048360894 0.026326414
00000000: 9d17 833c 69d5 20bc 80e9 a9bc 8c07 0e3c
00000010: b67f 50bc 9528 973c 1f38 0cbb 2199 943c
00000020: f903 3a3c 0dba d63c f871 d8bc 4450 d53c
00000030: 3ce1 733c 9d2b 593c 5ec2 743b b30c dc3c
00000040: c37c 783c 00e8 a53c 9d1e 293c d8cf e0bc
00000050: 6894 85bb 95eb 863b 60ed eb3c 3c6a a9bc
00000060: 5195 e83c 2ca1 5cbc e45f 8e3c d14f a03c
00000070: affe f4bc b7c6 d2bc 3fbd e7bb 7a30 83bc
00000080: 8c5e 823c 42ab 5c3c abf3 bdbc 8513 10bb
00000090: e2d0 ec3c c758 413b 6169 323c 9c0d 73bc
000000a0: 94ac bb3c 1844 f0bc a83f e13c 20b4 b53b
000000b0: f8c8 953c dccb 8e3a aac6 5ebc e67a 61bb
000000c0: 9838 a9bc a545 ecbc 024c 92bc b840 b83c
000000d0: 8231 94ba 154b f13c d1a5 d53c ed44 313c
000000e0: ed05 a3bc 9d22 baba 5894 503c 0b5f e4bc
000000f0: 5159 9e3c 8fa1 9e3c 1bd8 9c3c ce5c 9ebc
00000100: f162 50bc 03fc babc 20e3 663c 5109 80bc
00000110: 2537 dcbc c7bf e8bc 4983 25bc b856 9d3b
00000120: f444 2fbc cd4b e7bc 036c ce3c 72c7 a5bc
00000130: be98 113c 5921 cf3c 3488 b73c afcb 563c
00000140: 789e d83c 344c a5bc 3d6e e1bb 2409 db3c
00000150: 0571 d2bc 9238 a9bc 103f 38bc 3808 86bc
00000160: e834 3d3b d8bc 86bc 0c2a 993c 8898 eb3c
00000170: d81f 6dbc bd4a e73c 389d 8a3c ee76 603c
00000180: 0fa3 9cbc a047 32bc 36af f13c 5db6 89bc
00000190: 89ec 463c 03d0 1dbc 7f8f 1d3a 4c0e 043b
000001a0: cd5b e43b 1070 233c 21e8 c0bc 2466 f4bc
000001b0: d28b 60bc 038d c53c 3d2d 693c 259b 793c
000001c0: 3ba3 443c 64e9 72bc 2760 5139 7aee 9b3c
000001d0: 47bf 5ebc c2e5 e2ba 69d2 db3c 3a3c 373b
000001e0: fe85 9dbb 083a 363b ef4b ab3c d007 43bc
000001f0: 6075 bdbc 38d2 a3bc d713 cb3b 1e90 bfbc
00000200: 06d5 bcbc 3731 50bc c6dc e1bc c905 bf3a
00000210: 1143 babc ec06 41bc f5ce 9fbc 4b36 653c
00000220: 5cac c53c 445e 853b 8c5d eabc ed99 61bb
00000230: 175b 8b3c 37d0 9a3c 2045 c9bc c84c b93b
00000240: e2ed c6ba e95d af3c c16a a8bc 7c7d adbc
00000250: fa58 e63c 8cbf f5bc d41a 943c 304b 3abc
00000260: 71ef 7e3c aba3 0dbc a811 35bc ec01 aeba
00000270: 92d9 f23c a4f0 533b b789 d1bc 7b47 efbc
00000280: 50dd 993c aab6 febb 1778 003c 283f 78ba
00000290: 7d34 b1bc 5a5f 113b ab05 e93c c0df 973c
000002a0: 299c ef3c 4655 c13c f2de 91bc b21a b2bc
000002b0: f77f efbc 9293 1bbb 7b9f cabc 36cd 503c
000002c0: 6661 383c 37d3 9dbb 82f2 e0bc 78a2 f73b
000002d0: 8827 e53c dddd 99bc 46db 45bc 374f 853b
000002e0: 3ada 51bc 91d4 dc3c 2bbf b5bc 1200 c63c
000002f0: 1f4b e0bc 59fc cabc 9c50 533c a648 3f3c
00000300: 69a5 75bc 7359 bdbc e07d 063c e74d 8b3b
00000310: 2c6e 2f3c 2e4d 64bc 6566 983c bd99 e03c
00000320: 22b8 e53c a4bc 5e3c 765c ce3c fc03 cd3c
00000330: 3efe 93bc d0df de3c d8f8 573c c9cd 75bc
00000340: c870 a1bb ebc2 b23c 5833 fb3b 2ed1 a63c
00000350: 35e0 16bc 6948 27bc b703 3bbc 5e9e 50bc
00000360: 25b6 b5ba 1846 d2bc 6821 fbbc 216b 73bc
00000370: 3ff3 80bc 2feb a6bc 9909 2b3c 4782 e4bc
00000380: dffe 683c 5f65 ca3b cfb6 b8bc 59ba 823c
00000390: 960e b93c 4d45 88ba 53e5 e0bc 2481 893c
000003a0: f157 a9bc 9fdb 8dbc 63eb b33c ed64 c83c
000003b0: d214 843c 2372 bfbc b7d1 0f3c da5f 2cbc
000003c0: 0f42 883c 9ed6 c23c c57a c1bc 19ff a03c
000003d0: 0942 d6bc 77d2 ad3b b77c f8ba 704c b83c
000003e0: bbee 683c 190c 3c3c 49f3 a6bc 1f35 bfb9
000003f0: 6715 1d3c a59c d7bb 0f78 9ebb 7eaa d73c

hyper_w_1.0.bias f4 [64]
-0.008894528 -0.015209954 0.012826949 0.029845873 0.0014633145 -0.0025717532 0.008982181 -0.007595583
-0.02924377 -0.024724785 -0.0077610994 -0.015763367 -0.0003719574 0.016523302 -0.00025560972 0.0027995661
-0.009410762 -0.01462948 -0.02633955 0.029193865 -0.009088072 -0.00030847342 -0.0040774904 0.022368554
0.015410683 -0.017601047 -0.018312223 0.02762457 -0.009589534 -0.026090613 0.020602455 -0.02165788
0.0060926965 -0.00041934653 -0.018767374 0.0035207677 -0.015827969 0.022510283 -0.014648912 0.007723238
0.01049341 -0.0011811615 0.030599207 -0.018530687 0.004575959 -0.014243354 -0.019645449 -0.002399852
-0.012099203 0.0017902108 -0.027066002 -0.01321752 -0.0034709373 -0.028685339 0.008852979 -0.027174657
-0.030411962 0.00581991 -0.01671556 0.015259463 -0.021450968 0.009727751 -0.015092561 0.0026546323
00000000: 5bba 11bc 2c33 79bc 2028 523c 557f f43c
00000010: b0cc bf3a dc8a 28bb ff29 133c 5ee4 f8bb
00000020: a190 efbc a28b cabc d250 febb 2d22 81bc
00000030: 4703 c3b9 e05b 873c 5b03 86b9 ed78 373b
00000040: 992f 1abc 7db0 6fbc 0ac6 d7bc f927 ef3c
00000050: 23e6 14bc 9aba a1b9 789c 85bb 423e b73c
00000060: 177d 7c3c 1230 90bc 8403 96bc ec4c e23c
00000070: 6c1d 1dbc fbbb d5bc 7bc6 a83c de6b b1bc
00000080: 3ea5 c73b bddb dbb9 09be 99bc aebc 663b
00000090: a8a9 81bc 7c67 b83c fd01 70bc 3713 fd3b
000000a0: 8dec 2b3c 34d1 9aba 30ab fa3c abcd 97bc
000000b0: edf1 953b f55c 69bc 7eef a0bc d646 1dbb
000000c0: bc3b 46bc 82a5 ea3a 85b9 ddbc 4c8e 58bc
000000d0: aa78 63bb 84fd eabc 160c 113c 639d debc
000000e0: 8222 f9bc f2b4 be3b 12ef 88bc d402 7a3c
000000f0: f1b9 afbc 2561 1f3c ca46 77bc 57f9 2d3b

hyper_w_1.2.weight f4 [128, 64]
0.038535804 -0.0057843477 -0.04634005 -0.054865867 0.055999354 0.112913564 -0.00564532 0.020633683
-0.015884697 0.045313254 -0.04920526 -0.059276313 0.018138438 0.12489425 0.024211258 0.05126436
0.05119364 -0.07460968 -0.02644512 -0.02184558 -0.08757457 0.026758283 0.0020208955 -0.063527286
0.07551488 0.01936394 0.011760369 -0.122932255 -0.103104085 -0.12128034 0.06763059 -0.049115583
0.07882324 0.08820683 0.018596306 -0.025828555 -0.07388294 -0.019162148 -0.08352883 -0.069416225
0.089297324 0.11811522 0.057804063 -0.025829881 0.021438405 -0.0013092756 0.055816323 -0.10893802
0.0085288435 -0.12397964 -0.042096734 0.06942041 -0.10673477 -0.08758505 -0.029898211 -0.02448292
-0.09352265 -0.00081419945 -0.010283634 0.02057761 -0.032863915 0.08669643 -0.068655595 -0.030296996
-0.07334386 -9.715557e-05 0.11527227 -0.1021419 0.10245633 -0.06444603 0.0065826625 0.061558157
-0.004345134 -0.010393739 0.08310367 0.026557803 0.048825458 -0.0573214 0.07729106 -0.1126162
-0.0052477717 -0.109145865 -0.10591969 0.10915162 -0.031200066 0.10080379 -0.08197659 -0.006305188
-0.08778764 0.109722525 -0.09875782 -0.058838725 -0.11973953 -0.07348907 -0.093713 0.09148392
0.032415748 0.066035405 -0.0024227202 0.029622108 0.105870605 0.028332725 0.06903504 -0.10770917
-0.07777034 -0.08879478 0.0992253 -0.0053762197 0.08835016 -0.013428599 0.109399095 -0.09765375
-0.10973613 -0.058173448 0.058776855 -0.09871796 -0.10856734 0.097841725 0.0130203515 0.12236045
-0.07515238 -0.12357642 0.04183297 -0.0001950562 -0.005118847 -0.015185103 -0.12019706 -0.09692323
0.023749381 0.050425664 0.12047692 0.09676477 -0.07043578 -0.04163587 0.054745212 0.036659732
-0.0951429 0.017005414 0.11517285 -0.048939273 -0.06179346 -0.07908128 0.1232072 0.117358446
0.037526533 0.124470815 0.0005492568 -0.07655276 0.042271405 -0.0102238655 0.017882913 -0.024148807
-0.023171246 -0.048616394 0.08967197 0.100312844 0.02282767 -0.0713366 0.04678072 0.03262943
0.03302841 0.024222985 -0.09613095 -0.043366358 0.022489235 -0.033303007 0.113793135 -0.059726253
-0.09655048 0.1174455 0.08304915 0.029548183 -0.060123324 0.09023653 0.014189705 0.119109616
-0.09537479 0.02122122 -0.095332965 -0.06982124 -0.10753356 -0.06100838 0.0954254 -0.10797912
0.031780705 -0.031802565 0.06975636 -0.08614583 -0.05578521 0.06052737 -0.043654338 -0.084767565
-0.0057006925 0.02880007 0.019890994 0.027066156 -0.122466296 -0.095996425 0.05623305 0.02550684
-0.08245714 -0.109965935 -0.01628545 0.038013503 -0.078945294 -0.00057062507 -0.09350635 0.12176588
-0.109700665 -0.11040732 0.041432053 0.05212003 -0.019974068 0.114252746 -0.06831059 0.11567713
0.05416073 0.03926821 -0.07659148 -0.12098725 0.020700887 0.029702455 0.023681283 0.009460762
-0.11203104 -0.094114885 -0.025153905 -0.04549162 -0.044295907 -0.10561173 0.06791058 0.010417312
-0.0057256967 0.07306832 0.034251824 0.12060851 0.024701834 0.079741254 0.049864754 -0.05088292
-0.044596985 -0.0024288446 -0.057628036 -0.1083073 -0.10555981 -0.06766242 0.017900959 0.011687905
0.045846507 -0.002355799 0.09274478 -0.06076254 -0.063953534 0.0170089 0.060661376 0.11559263
00000000: b8d7 1d3d a08a bdbb 10cf 3dbd 08bb 60bd
00000010: 945f 653d 3a3f e73d 60fc b8bb f807 a93c
00000020: a020 82bc 649a 393d 748b 49bd b8cb 72bd
00000030: 1097 943c 8ec8 ff3d b056 c63c 94fa 513d
00000040: 6cb0 513d f6cc 98bd 70a3 d8bc 80f5 b2bc
00000050: 4c5a b3bd 3034 db3c 0071 043b 981a 82bd
00000060: 8ca7 9a3d 20a1 9e3c 90ae 403c e8c3 fbbd
00000070: 3c28 d3bd d461 f8bd e881 8a3d 6c2d 49bd
00000080: 146e a13d c8a5 b43d 4857 983c 6896 d3bc
00000090: f04f 97bd f0f9 9cbc 2a11 abbd 182a 8ebd
000000a0: 84e1 b63d 64e6 f13d f4c3 6c3d 3099 d3bc
000000b0: 989f af3c 009c abba a89f 643d e61a dfbd
000000c0: 90bc 0b3c 0ae9 fdbd a06d 2cbd 4a2c 8e3d
000000d0: c297 dabd ca5f b3bd 18ed f4bc 6890 c8bc
000000e0: ce88 bfbd 0070 55ba b07c 28bc 6092 a83c
000000f0: 509c 06bd e68d b13d 4e9b 8cbd 6831 f8bc
00000100: 4e35 96bd 00c0 cbb8 de13 ec3d c62f d1bd
00000110: a0d4 d13d 48fc 83bd 60b3 d73b 6824 7c3d
00000120: a061 8ebb 804a 2abc 4232 aa3d c08f d93c
00000130: 34fd 473d d8c9 6abd c64a 9e3d 52a3 e6bd
00000140: 80f5 abbb de87 dfbd 6cec d8bd e28a df3d
00000150: 4897 ffbc 3872 ce3d 58e3 a7bd c09b cebb
00000160: 02ca b3bd 34b6 e03d 8a41 cabd e000 71bd
00000170: 003a f5bd 7081 96bd 9aec bfbd ec5b bb3d
00000180: 60c6 043d 923d 873d 80c6 1ebb 10aa f23c
00000190: b0d2 d83d 081a e83c 3e62 8d3d a096 dcbd
000001a0: 0e46 9fbd 0ada b5bd a236 cb3d 002b b0bb
000001b0: eef0 b43d a003 5cbc a20c e03d b0fe c7bd
000001c0: 56bd e0bd 4847 6ebd 00c0 703d a42c cabd
000001d0: 8e58 debd 3e61 c83d 5053 553c 1e98 fa3d
000001e0: 7ee9 99bd a215 fdbd 0c59 2b3d 0088 4cb9
000001f0: 00bc a7bb f0ca 78bc e029 f6bd b07f c6bd
00000200: 108e c23c 248b 4e3d 9abc f63d 9c2c c63d
00000210: a240 90bd 608a 2abd 843c 603d 8428 163d
00000220: 48da c2bd f04e 8b3c bedf eb3d 8c74 48bd
00000230: 241b 7dbd 5ef5 a1bd 0e54 fc3d a059 f03d
00000240: 6cb5 193d 8eea fe3d 00fc 0f3a b2c7 9cbd
00000250: c824 2d3d 0082 27bc 307f 923c b8d3 c5bc
00000260: a0d1 bdbc fc21 47bd f0a5 b73d d270 cd3d
00000270: 1801 bb3c ec18 92bd 249d 3f3d 70a6 053d
00000280: cc48 073d 486f c63c 4ee0 c4bd eca0 31bd
00000290: 583b b83c bc68 08bd 600c e93d 84a3 74bd
000002a0: 42bc c5bd 4487 f03d ac15 aa3d 080f f23c
000002b0: e043 76bd eecd b83d f07b 683c beef f33d
000002c0: dc53 c3bd 20d8 ad3c ee3d c3bd 70fe 8ebd
000002d0: 8e3a dcbd ece3 79bd 646e c33d 2824 ddbd
000002e0: 7c2c 023d 6843 02bd 6cdc 8e3d 3a6d b0bd
000002f0: 087f 64bd 8ceb 773d e4ce 32bd 9e9a adbd
00000300: e0cc babb 20ee eb3c 70f2 a23c d8b9 dd3c
00000310: 9ccf fabd c699 c4bd a054 663d b8f3 d03c
00000320: 4adf a8bd d235 e1bd 1069 85bc 0cb4 1b3d
00000330: 12ae a1bd 0096 15ba 4280 bfbd 6460 f93d
00000340: beaa e0bd 3c1d e2bd a8b4 293d d07b 553d
00000350: a8a0 a3bc 58fd e93d 6ce6 8bbd 22e8 ec3d
00000360: a4d7 5d3d b4d7 203d fedb 9cbd 2ac8 f7bd
00000370: e894 a93c 9052 f33c 40ff c13c 5001 1b3c
00000380: 8870 e5bd 4ebf c0bd 900f cebc 6c55 3abd
00000390: a06f 35bd f64a d8bd b414 8b3d 60ad 2a3c
000003a0: a09e bbbb d8a4 953d a44b 0c3d 9801 f73d
000003b0: 805b ca3c 624f a33d fc3e 4c3d 9c6a 50bd
000003c0: 54ab 36bd 402d 1fbb 600b 6cbd 38d0 ddbd
000003d0: be2f d8bd 9892 8abd 08a5 923c a07e 3f3c
000003e0: 8cc9 3b3d c063 1abb faf0 bd3d 24e2 78bd
000003f0: 12fa 82bd 4056 8b3c 1078 783d d4bb ec3d

hyper_w_1.2.bias f4 [128]
0.037749305 0.029008687 -0.11200681 0.10454774 0.10217491 -0.00164482 0.06695366 0.09541103
0.06136194 -0.091486126 -0.05488336 -0.0832703 -0.015312493 -0.057719663 -0.11585745 -0.084117055
-0.10650453 0.009578466 0.10970847 -0.023793101 0.09758502 -0.02988115 -0.056611195 0.115357205
-0.10342485 -0.07361147 0.12270674 0.056894317 -0.1123254 -0.02998072 0.111784294 0.050445244
0.04567027 -0.04559286 -0.09792277 0.030760929 0.041032627 0.11733419 0.025511965 -0.076225966
0.11246729 -0.12344049 -0.09690474 -0.09341715 0.05532658 0.019996703 -0.054875806 -0.069961295
0.0066716224 0.060902655 -0.04188852 -0.06722391 -0.03654988 0.019891813 -0.11558995 -0.101707995
0.11609778 -0.11071193 -0.050482526 0.06865893 -0.09750083 -0.0045553 -0.026248023 -0.042941034
0.08973263 0.046472177 -0.07584117 0.027181417 -0.060815588 0.056488648 -0.04700674 -0.09724483
0.09460895 -0.1016736 -0.053940937 -0.03551413 -0.043042928 0.116818994 -0.05877176 -0.041461393
0.030786574 0.04748702 -0.04538335 0.012280747 0.027925566 0.043166354 -0.09725404 0.11252995
-0.04993671 0.03407617 0.0629583 -0.010012493 0.11113709 0.002223134 0.094218805 -0.069414854
0.07870974 0.047518253 -0.106521025 -0.11617908 -0.10155688 -0.10923873 -0.040775552 0.022505641
-0.031930894 0.036239028 -0.10617758 -0.08452895 0.007872343 0.03541106 -0.037253723 0.11388691
0.065632746 0.0714532 0.019738182 0.048532724 -0.12184325 -0.029297322 0.066498965 -0.0097656995
-0.03961137 0.11675875 -0.047793105 -0.12262814 -0.045701593 -0.1225473 -0.10326697 0.0696224
00000000: 049f 1a3d a0a3 ed3c d463 e5bd 201d d63d
00000010: 1441 d13d 0097 d7ba 001f 893d dc66 c33d
00000020: a856 7b3d 145d bbbd 60cd 60bd 9e89 aabd
00000030: 40e1 7abc 746b 6cbd ac46 edbd 9045 acbd
00000040: 0c1f dabd 00ef 1c3c d6ae e03d c0e9 c2bc
00000050: a8da c73d 50c9 f4bc 24e1 67bd 6640 ec3d
00000060: 68d0 d3bd 9cc1 96bd ac4d fb3d 040a 693d
00000070: dc0a e6bd 209a f5bc 2aef e43d ac9f 4e3d
00000080: c010 3b3d 94bf 3abd bc8b c8bd 58fe fb3c
00000090: d411 283d e84c f03d 78fe d03c 5c1c 9cbd
000000a0: 4055 e63d 5ece fcbd fe75 c6bd 7e51 bfbd
000000b0: 209e 623d 20d0 a33c 74c5 60bd de47 8fbd
000000c0: a09d da3b 1075 793d 4c93 2bbd b0ac 89bd
000000d0: 54b5 15bd 28f4 a23c 6cba ecbd 484c d0bd
000000e0: acc4 ed3d f0bc e2bd c4c6 4ebd 0e9d 8c3d
000000f0: 84ae c7bd a044 95bb 1806 d7bc f0e2 2fbd
00000100: bec5 b73d 9c59 3e3d 9e52 9bbd 90ab de3c
00000110: c419 79bd a460 673d 248a 40bd 4c28 c7bd
00000120: 56c2 c13d 403a d0bd 2cf1 5cbd 4477 11bd
00000130: c84d 30bd cc3e ef3d a8ba 70bd 6cd3 29bd
00000140: 2034 fc3c c081 423d e4e3 39bd 3035 493c
00000150: 28c4 e43c 34cf 303d 202d c7bd 1a76 e63d
00000160: 708a 4cbd 7493 0b3d 48f0 803d 700b 24bc
00000170: d89b e33d 00b2 113b caf5 c03d 6029 8ebd
00000180: 9232 a13d 80a2 423d b227 dabd 4cef edbd
00000190: 0efd cfbd 8eb8 dfbd 4404 27bd c05d b83c
000001a0: f8c9 02bd 606f 143d a273 d9bd 841d adbd
000001b0: 00fb 003c 300b 113d 5c97 18bd 8a3d e93d
000001c0: 766a 863d 0e56 923d f8b1 a13c 40ca 463d
000001d0: f488 f9bd f000 f0bc 9c30 883d 5000 20bc
000001e0: 883f 22bd 361f ef3d b4c2 43bd 7624 fbbd
000001f0: 9831 3bbd 14fa fabd a27d d3bd 3096 8e3d

hyper_w_final.0.weight f4 [64, 1064]
0.020684866 0.006709033 -0.019049333 0.0055191624 0.029617582 0.006873614 0.000541421 0.025296805
-0.016571583 0.0070092836 -0.0032816585 0.008484125 0.030100876 -0.01917223 0.025863677 0.027873939
0.00895268 0.020040989 0.008148217 -0.015689436 -0.02521575 -0.00554583 -0.018546117 -0.002342698
-0.0123960255 0.007914074 -0.025674278 0.005826408 -0.0053784787 0.012227289 0.015318569 0.014545429
-0.0063623325 0.0046277554 -0.017486377 0.021288252 0.011670194 0.019231819 -0.0063638785 0.028345652
-0.003606574 0.0044852044 -0.025259968 -0.013681573 0.008693083 -0.009676773 0.0007530074 0.013060222
-0.014407752 -0.0050541116 -0.009598564 -0.011203739 -0.0077660736 0.026470782 -0.00863707 0.022421118
-0.00041705876 -0.00037675953 -0.02522782 -0.02199621 0.0065040467 0.012448491 -0.0025069246 0.021479504
-0.024312327 0.012957718 -0.006369821 0.015960345 -3.2313932e-05 0.0032410633 -0.021852707 0.008825098
-0.022145042 -0.0005478165 -0.027873062 0.01171323 -0.011844419 -0.027357094 0.009232659 -0.024693446
-0.021644508 -0.0005815046 0.019153628 0.019963797 -0.0018124308 0.01525961 -0.027463995 0.007922023
-0.028046476 0.027470997 0.024662094 0.02466062 0.0024398773 0.014560408 0.00856696 -0.013030259
-0.020636488 0.01882804 -0.0121606 0.020922383 0.010801686 0.020288091 -0.009833251 -0.0057706134
0.004146164 -0.016006945 -0.02759854 -0.013616766 -0.022347478 0.0030901504 -0.0281769 -0.01699879
0.029715108 0.004980965 0.016710158 -0.018507948 0.02696482 -0.01805031 -0.0034316906 0.0129499305
0.006296718 0.03008301 0.009275359 0.0008141817 -0.004254994 -0.021900075 0.006709457 -0.014927169
-0.025142929 -0.0006891726 0.0077843904 0.010251052 0.008545003 -0.0047720936 -0.023661278 -0.0283806
-0.0015798853 0.00940145 -0.024756463 -0.02238766 -0.01773089 -0.007413416 0.016559878 -0.002301635
0.024293458 0.018627062 0.0017263796 0.025631037 0.0011473054 -0.022910384 0.00590951 0.028824355
0.004691364 -0.013964351 0.027284445 0.029884525 0.0047799074 0.015922548 0.027879497 0.023988595
0.0295586 -0.0042936453 0.02949565 0.017637895 0.0013190348 0.008661906 -0.019018712 -0.014355401
0.005503689 -0.023104567 0.016114974 0.013706677 -0.00936683 0.0018222835 -0.028855186 0.027811836
0.01813237 0.014383453 -0.016302057 0.004085202 0.028161895 0.011258811 0.002181428 -0.026735235
0.019346284 0.0014338585 0.00852139 0.0127612185 -0.03030879 0.023541262 -0.026944535 0.025865892
0.012359194 0.022935309 0.024366489 0.02722842 0.013777378 -0.015304532 -0.024592573 0.018265598
0.027816791 -0.005221664 0.0058056423 -0.0048714075 -0.009074725 0.014787392 0.025733916 0.030404022
0.0009460724 -0.023047943 0.007869721 -0.017509524 0.014910489 -0.008146963 -0.009808287 -0.028149912
0.017499335 -0.027575796 0.0002567134 -0.011082655 0.009236638 -0.0015115662 -0.00039205403 0.005504785
0.005822896 -0.0057288706 0.002976569 -0.02355557 -0.030363379 0.018028162 0.00014515687 -0.010102189
-0.018684575 -0.00897979 -0.004156371 -0.01812972 0.01834749 0.018795032 0.01989584 0.011999173
0.017915199 0.010088375 0.003945695 0.0131085105 -0.0020339212 0.007607062 -0.013417873 -0.016588522
0.027983751 -0.010989153 0.006065762 -0.0016871731 0.012759219 -0.026313385 -0.02629147 0.0045985808
00000000: 4f73 a93c 73d7 db3b 590d 9cbc 17da b43b
00000010: 92a0 f23c 0e3c e13b 26ee 0d3a 3f3b cf3c
00000020: 21c1 87bc 22ae e53b 1811 57bb 0001 0b3c
00000030: 1d96 f63c 150f 9dbc 10e0 d33c e357 e43c
00000040: 43ae 123c 002d a43c 1980 053c 2287 80bc
00000050: 4391 cebc cbb9 b5bb 07ee 97bc f387 19bb
00000060: b318 4bbc 08aa 013c dd52 d2bc 74eb be3b
00000070: f33d b0bb f854 483c bcfa 7a3c f34f 6e3c
00000080: 1d7b d0bb 6da4 973b 973f 8fbc b364 ae3c
00000090: 5734 3f3c 0c8c 9d3c 1588 d0bb 2435 e83c
000000a0: 455c 6cbb 9ff8 923b feed cebc ad28 60bc
000000b0: 6f6d 0e3c 548b 1ebc 7965 453a 8bfa 553c
000000c0: 7e0e 6cbc f69c a5bb 4c43 1dbc e38f 37bc
000000d0: 8c7a febb 41d9 d83c 7f82 0dbc 7eac b73c
000000e0: aea8 dab9 cf87 c5b9 93aa cebc 6531 b4bc
000000f0: e61f d53b c1f4 4b3c 374b 24bb c9f5 af3c
00000100: a52a c7bc 9c4c 543c eeb9 d0bb 45bf 823c
00000110: d288 07b8 0568 543b 7304 b3bc 2597 103c
00000120: 8569 b5bc 589b 0fba 0c56 e4bc d9e8 3f3c
00000130: 180f 42bc fc1b e0bc 9444 173c e949 cabc
00000140: d34f b1bc 1d70 18ba 12e8 9c3c 1e8b a33c
00000150: 168f edba 7103 7a3c 2cfc e0bc 5fcb 013c
00000160: b9c1 e5bc db0a e13c 2908 ca3c 1205 ca3c
00000170: 59e6 1f3b c78e 6e3c 6f5c 0c3c de7c 55bc
00000180: da0d a9bc 433d 9a3c 413d 47bc 6b65 ab3c
00000190: 8ef9 303c 3633 a63c a51b 21bc 6a17 bdbb
000001a0: 8bdc 873b ff20 83bc 5516 e2bc db18 5fbc
000001b0: 0f12 b7bc 1f84 4a3b 3ed3 e6bc 0c41 8bbc
000001c0: 196d f33c 5d37 a33b bee3 883c fb9d 97bc
000001d0: 54e5 dc3c 3ede 93bc 37e6 60bb f22b 543c
000001e0: b354 ce3b a570 f63c adf7 173c cf6e 553a
000001f0: 7a6d 8bbb c967 b3bc 01db db3b 1691 74bc
00000200: 8bf8 cdbc 97a9 34ba 3314 ff3b 07f4 273c
00000210: 5700 0c3c 395f 9cbb 4cd5 c1bc 6f7e e8bc
00000220: 2714 cfba 8a08 1a3c 11ce cabc 5366 b7bc
00000230: 5f40 91bc 3eec f2bb 95a8 873c 07d7 16bb
00000240: 1303 c73c c897 983c b047 e23a 2ef8 d13c
00000250: 2e61 963a 8fae bbbc 90a4 c13b 0e21 ec3c
00000260: 03ba 993b bcca 64bc a183 df3c 64d0 f43c
00000270: c5a0 9c3b 0170 823c 8b63 e43c bb83 c43c
00000280: e124 f23c b5b1 8cbb dda0 f13c 597d 903c
00000290: 77e3 ac3a abea 0d3c 21cd 9bbc ea32 6bbc
000002a0: 4a58 b43b ca45 bdbc 8d03 843c f891 603c
000002b0: 5577 19bc b0d9 ee3a b661 ecbc a6d5 e33c
000002c0: 568a 943c 93a8 6b3c e48b 85bc 28dd 853b
000002d0: c6b3 e63c e076 383c 4af6 0e3b da03 dbbc
000002e0: 197c 9e3c 4ff0 bb3a 4d9d 0b3c 6e14 513c
000002f0: 244a f8bc 9bd9 c03c c9ba dcbc b5e4 d33c
00000300: 387e 4a3c d4e2 bb3c 3b9c c73c 230e df3c
00000310: 83ba 613c dcbf 7abc 5d76 c9bc bca1 953c
00000320: 0ae0 e33c 7e1a abbb 423d be3b 54a0 9fbb
00000330: 28ae 14bc d146 723c efcf d23c db11 f93c
00000340: d801 783a 0acf bcbc 01f0 003c 2270 8fbc
00000350: 204b 743c d77a 05bc f0b2 20bc a59a e6bc
00000360: c45a 8f3c a3e6 e1bc 7d97 8639 0694 35bc
00000370: 4555 173c bf1f c6ba 9a8c cdb9 7c61 b43b
00000380: fecd be3b 40b9 bbbb 8b12 433b 9cf7 c0bc
00000390: 9fbc f8bc ccaf 933c 4035 1839 a783 25bc
000003a0: 6510 99bc f81f 13bc 2b32 88bb c784 94bc
000003b0: 7a4d 963c 0af8 993c 9afc a23c 2e98 443c
000003c0: e5c2 923c b649 253c e34a 813b 14c5 563c
000003d0: 894b 05bb a944 f93b a3d6 5bbc a7e4 87bc
000003e0: 2e3e e53c d90b 34bc 4dc3 c63b 2324 ddba
000003f0: 0b0c 513c 2b8f d7bc 3561 d7bc b1af 963b

hyper_w_final.0.bias f4 [64]
-0.028263485 -0.003412599 -0.029709386 0.029020008 0.01402243 0.029271265 -0.01282824 0.0056913635
-0.006616948 0.018416287 0.013707342 -0.02887241 -0.021727629 -0.023471678 -0.017507061 -0.028711557
0.0009261877 0.013945779 -0.02237493 -0.020104516 0.019287175 -0.0006317699 0.02061767 0.0010237179
0.009459533 0.02683534 -0.028664777 0.026409212 -0.011564009 0.008321868 0.000313747 0.0004196645
-0.009402067 0.016812649 0.015481085 0.023091711 0.016760344 -0.030479379 -0.028659409 0.026917158
0.0042799367 -0.021322478 0.017885644 -0.004662405 -0.005042892 0.0007999251 0.01973912 -0.019099547
-0.016669665 0.018346993 -0.0013000309 -0.02299695 0.0024178035 0.009215395 -0.028893648 0.01881055
0.026777063 0.016733969 -0.006601716 0.004297146 -0.008669891 0.010366405 -0.010284689 0.0045348303
00000000: d388 e7bc e9a5 5fbb 1961 f3bc 5ebb ed3c
00000010: 56be 653c 4bca ef3c 8a2d 52bc 9e7e ba3b
00000020: fcd2 d8bb c1dd 963c c294 603c d585 ecbc
00000030: 24fe b1bc ad47 c0bc f86a 8fbc 8034 ebbc
00000040: 68cb 723a d67c 643c a14b b7bc 3ab2 a4bc
00000050: 2300 9e3c 5c9d 25ba 63e6 a83c 462e 863a
00000060: 28fc 1a3c c9d5 db3c 65d2 eabc 2258 d83c
00000070: f876 3dbc 7258 083c 697e a439 6a06 dc39
00000080: 210b 1abc aeba 893c 60a4 7d3c d42a bd3c
00000090: fd4c 893c e4af f9bc 23c7 eabc 5f81 dc3c
000000a0: b63e 8c3b 7aac aebc ea84 923c 16c7 98bb
000000b0: d83e a5bb 11b2 513a efb3 a13c a776 9cbc
000000c0: d28e 88bc 6f4c 963c cc65 aaba 1a64 bcbc
000000d0: 0374 1e3b 2bfc 163c 5fb2 ecbc 9518 9a3c
000000e0: 925b db3c ad15 893c 3553 d8bb 13cf 8c3b
000000f0: 290c 0ebc dbd7 293c 1d81 28bc ea98 943b

hyper_w_final.2.weight f4 [32, 64]
0.0037740022 -0.09476231 -0.06962377 0.08699095 0.005950749 -0.07810056 -0.095840305 -0.024499595
0.017296731 0.0011874437 -0.03878969 0.0073072165 -0.059742093 0.018261999 -0.11993976 -0.004651889
0.03951314 -0.08151978 0.07886386 0.015523583 0.08069533 0.004097387 0.06615302 0.114464775
0.091114044 -0.07852103 0.0016709119 -0.06263445 0.09908417 0.09388685 0.029515073 -0.12102769
-0.02247645 0.06270385 -0.05085306 -0.056771338 0.11156951 0.02315344 -0.096965656 -0.094764516
-0.09110166 0.023540571 0.030278042 -0.090318516 -0.109204024 -0.12333211 0.12080154 -0.06539106
-0.068414524 0.08228347 0.09699556 -0.019729987 -0.031138286 0.10119131 0.08235176 0.0076295435
0.07173245 -0.11527124 0.112841845 0.026284337 0.02575408 -0.11906868 -0.05854556 0.02228947
0.07834317 -0.10975948 0.07813804 0.093334496 -0.022169262 0.055392995 -0.03947471 0.103934065
-0.025632352 -0.06491524 -0.07111442 0.057423323 -7.031858e-05 -0.04397495 -0.04170364 0.0014284104
-0.0767356 0.07838541 -0.08645719 0.037260517 0.02513364 0.045094475 0.008008227 0.05479102
-0.03325139 -0.021683589 0.07136288 -0.12463048 -0.015604094 -0.0028066188 -0.08052565 0.070510074
-0.08656134 -0.11590658 -0.058285654 0.08042279 -0.07523964 -0.124961376 0.046040148 0.0013016313
-0.115352884 0.1120746 0.06833358 0.080338806 0.005727574 -0.026542485 -0.022857577 -0.10008581
-0.0065026283 -0.09483218 0.1146556 -0.10042852 0.09247325 -0.1024099 -0.10590717 -0.1098945
-0.015613586 0.056915626 -0.005013734 -0.107243896 0.017117098 0.013224378 0.08727279 0.040619016
-0.10704124 -0.032433823 0.11007187 0.03252624 0.033460155 -0.046527803 -0.119859844 0.0771008
-0.036499456 -0.104057655 -0.06304146 -0.052308038 0.07354027 -0.09096898 0.121984646 -0.11685625
-0.0061554313 0.079453364 0.03388238 0.08346824 -0.11655608 0.08055559 -0.014718518 -0.10725826
-0.11041957 -0.106237665 0.072653785 0.1012889 0.109152526 -0.036586657 -0.021568254 0.0473821
0.061155587 -0.101288944 -0.042852893 0.011919811 -0.03832905 0.09093012 -0.0008550137 -0.034495488
0.093473196 -0.102730215 -0.01494202 0.12300548 0.11099084 0.05302897 -0.10602634 -0.04599233
-0.0030972213 -0.023885354 0.057831004 -0.022431597 -0.004884854 0.010744497 -0.032811448 -0.10628225
-0.10053663 0.09976615 0.12425178 -0.036792696 -0.1203834 0.08356276 -0.011532724 -0.047437474
-0.044308648 0.06347495 -0.045913324 0.0023526996 0.0076732785 0.08019778 -0.11308335 -0.12422353
0.07257223 0.109687224 -0.024672613 -0.030209333 0.111445606 0.014736176 0.10258438 0.060915038
-0.057109788 0.11464459 0.036371976 0.049528718 0.043385193 0.08780421 -0.0799548 0.08665319
0.012505233 0.05031097 0.056081027 0.08321558 -0.09290321 -0.08332889 0.08518468 0.07848397
0.11704102 -0.071464255 -0.12241486 -0.068336785 0.05546929 0.025381282 0.08897124 -0.028256565
-0.044890344 0.05808015 0.10457891 0.0702461 -0.0003565997 -0.061532408 0.06330256 0.015252322
0.03228882 0.06837335 -0.07503894 -0.0048762113 0.067120224 -0.0045239627 0.0026828349 -0.0042205453
0.079544246 0.123099 0.05989833 -0.073424175 0.0900176 -0.11533746 0.08115828 0.027351856
00000000: 4055 773b be12 c2bd e896 8ebd 5028 b23d
00000010: 80fe c23b 30f3 9fbd ec47 c4bd 60b3 c8bc
00000020: e0b1 8d3c 00a4 9b3a f0e1 1ebd 6071 ef3b
00000030: 20b4 74bd 309a 953c faa2 f5bd e06e 98bb
00000040: 88d8 213d d8f3 a6bd 6083 a13d a056 7e3c
00000050: 9843 a53d 6043 863b 3c7b 873d 826c ea3d
00000060: 009a ba3d a2cf a0bd 8002 db3a 7e46 80bd
00000070: a4ec ca3d c047 c03d 98c9 f13c 5edd f7bd
00000080: 8820 b8bc e06a 803d 4c4b 50bd 1089 68bd
00000090: 8e7e e43d 48ac bd3c ee95 c6bd e613 c2bd
000000a0: 8293 babd 28d8 c03c a809 f83c eaf8 b8bd
000000b0: 5ca6 dfbd 8c95 fcbd cc66 f73d c0eb 85bd
000000c0: ea1c 8cbd 3c84 a83d 9ca5 c63d c8a0 a1bc
000000d0: b815 ffbc 643d cf3d 0aa8 a83d 4001 fa3b
000000e0: 76e8 923d 5413 ecbd a019 e73d 4052 d73c
000000f0: 38fa d23c 48da f3bd 78cd 6fbd 6898 b63c
00000100: 6272 a03d 94c9 e0bd d606 a03d 2826 bf3d
00000110: 509c b5bc c4e3 623d 3cb0 21bd 62db d43d
00000120: f0fa d1bc 48f2 84bd 70a4 91bd b834 6b3d
00000130: 0078 93b8 141f 34bd 70d1 2abd 8039 bb3a
00000140: 8e27 9dbd 8888 a03d 7810 b1bd 7c9e 183d
00000150: 10e5 cd3c fcb4 383d f034 033c 8c6c 603d
00000160: 9c32 08bd c8a1 b1bc b426 923d 443e ffbd
00000170: 50a8 7fbc 40ef 37bb a2ea a4bd 9667 903d
00000180: 1247 b1bd 6e60 edbd f0bc 6ebd b4b4 a43d
00000190: 3e17 9abd c0eb ffbd 9894 3c3d 809b aa3a
000001a0: 223e ecbd 5e87 e53d 7af2 8b3d ac88 a43d
000001b0: 60ae bb3b a06f d9bc d03f bbbc caf9 ccbd
000001c0: 0014 d5bb 6037 c2bd 8ed0 ea3d 78ad cdbd
000001d0: 9e62 bd3d 48bc d1bd dce5 d8bd 5e10 e1bd
000001e0: 20d0 7fbc 5c20 693d 404a a4bb b0a2 dbbd
000001f0: 2839 8c3c 10ab 583c 14bc b23d 2060 263d
00000200: 7038 dbbd 54d9 04bd 5c6d e13d 3c3a 053d
00000210: 840d 093d f093 3ebd 1479 f5bd 06e7 9d3d
00000220: 7480 15bd 2e1c d5bd e21b 81bd f440 56bd
00000230: 489c 963d f24d babd 16d3 f93d 5452 efbd
00000240: 80b3 c9bb 72b8 a23d 40c8 0a3d 66f1 aa3d
00000250: f4b4 eebd 54fa a43d f025 71bc 38aa dbbd
00000260: a823 e2bd 2293 d9bd 82cb 943d 8e70 cf3d
00000270: 5c8b df3d e4db 15bd e8af b0bc bc13 423d
00000280: 487e 7a3d 9470 cfbd 8486 2fbd 504b 433c
00000290: ecfe 1cbd 9239 ba3d 0023 60ba 244b 0dbd
000002a0: e06e bf3d 3864 d2bd 60cf 74bc 4cea fb3d
000002b0: 2a4f e33d e834 593d 5624 d9bd 7462 3cbd
000002c0: c0fa 4abb 38ab c3bc 34e0 6c3d 78c2 b7bc
000002d0: 2011 a0bb b009 303c 4c65 06bd 82aa d9bd
000002e0: 26e6 cdbd 3252 cc3d b877 fe3d f0b3 16bd
000002f0: 928b f6bd f422 ab3d c0f3 3cbc cc4d 42bd
00000300: fc7c 35bd 28ff 813d 9c0f 3cbd c02f 1a3b
00000310: 2070 fb3b bc3e a43d 3e98 e7bd e868 febd
00000320: c0a0 943d b2a3 e03d 381e cabc 9079 f7bc
00000330: 983d e43d 0070 713c c217 d23d 0c82 793d
00000340: f4eb 69bd c8ca ea3d c8fa 143d a0de 4a3d
00000350: acb4 313d b2d2 b33d 58bf a3bd 3a77 b13d
00000360: c0e2 4c3c e012 4e3d 38b5 653d ee6c aa3d
00000370: 0a44 bebd 56a8 aabd 4e75 ae3d 34bc a03d
00000380: 34b3 ef3d da5b 92bd a4b4 fabd 28f4 8bbd
00000390: c433 633d 68ec cf3c 8e36 b63d 507a e7bc
000003a0: f0de 37bd 74e5 6d3d 782d d63d 30dd 8f3d
000003b0: 00f6 bab9 6809 7cbd c6a4 813d e0e4 793c
000003c0: 4841 043d 5407 8c3d 04ae 99bd a0c8 9fbb
000003d0: 5476 893d c03d 94bb 80d2 2f3b 804c 8abb
000003e0: 18e8 a23d 541b fc3d f457 753d 6a5f 96bd
000003f0: 265b b83d 0c36 ecbd 5036 a63d 0011 e03c

hyper_w_final.2.bias f4 [32]
-0.11568718 0.10515413 0.012334034 0.012085304 0.00851199 0.00035630167 0.09805672 -0.10653284
-0.06671372 0.08229655 -0.032878026 0.0063426793 0.033797875 -0.0114647895 -0.09067094 0.08403985
-0.087178335 -0.10446401 0.059012562 0.07359117 0.006892264 0.109852895 0.03796345 -0.10896085
-0.025107756 0.07152712 -0.06838964 0.104549125 -0.04482752 -0.09550235 0.11682908 0.04365301
00000000: 66ed ecbd 0c5b d73d b014 4a3c 7001 463c
00000010: e075 0b3c 00ce ba39 f6d1 c83d e42d dabd
00000020: 34a1 88bd 188b a83d 1cab 06bd 40d6 cf3b
00000030: a46f 0a3d d0d6 3bbc b0b1 b9bd 161d ac3d
00000040: 8e8a b2bd 3af1 d5bd 28b7 713d f8b6 963d
00000050: 80d8 e13b 8efa e03d 907f 1b3d de26 dfbd
00000060: c8ae cdbc d07c 923d de0f 8cbd da1d d63d
00000070: 109d 37bd bc96 c3bd 1644 ef3d 80cd 323d

hyper_b_1.weight f4 [32, 1064]
0.002393113 -0.022982877 0.0041679563 -0.023805631 0.009081077 -0.0100010885 0.022270368 0.022265797
-0.01903184 0.017946161 0.0021609038 0.029164854 0.026794879 0.0018005205 -0.02135214 -0.026149984
-0.009443415 0.0085321935 -0.006044456 -0.00013094414 0.012070408 0.0155888 0.0044717663 0.0020262026
-0.01928528 -0.009607489 0.0069332314 -0.021962963 0.026669364 0.0017807125 0.020738052 -0.025337145
0.022664532 0.015822599 -0.028265005 -0.019409362 0.02326276 0.021373678 -0.0076612523 -0.0029256023
0.002492646 -0.02425337 -0.02247701 -0.01623982 0.002800531 0.012176984 0.0012533983 -0.022712907
0.0237149 -0.010438365 0.014439836 0.028906306 0.006922191 -0.022676252 -0.021346232 0.000893618
-0.0067780465 0.013089653 -0.0014416429 -0.030154249 -0.020491743 -0.020743268 -0.013040126 0.0091290325
0.019690704 0.02838902 -0.0024009594 0.013286785 -0.0057345424 -0.00012154453 0.007445478 0.0011978119
-0.008154966 0.0041512256 -0.030358562 -0.0024222767 0.0131209325 -0.014018541 0.0032486136 -0.01806963
0.027304154 0.014059604 -0.007277067 0.027636588 0.011261844 -0.010890336 0.017634014 0.0062456997
0.02347543 -0.00011207182 0.030420387 -0.018745264 -0.009816272 -0.0134500805 0.01744934 0.013988285
0.0130431885 -0.0025998498 -0.019419983 -0.019194553 -0.019760678 0.010631126 0.028471502 -0.023336973
0.0149736265 -0.025520923 0.02850709 0.0063761286 0.007587141 -0.029626861 -0.025137048 0.019330926
0.017278466 -0.013904532 0.012625895 0.010825276 0.005598058 0.015075651 -0.01979574 0.019056017
0.024711521 -0.027665656 0.017906697 -0.024718901 0.006606664 -0.0072480966 0.026240813 0.010008522
-0.02928308 0.015802681 -0.015074749 -0.021481602 -0.011222484 0.019334655 -0.007169373 0.021764452
-0.0064421636 -0.028989434 -0.005212206 0.026964217 -0.003593337 -0.02664868 0.0015283846 0.025191713
0.000545145 0.026446015 0.005022368 -0.00669717 0.01854531 0.0006303336 0.02904191 0.023122314
0.015689606 -0.0033650307 -0.030628772 -0.0027915991 -0.02684392 -0.030274142 0.0015020606 -0.0026572307
-0.012852382 0.020295952 -0.009066261 -0.02746197 -0.0012659444 0.018652473 -0.020135054 0.0020873914
-0.029569196 0.009974783 -0.0032196802 -0.016140996 0.013383618 0.013737126 -0.010068541 -0.0030065589
-0.012881012 -0.020091861 0.008907144 -0.0065069194 0.023416553 0.02250195 -0.013880778 0.0132559845
-0.025828885 -0.0043774596 -0.017910795 -0.028240928 0.00068086205 0.020972174 0.0042270436 -0.015327219
-0.01115407 0.020234715 0.03023764 0.019782634 0.01711096 0.0040613296 0.024978885 0.012949331
-0.017999891 0.015688546 0.02255795 -0.02333279 -0.013016137 -0.029505726 0.017570194 -0.0033207042
0.021311413 -0.018718332 -0.0036956144 0.017147934 -0.016185377 -0.011753328 -0.0029740292 -0.014278544
-0.0021936232 0.023273518 -0.024994712 -0.014663947 0.01595884 -0.014928459 0.003883117 0.0018521928
-0.02102894 0.024981344 0.023211822 -0.0011088261 -0.021800509 0.028945407 0.022838732 0.0013620531
0.027857669 0.010488023 0.025638254 0.024395144 -0.022013145 -0.0037604836 -0.012491436 0.019310797
-0.014971006 -0.008604087 -0.0028703557 0.00014419206 0.013759233 -0.0070559527 0.021378027 0.028988006
0.01582972 0.020939536 -0.0070266537 0.0058851265 0.0031257279 -0.010108753 0.004076233 0.0012660468
00000000: c6d5 1c3b 9646 bcbc 5a93 883b 0704 c3bc
00000010: ccc8 143c 9bdb 23bc 5970 b63c c366 b63c
00000020: a9e8 9bbc d403 933c f39d 0d3b 22eb ee3c
00000030: ef80 db3c 71ff eb3a afea aebc 7e38 d6bc
00000040: 8eb8 1abc 9dca 0b3c 9210 c6bb 0d4e 09b9
00000050: f6c2 453c 2b68 7f3c e587 923b 0aca 043b
00000060: 2afc 9dbc bb68 1dbc 2930 e33b aceb b3bc
00000070: b679 da3c cc66 e93a d9e2 a93c d88f cfbc
00000080: f8aa b93c 659e 813c 038c e7bc 6200 9fbc
00000090: 8b91 be3c da17 af3c 3e0b fbbb 76bb 3fbb
000000a0: a95b 233b 01af c6bc b521 b8bc 5f09 85bc
000000b0: 1d89 373b f981 473c 1149 a43a 6b10 babc
000000c0: c045 c23c ad05 2bbc 1095 6c3c ebcc ec3c
000000d0: 8cd3 e23b 8cc3 b9bc 4bde aebc b041 6a3a
000000e0: 601a debb fc75 563c 82f5 bcba 0b06 f7bc
000000f0: 4dde a7bc c9ed a9bc 41a6 55bc f091 153c
00000100: 664e a13c 1790 e83c 6a59 1dbb d1b0 593c
00000110: d4e8 bbbb b9e5 feb8 32f9 f33b e6ff 9c3a
00000120: 689c 05bc 0107 883b 85b2 f8bc 0fbf 1ebb
00000130: 2ef9 563c 06ae 65bc b1e6 543b c306 94bc
00000140: f6ac df3c 415a 663c 7674 eebb 2066 e23c
00000150: 9983 383c 616d 32bc 3575 903c baa8 cc3b
00000160: 8c4f c03c 1a08 ebb8 2d34 f93c ab8f 99bc
00000170: 6ed4 20bc ba5d 5cbc ebf1 8e3c 1f2f 653c
00000180: 19b3 553c 3e62 2abb a816 9fbc e53d 9dbc
00000190: 25e1 a1bc 2d2e 2e3c 113d e93c 2e2d bfbc
000001a0: f153 753c 4111 d1bc b387 e93c d8ee d03b
000001b0: 8d9d f83b 08b4 f2bc 36ec cdbc e45b 9e3c
000001c0: 928b 8d3c d6cf 63bc d8dc 4e3c 805c 313c
000001d0: ea6f b73b ddff 763c ad2a a2bc 5d1b 9c3c
000001e0: d16f ca3c 16a3 e2bc 11b1 923c 4b7f cabc
000001f0: b77c d83b 7181 edbb f9f6 d63c c9fa 233c
00000200: 12e3 efbc a074 813c 14fc 76bc 2ffa afbc
00000210: 82de 37bc b663 9e3c 0fed eabb 5d4b b23c
00000220: c918 d3bb 407b edbc 27cb aabb 10e4 dc3c
00000230: 317e 6bbb 554e dabc 1454 c83a da5e ce3c
00000240: 10e8 0e3a 50a5 d83c ad92 a43b ef73 dbbb
00000250: 55ec 973c f93c 253a 4de9 ed3c 026b bd3c
00000260: 7d87 803c d987 5cbb 31e9 fabc 43f3 36bb
00000270: c8e7 dbbc 7a01 f8bc cae0 c43a ef24 2ebb
00000280: cc92 52bc b243 a63c a88a 14bc edf7 e0bc
00000290: 0cee a5ba 12cd 983c 45f2 a4bc 9ecc 083b
000002a0: 193b f2bc 466d 233c 4501 53bb 1f3a 84bc
000002b0: f646 5b3c af11 613c 86f6 24bc b009 45bb
000002c0: e10a 53bc b097 a4bc 45ef 113c ff37 d5bb
000002d0: 12d4 bf3c 0256 b83c 346c 63bc a12f 593c
000002e0: 1997 d3bc cb70 8fbb a9b9 92bc 8559 e7bc
000002f0: e17b 323a d6cd ab3c 0383 8a3b 041f 7bbc
00000300: 8fbf 36bc 46c3 a53c edb4 f73c 310f a23c
00000310: 492c 8c3c e714 853b 85a0 cc3c 6e29 543c
00000320: 8274 93bc 4485 803c 73cb b83c 6824 bfbc
00000330: a341 55bc feb5 f1bc 5eef 8f3c 2ca0 59bb
00000340: 4695 ae3c 3057 99bc 1f32 72bb d379 8c3c
00000350: 3297 84bc 0891 40bc eee7 42bb 8ef0 69bc
00000360: e4c2 0fbb 1ba8 be3c b6c1 ccbc 0d41 70bc
00000370: 1dbc 823c 7f96 74bc e57b 7e3b 47c5 f23a
00000380: e244 acbc ada5 cc3c b826 be3c 0856 91ba
00000390: fb96 b2bc eb1e ed3c 4b18 bb3c eb86 b23a
000003a0: c435 e43c f5d5 2b3c 5107 d23c 53d8 c73c
000003b0: e954 b4bc 7272 76bb e1a8 4cbc ad31 9e3c
000003c0: f348 75bc 28f8 0cbc 941c 3cbb 4332 1739
000003d0: 686e 613c 9f35 e7bb f920 af3c 4178 ed3c
000003e0: 54ad 813c 6489 ab3c d83f e6bb 05d8 c03b
000003f0: 03d9 4c3b 2f9f 25bc ec91 853b 7bf1 a53a

hyper_b_1.bias f4 [32]
0.0012813157 -0.01653102 0.009781977 0.0020095012 0.0032726023 0.0016370759 -0.011345625 -0.022598984
-0.016156754 -0.028920168 0.0027839611 0.014024374 0.014895524 -0.013852517 0.005604797 -0.012653305
-0.019794654 -0.015877908 0.020739427 -0.014073996 -0.015970549 0.0075959484 -0.018801065 -0.020184714
-0.013825685 0.021839488 -0.023078188 0.022834405 -0.020426223 0.010302863 -0.0215677 0.008254357
00000000: d2f1 a73a 106c 87bc 9644 203c d6b1 033b
00000010: 2879 563b 2793 d63a 00e3 39bc 8121 b9bc
00000020: 2b5b 84bc fde9 ecbc 1e73 363b 7dc6 653c
00000030: 5b0c 743c abf5 62bc 72a8 b73b cf4f 4fbc
00000040: 6628 a2bc 6312 82bc bbe5 a93c 9e96 66bc
00000050: abd4 82bc 6fe7 f83b b104 9abc 6a5a a5bc
00000060: 2085 62bc bae8 b23c 780e bdbc 380f bb3c
00000070: e554 a7bc 57cd 283c bfae b0bc 483d 073c

V.0.weight f4 [32, 1064]
0.0005902025 -0.026265197 -0.018487902 0.0013261649 0.01964971 0.021083832 0.027536849 0.010156669
-0.0053181853 0.029918209 0.012623228 0.00567767 -0.0049307765 0.021846224 -0.0070705563 -0.024836235
-0.009479797 -0.0072109513 0.010481576 -0.028259812 0.028526573 -0.012350906 0.011641377 0.005441276
-0.023525931 -0.0053070975 -0.02727112 -0.0048403395 0.0071139657 0.028844375 -0.027545514 -0.00022453834
0.002049296 -0.015475621 0.00495205 -0.01955111 -0.022389604 0.02976642 0.012852944 -0.012791394
-0.017226238 0.013488739 0.01683627 -0.019386023 0.002897703 0.019089308 -0.008188494 -0.022465784
0.002725959 0.029518919 -0.00075651583 -0.0023040688 0.030300334 -0.011206513 0.00020798302 -0.010697841
-0.0040389416 0.021931756 0.01499558 0.016525174 0.02020936 -0.013088856 -0.0030295206 -0.027522283
-0.013683784 -0.012574889 0.0038289742 -0.015781986 0.017590236 -0.009019559 0.003953238 -0.008326027
0.025317699 0.01868502 0.028344072 0.02487983 -0.0053145858 -0.015161681 -0.018992968 0.022705281
-0.0054419045 -0.010372922 0.02801702 -0.0063394546 0.00016106533 -0.018585814 0.009101521 -0.0006105038
0.019613756 -0.0034431806 -0.030180054 0.011630172 -0.021238206 -0.024011673 0.021260776 -0.023939295
0.011480301 -0.022647373 0.0005848449 -0.0048657064 0.029238783 0.0273909 -0.021302227 0.0022732497
0.015846837 0.02024246 0.029628133 0.0056994874 0.007129794 0.0070499154 -0.00034221265 -0.027958238
0.023403162 -0.0129990885 0.029109525 -0.029120367 0.017356433 0.01056959 0.021044487 -0.006871918
-0.00042364435 -0.017380372 -0.029072043 0.016408285 -0.014176574 -0.01337466 -0.02399895 -0.019571718
-0.021645905 -0.0046947077 -0.00577835 -0.030305596 -0.019697713 -0.0098341 0.029964842 -0.028789824
-0.014352747 0.008397164 0.019418217 0.024908973 -0.02707709 -0.02089885 -0.01599515 0.0011424118
-0.023533305 -0.021497617 0.0054626553 -0.014328481 -0.008257715 0.01362974 -0.0044495394 0.0067512435
-0.03002902 0.018854685 0.017439999 0.01730221 -0.019173162 0.027612459 0.00066932454 0.013090439
-0.0040496024 -0.0073642726 -0.011499247 -0.019981869 -0.0015740634 0.006117058 -0.013440132 -0.028297162
-0.004630321 0.006715045 -0.014333005 0.0024742852 0.010089011 -0.019779375 -0.021729909 -0.01475423
0.003740712 0.022053352 -0.008241722 -0.014062652 -0.0065335613 0.012726664 -0.021159383 -0.0028869403
0.012876616 -0.017129296 0.0070876456 0.010407776 -0.01636349 0.021979712 0.026041556 0.015770687
-0.026248911 -0.005330929 0.02229946 -0.025228648 0.019968819 0.010857277 0.018892018 0.028615002
0.030222582 -0.010938609 0.010482479 0.011229511 -0.020601744 -0.0030210419 0.020650214 0.0061554387
-0.023816803 0.025768442 -0.012944913 -0.016408099 -0.022570593 -0.0031248033 0.004105452 -0.021937987
0.0014463133 0.0059376503 -0.029048387 0.0192657 0.013805318 0.00069138367 -0.0046707736 -0.028159171
0.0043032933 0.012161543 -0.01844888 0.011478952 0.013444711 -0.013291394 0.022389838 0.015134725
-0.014652066 -0.0067616333 -0.018820848 0.018666599 -0.030548835 0.009617404 0.027451828 0.005119843
-0.0046453415 0.021865845 -0.027666712 0.016979488 0.028662918 -0.026027443 -0.016257163 0.024792168
-0.0060038716 0.004364179 0.018494561 -0.0026256293 0.0040869885 0.005387714 -0.0026163175 0.022475436
00000000: d2b7 1a3a 1c2a d7bc f173 97bc b6d2 ad3a
00000010: 6ef8 a03c 00b8 ac3c f594 e13c 2868 263c
00000020: 2c44 aebb 0817 f53c a8d1 4e3c bf0b ba3b
00000030: 5a92 a1bb daf6 b23c 20b0 e7bb 5c75 cbbc
00000040: 2751 1bbc d849 ecbb ebba 2b3c 1f81 e7bc
00000050: 8fb0 e93c 745b 4abc 79bb 3e3c bb4c b23b
00000060: 74b9 c0bc 29e7 adbb af67 dfbc b69b 9ebb
00000070: 451c e93b 0a4b ec3c 21a7 e1bc 0d72 6bb9
00000080: 7b4d 063b 768d 7dbc ce44 a23b a629 a0bc
00000090: 676a b7bc b5d8 f33c 2895 523c ff92 51bc
000000a0: 0a1e 8dbc dfff 5c3c 38ec 893c 70cf 9ebc
000000b0: 64e7 3d3b 2e61 9c3c 0829 06bc 2a0a b8bc
000000c0: 01a6 323b a9d1 f13c eb50 46ba dcff 16bb
000000d0: 6838 f83c 869b 37bc 0416 5a39 ff45 2fbc
000000e0: 1959 84bb 3aaa b33c 05b0 753c cd5f 873c
000000f0: 1a8e a53c a472 56bc ec8a 46bb 6976 e1bc
00000100: f331 60bc e806 4ebc 87ef 7a3b 3949 81bc
00000110: 6619 903c c6c6 13bc 2a8a 813b e369 08bc
00000120: 1067 cf3c 5411 993c d431 e83c c9d0 cb3c
00000130: fa25 aebb b368 78bc 2497 9bbc 6d00 ba3c
00000140: 0152 b2bb 30f3 29bc f383 e53c 33bb cfbb
00000150: a5e3 2839 4741 98bc 8c1e 153c 370a 20ba
00000160: 07ad a03c fca6 61bb 293c f7bc 7a8c 3e3c
00000170: bffb adbc 21b4 c4bc 142b ae3c 571c c4bc
00000180: df17 3c3c fc86 b9bc 4750 193a 8170 9fbb
00000190: 2c86 ef3c e162 e03c 0282 aebc cdfa 143b
000001a0: 3ad1 813c 84d3 a53c b3b6 f23c c4c2 ba3b
000001b0: 0ca1 e93b fa02 e73b 016b b3b9 ad08 e5bc
000001c0: fdb7 bf3c 21fa 54bc 1977 ee3c d68d eebc
000001d0: 142f 8e3c 132c 2d3c 7d65 ac3c d42d e1bb
000001e0: 951c deb9 4861 8ebc 7e28 eebc ab6a 863c
000001f0: dc44 68bc 6421 5bbc 7299 c4bc de54 a0bc
00000200: c152 b1bc 10d6 99bb 5058 bdbb 7143 f8bc
00000210: 195d a1bc 341f 21bc d478 f53c a3d8 ebbc
00000220: c927 6bbc 4294 093c f412 9f3c e70d cc3c
00000230: c6d0 ddbc 1134 abbc 4308 83bc fbbc 953a
00000240: ebc8 c0bc c51b b0bc 1300 b33b 01c2 6abc
00000250: 5e4b 07bc 464f 5f3c 71cd 91bb 8939 dd3b
00000260: 6bff f5bc 2475 9a3c 54de 8e3c 5dbd 8d3c
00000270: 0911 9dbc 8633 e23c 9c75 2f3a 4879 563c
00000280: 87b2 84bb ff4f f1bb 5667 3cbc 04b1 a3bc
00000290: ce50 ceba 9a71 c83b 0034 5cbc 73cf e7bc
000002a0: f3b9 97bb e109 dc3b fbd4 6abc 9e27 223b
000002b0: 614c 253c 5b08 a2bc ec02 b2bc babb 71bc
000002c0: bc26 753b 3ba9 b43c 4a08 07bc 0a67 66bc
000002d0: 7c17 d6bb 7f83 503c 7156 adbc d232 3dbb
000002e0: 71f8 523c bd52 8cbc 7b3f e83b 6085 2a3c
000002f0: ba0c 86bc cc0e b43c 1a55 d53c 8731 813c
00000300: f507 d7bc 13af aebb 5bad b63c 4fac cebc
00000310: a695 a33c b8e2 313c 6fc3 9a3c 026a ea3c
00000320: 5995 f73c da37 33bc b4be 2b3c fcfb 373c
00000330: fdc4 a8bc acfc 45bb a32a a93c 90b3 c93b
00000340: 751b c3bc 5718 d33c e616 54bc 476a 86bc
00000350: f7e5 b8bc 80c9 4cbb 0787 863b 4bb7 b3bc
00000360: 3992 bd3a 9f90 c23b e2f6 edbc 1ad3 9d3c
00000370: b32f 623c f93d 353a 4a0d 99bb 10ae e6bc
00000380: a402 8d3b 3541 473c 1b22 97bc 3712 3c3c
00000390: 3547 5c3c 26c4 59bc e56a b73c a3f7 773c
000003a0: 380f 70bc b190 ddbb 2e2e 9abc b2ea 983c
000003b0: 8d41 fabc 5192 1d3c a8e2 e03c 5bc4 a73b
000003c0: f337 98bb 0020 b33c 4da5 e2bc 9118 8b3c
000003d0: 7fce ea3c 8137 d5bc be2d 85bc f218 cb3c
000003e0: 20bc c4bb 6301 8f3b e881 973c c012 2cbb
000003f0: 25ec 853b 6c8b b03b 8676 2bbb 681e b83c

V.0.bias f4 [32]
0.0016102658 -0.02453974 0.0069171404 -0.02424354 -0.011203549 0.016475819 0.015310006 0.005269203
0.012593827 -0.015521311 -0.0042108684 -0.0063689547 -0.01065953 -0.028766066 -0.0060548056 0.01696732
0.017120214 0.028199624 0.02312056 0.028694361 -0.025265554 -0.013312685 0.02233606 -0.009303306
0.013708263 0.0037135147 0.0071741496 -0.015422165 0.01819187 -0.024254518 -0.0040217065 -0.024785535
00000000: 8e0f d33a 9107 c9bc 2ea9 e23b 639a c6bc
00000010: 178f 37bc 4cf8 863c d2d6 7a3c 47a9 ac3b
00000020: 5756 4e3c 194d 7ebc 53fb 89bb aab2 d0bb
00000030: 4fa5 2ebc d0a6 ebbc 6467 c6bb 0dff 8a3c
00000040: b13f 8c3c e602 e73c 5467 bd3c 7010 eb3c
00000050: b5f9 cebc 731d 5abc 1dfa b63c e56c 18bc
00000060: 9f98 603c 705e 733b 2115 eb3b 40ad 7cbc
00000070: 1e07 953c 69b1 c6bc 85c8 83bb 090b cbbc

V.2.weight f4 [1, 32]
-0.13283867 -0.025362413 -0.08588946 0.07620403 -0.16487136 -0.014383876 -0.08966744 0.12371739
-0.17282772 0.1664416 -0.06511119 0.13924932 -0.043468803 -0.15869552 0.12777473 -0.06387125
-0.13947983 -0.034020662 -0.1673082 0.039245732 -0.17606333 0.15878862 -0.124520525 -0.06609327
-0.06627474 0.14971818 -0.0806066 -0.11295958 -0.109454714 -0.15279905 -0.13296442 -0.053829953
00000000: dc06 08be d6c4 cfbc d0e6 afbd dc10 9c3d
00000010: 0ad4 28be 59aa 6bbc 90a3 b7bd 8b5f fd3d
00000020: c0f9 30be ab6f 2a3e 0459 85bd 6097 0e3e
00000030: 580c 32bd 1481 22be 61d7 023e eece 82bd
00000040: cdd3 0ebe 4059 0bbd d752 2bbe 22c0 203d
00000050: f249 34be 7c99 223e 9e04 ffbd e95b 87bd
00000060: 0dbb 87bd b94f 193e 1315 a5bd 5a57 e7bd
00000070: cb29 e0bd 5b77 1cbe d327 08be cc7c 5cbd
