trunk/models/model_100/agent.pth (torch, 477519 bytes, 8 tensors)

fc1.weight f4 [128, 134]
-0.09303027 -0.028715536 -0.0982375 0.0040373276 -0.08243772 -0.011490835 -0.04912672 0.03553296
-0.0039895885 -0.01297576 -0.04674014 -0.016515054 0.037188496 0.054768763 0.011340428 -0.08608228
0.0325598 0.030999115 -0.040701523 0.030152647 -0.0841006 -0.049027056 -0.030804003 -0.038131714
-0.059653345 0.020880215 -0.016912315 0.028943187 0.036390178 0.0726744 0.013114125 -0.08360009
0.07261038 0.06276222 0.06883405 0.0036350891 0.05667843 -0.051598832 0.03196638 0.026487026
0.036623407 -0.00827118 -0.035134077 -0.069423705 0.031286787 -0.030263154 -0.001443091 -0.021282867
-0.06568185 -0.023311598 -0.022535317 0.06124973 0.039345726 0.07037821 -0.05758882 0.015723689
-0.030447088 -0.039651323 -0.011192407 -0.06032358 -0.02744148 -0.040276084 0.052394338 -0.0074250638
-0.05350886 -0.044566713 0.05998479 -0.03853663 0.05070077 0.04637725 -0.0892986 -0.0727679
-0.043072507 0.05562718 -0.017010715 0.051081892 -0.05067082 -0.08483265 -0.039659772 0.06149237
-0.020071818 0.060377844 0.073895015 0.040167145 0.041271657 0.018905124 0.0012343072 -0.018143475
-0.031748533 -0.031741083 -0.017923387 0.066482574 -0.019371077 -0.068933524 -0.012560074 0.041659392
0.010573099 0.006899974 0.020081164 -0.065818675 -0.045165148 0.032964766 0.012056481 -0.07604669
0.02776716 0.038239885 -0.062588945 -0.054178543 0.015230739 -0.0339637 -0.028866064 0.015093791
-0.043740727 0.056361165 0.0662946 -0.0061094807 0.0065302416 -0.050104063 -0.060953677 0.059358917
0.01729699 0.06092314 -0.06618622 0.055523753 -0.087536976 -0.08481416 -0.054289434 -0.03959065
-0.034876227 0.07159648 0.06731164 -0.06818898 0.060428318 -0.053108033 -0.029249934 -0.017007852
-0.037434068 -0.06778344 -0.07758835 -0.07899556 -0.08633717 -0.0773573 -0.087582104 0.0146736745
-0.07267274 -0.088282995 0.0046992563 0.039671466 0.019119537 -0.010028179 0.03325019 -0.07523484
-0.06758103 -0.023413384 0.051315434 0.0052672513 -0.012117156 -0.048337817 0.053848106 0.04867482
0.063649714 -0.07742424 0.06445506 -0.07298173 -0.011114651 -0.07860996 0.0681532 -0.0947103
-0.038891066 -0.02438832 -0.031796046 0.053961724 -0.026160471 0.050149996 -0.024516026 -0.008753213
-0.033443987 0.04497246 -0.06832266 -0.017722612 0.057495162 0.0017365303 0.016834173 -0.03470667
0.045810487 -0.01975362 -0.055022758 0.05602104 -0.0340485 -0.07894591 0.038184967 0.015968004
0.083344914 0.011790013 0.029395048 -0.04493962 -0.093576714 0.063824736 0.0064342995 0.089981176
0.080228105 -0.067221515 -0.082105145 -0.021173308 -0.01831571 -0.058165673 0.044547822 -0.041166686
-0.05148657 0.0737817 0.07548871 -0.06327263 0.002823343 0.06837198 0.031002618 -0.049668435
-0.006991431 0.071853705 0.06987879 0.06772171 -0.08155029 0.050545417 -0.0445503 -0.08802457
-0.0052824803 0.07326699 -0.027825486 -0.04368078 -0.07708895 -0.093698345 -0.063193396 4.4896875e-05
-0.07908141 -0.05307498 0.007468608 0.08726024 -0.017296012 0.06239775 -0.06691195 -0.015455034
-0.035789054 -0.0032146627 0.067427605 0.056309186 0.05077445 -0.07142397 0.007877383 0.0032134482
0.055017583 -0.038631037 0.043530393 0.012253424 -0.06861616 -0.08577682 0.07045398 0.07717794
00000000: a786 bebd d83c ebbc be30 c9bd 8f4b 843b
00000010: 1bd5 a8bd 0e44 3cbc 1939 49bd 028b 113d
00000020: 18bb 82bb 4898 54bc 9772 3fbd 944a 87bc
00000030: f752 183d 3655 603d 34cd 393c e84b b0bd
00000040: 6d5d 053d dbf1 fd3c a4b6 26bd af02 f73c
00000050: ef3c acbd 98d0 48bd ad58 fcbc 0030 1cbd
00000060: 1157 74bd fc0c ab3c b28b 8abc 431a ed3c
00000070: de0d 153d 51d6 943d a0dc 563c 8636 abbd
00000080: c0b4 943d 7b89 803d def8 8c3d ad3a 6e3b
00000090: a427 683d 4c59 53bd 2eef 023d 52fb d83c
000000a0: 6d02 163d d883 07bc c0e8 0fbd 042e 8ebd
000000b0: 9326 003d 6fea f7bc 1926 bdba 6859 aebc
000000c0: 3584 86bd f7f7 bebc fc9b b8bc ffe0 7a3d
000000d0: fc28 213d 7322 903d 41e2 6bbd f7ce 803c
000000e0: 2c6c f9bc 6d69 22bd 5c60 37bc dc15 77bd
000000f0: f4cc e0bc 89f8 24bd 729b 563d f34d f3bb
00000100: 1b2c 5bbd 968b 36bd 9cb2 753d 96d8 1dbd
00000110: 9cab 4f3d 12f6 3d3d 2fe2 b6bd 5607 95bd
00000120: cc6c 30bd 53d9 633d 0e5a 8bbc 3f3b 513d
00000130: 358c 4fbd bebc adbd 4972 22bd 6cdf 7b3d
00000140: a76d a4bc c24e 773d 4556 973d 4e86 243d
00000150: 780c 293d ebde 9a3c 7ac8 a13a a0a1 94bc
00000160: c00a 02bd f002 02bd 11d4 92bc 0428 883d
00000170: 18b0 9ebc 052d 8dbd c5c8 4dbc 0aa3 2a3d
00000180: cb3a 2d3c 2d19 e23b 4181 a43c f1cb 86bd
00000190: 17ff 38bd 1006 073d 8c88 453c 5ebe 9bbd
000001a0: f577 e33c 6da1 1c3d a22e 80bd 52ea 5dbd
000001b0: 598a 793c 851d 0bbd 8678 ecbc f34b 773c
000001c0: 7a29 33bd f7da 663d 77c5 873d 0a32 c8bb
000001d0: a3fb d53b eb39 4dbd 90aa 79bd 5622 733d
000001e0: 6bb2 8d3c 8b8a 793d a48c 87bd e06c 633d
000001f0: 9646 b3bd 0cb3 adbd 995e 5ebd ce29 22bd
00000200: 60da 0ebd 2da1 923d afda 893d aaa6 8bbd
00000210: af83 773d cf87 59bd 8f9d efbc 0d54 8bbc
00000220: 7754 19bd 0bd2 8abd a4e6 9ebd 6dc8 a1bd
00000230: 8bd1 b0bd 816d 9ebd 3f5e b3bd da69 703c
00000240: 72d5 94bd b7cd b4bd 38fc 993b 8c7e 223d
00000250: 93a0 9c3c 3b4d 24bc 5a31 083d b914 9abd
00000260: ec67 8abd 6dcd bfbc 2230 523d e898 ac3b
00000270: 0987 46bc e0fd 45bd d58f 5c3d 405f 473d
00000280: c85a 823d 9a90 9ebd 0401 843d 7277 95bd
00000290: 3a1a 36bc 42fe a0bd e893 8b3d 79f7 c1bd
000002a0: 3d4c 1fbd 04ca c7bc 923c 02bd f806 5d3d
000002b0: 7c4e d6bc 156a 4d3d d5d5 c8bc a369 0fbc
000002c0: 90fc 08bd 0b35 383d c0ec 8bbd 032f 91bc
000002d0: 0c80 6b3d 4a9c e33a d2e7 893c 9528 0ebd
000002e0: c7a3 3b3d 58d2 a1bc 8b5f 61bd 5176 653d
000002f0: 7176 0bbd 65ae a1bd d767 1c3d 55cf 823c
00000300: bdb0 aa3d e62a 413c e2cd f03c 9b12 38bd
00000310: 26a5 bfbd 8bb6 823d d1d6 d23b 0d48 b83d
00000320: a24e a43d 6fab 89bd be26 a8bd a573 adbc
00000330: d40a 96bc 213f 6ebd c777 363d 669e 28bd
00000340: 95e3 52bd dc1a 973d d399 9a3d 1595 81bd
00000350: d607 393b 9c06 8c3d 34f9 fd3c 2171 4bbd
00000360: 6018 e5bb 0928 933d 9c1c 8f3d aeb1 8a3d
00000370: d703 a7bd b608 4f3d 607a 36bd 3a46 b4bd
00000380: a818 adbb 010d 963d 46f2 e3bc 9eea 32bd
00000390: d0e0 9dbd ebe4 bfbd 8a6b 81bd a74f 3c38
000003a0: 6ff5 a1bd 2665 59bd 3abb f43b 7fb5 b23d
000003b0: 5eb0 8dbc c894 7f3d 2209 89bd 1c37 7dbc
000003c0: 8b97 12bd 17ad 52bb 7c17 8a3d 76a4 663d
000003d0: dff8 4f3d bb46 92bd 2410 013c b798 523b
000003e0: 1e5a 613d 943b 1ebd ed4c 323d 96c2 483c
000003f0: a186 8cbd c2ab afbd 2d4a 903d 780f 9e3d

fc1.bias f4 [128]
0.024281276 -0.029877007 -0.019228254 0.021936078 -0.029698903 -0.015122439 -0.07919962 -0.037788298
0.05870669 -0.022423375 0.058898013 -0.0072144344 -0.09214912 -0.023700466 -0.038512986 -0.017769888
0.029458748 0.06998964 0.0051743626 -0.047466144 -0.075751156 0.027857421 0.006616504 -0.04941299
-0.004914475 0.010526271 0.02685686 -0.036133632 0.013074386 -0.01740117 -0.05335497 -0.06257558
-0.043850236 -0.009086577 0.024320692 -0.050663453 -0.08017549 -0.010683739 -0.0591525 -0.016133353
-0.08429794 0.054575793 0.03047247 0.08109813 -0.099745676 -0.05560906 -0.07661885 -0.08829593
-0.060042866 0.07682607 0.09843475 -0.004780419 0.04829502 0.007204916 -0.06344739 -0.06076674
-0.08351167 -0.021182438 0.03602852 -0.09690826 0.00365247 -0.043923184 -0.07110353 -0.08024437
-0.081366375 -0.0017965683 0.0021974551 0.046683013 -0.035943568 0.012366099 0.047085874 0.003994911
0.033499796 -0.038751256 -0.03644099 -0.09944233 0.11528379 -0.063689865 0.06023699 -0.07686802
-0.013201429 0.002025601 0.0057564867 -0.041727453 0.019176086 0.06206751 0.095814355 -0.03846301
0.0073451786 -0.054358225 -0.040748872 0.039259214 -0.08065935 -0.056081254 -0.0674616 -0.03516764
-0.0103475265 -0.058100272 0.0076278527 0.04857637 0.0014232701 0.040122338 0.071341075 -0.091526456
0.064879656 -0.019721696 0.08955777 -0.1023695 0.024147656 0.07245916 -0.050598364 -0.062054444
-0.054878764 -0.021902734 0.10557697 -0.037614282 0.05992279 0.047105495 -0.058324292 0.035837747
-0.020931901 0.041997407 0.023675345 0.06809205 -0.038462926 0.04846344 -0.05079484 0.021402437
00000000: 87e9 c63c a0c0 f4bc 9284 9dbc 4ab3 b33c
00000010: 1d4b f3bc 1bc4 77bc 6933 a2bd e7c7 1abd
00000020: 6d76 703d 3ab1 b7bc 0b3f 713d 1067 ecbb
00000030: aeb8 bcbd 7b27 c2bc cbbf 1dbd 2892 91bc
00000040: 7953 f13c ba56 8f3d b38d a93b dc6b 42bd
00000050: 6c23 9bbd 3f35 e43c 42cf d83b 4765 4abd
00000060: 9b09 a1bb 6176 2c3c eb02 dc3c dc00 14bd
00000070: f335 563c e68c 8ebc be8a 5abd a027 80bd
00000080: 4e9c 33bd dedf 14bc 303c c73c 7b84 4fbd
00000090: 0c33 a4bd d90a 2fbc e449 72bd 182a 84bc
000000a0: 66a4 acbd de8a 5f3d 67a1 f93c c716 a63d
000000b0: 7647 ccbd 53c6 63bd 58ea 9cbd 7fd4 b4bd
000000c0: 82ef 75bd fd56 9d3d 2998 c93d 10a5 9cbb
000000d0: 00d1 453d 3717 ec3b b5f0 81bd 8ce6 78bd
000000e0: 2b08 abbd cb86 adbc a492 133d d677 c6bd
000000f0: 475e 6f3b cce8 33bd ba9e 91bd 2957 a4bd
00000100: 6aa3 a6bd d47a ebba 2e03 103b b036 3f3d
00000110: 9039 13bd 2e9b 4a3c 1edd 403d bee7 823b
00000120: 1537 093d a3b9 1ebd 2643 15bd 6ca8 cbbd
00000130: e819 ec3d d56f 82bd 10bb 763d fb6c 9dbd
00000140: ce4a 58bc f2bf 043b e9a0 bc3b 68ea 2abd
00000150: 2b17 9d3c 803a 7e3d 513a c43d 648b 1dbd
00000160: d3af f03b bba6 5ebd 4ae8 26bd 45ce 203d
00000170: bb30 a5bd 75b5 65bd 4f29 8abd f10b 10bd
00000180: ac88 29bc 8dfa 6dbd 11f3 f93b 04f8 463d
00000190: 058d ba3a 5257 243d 451b 923d 3972 bbbd
000001a0: a0df 843d 658f a1bc 106a b73d 1aa7 d1bd
000001b0: 4ed1 c53c 7865 943d 3b40 4fbd cd2c 7ebd
000001c0: 8ec8 60bd 5d6d b3bc bd38 d83d 6f11 1abd
000001d0: 9971 753d b1f1 403d 74e5 6ebd 9aca 123d
000001e0: 6179 abbc 7905 2c3d ccf2 c13c d873 8b3d
000001f0: 4d8b 1dbd 9a81 463d 400e 50bd 2a54 af3c

rnn.weight_ih f4 [384, 128]
-0.0371524 0.08202892 -0.019480096 -0.043807082 0.014199106 0.044113547 -0.021552086 -0.064977325
-0.08715937 0.08690013 0.035596788 0.016252669 0.09109992 -0.051326808 -0.028463626 0.030987078
-0.067863695 0.042979214 -0.023178373 -0.013386975 0.07658456 0.047928732 0.053329445 0.0595073
0.025985813 0.08680204 0.020023735 0.07179984 0.067949854 0.08074406 -0.06802175 0.0075938664
0.06302834 0.030062806 -0.03562951 0.008091536 0.09016163 -0.08818264 0.04920626 -0.038870517
0.03691191 0.051642083 0.073041305 -0.08161059 -0.08437379 -0.05836678 0.0812624 0.027468074
-0.02051797 -0.09757085 -0.040801022 0.0760642 -0.09066249 0.054035705 -0.08357243 -0.054724738
0.013775496 -0.082614355 0.05522279 0.0029636354 -0.027395295 0.07219407 0.081583925 -0.0075878487
0.082731634 0.045477197 -0.023660712 0.0059961644 -0.03584828 -0.04661252 0.0740679 0.048866794
0.046531744 0.05154847 0.063658476 0.017504632 0.009156013 -0.006813972 -0.080103025 -0.06806428
0.0043881084 -0.012186429 -0.03448783 -0.03945508 -0.064600274 0.040644474 0.074779 -0.007818078
-0.071704514 -0.032075066 0.06823323 -0.054604553 -0.04871718 -0.05241762 0.019051544 -0.002779634
0.01898145 -0.033157315 0.05723401 -0.026851421 0.025882712 0.07545681 0.05607066 0.008565024
0.09169182 -0.058568496 -0.08974502 -0.02831989 0.027651511 0.025187964 -0.008463134 -0.0018116006
-0.022403745 -0.022856155 0.0665953 -0.026410079 0.056018777 0.085384294 -0.02747661 -0.042375762
-0.08551007 0.057745554 -0.078104615 0.04412085 -0.062088072 -0.07791969 -0.06733798 -0.07340666
0.010828965 0.06753642 0.025363125 0.047157962 0.06677424 0.046123933 -0.0101321135 -0.058692805
0.009747719 -0.101619214 -0.058775287 0.05567992 0.04780381 0.051106274 -0.099403955 0.07391178
-0.06842244 0.031075837 -0.048634212 -0.06327328 -0.080283515 -0.013599088 -0.056641627 0.03075106
-0.06357515 0.012157526 -0.051474072 0.037255917 0.023348032 -0.03269254 0.058433063 0.04356056
0.06563746 -0.052661054 -0.025063913 -0.048230454 0.060063887 0.005682908 0.06010389 -0.09350574
-0.008284042 0.039689224 -0.095031984 0.06120156 -0.025621237 0.057889972 0.033029687 0.0470684
0.01751373 -0.010087028 -0.051159102 0.020826329 0.07855815 0.07124055 -0.027118172 0.070066795
-0.017459767 0.044193294 -0.0399456 -0.060955014 -0.033653017 -0.02565092 -0.008032058 -0.0923401
-0.040171854 0.00737614 0.050610553 -0.022789825 0.06316189 0.0036055248 0.02811355 0.033571392
-0.06791953 0.0022883608 0.06337815 -0.019091608 0.020490918 -0.06063436 0.08492927 0.006499392
0.02272046 -0.028798228 0.015354672 0.016938115 0.0320978 -0.0018723202 -0.08402394 0.07348301
-0.019604396 -0.04866769 0.04999587 -0.032938328 0.0005141595 -0.014822344 0.039731055 -0.039088313
-0.09439177 -0.08918926 0.04514944 -0.00968449 -0.0138273975 -0.014462952 -0.013889213 0.038791627
0.07471095 0.018384764 -0.066415116 -0.07802884 -0.061262134 0.0682634 -0.0017845195 0.031502843
-0.040829383 -0.032384656 -0.022610812 0.01661275 -0.0409402 0.07526078 -0.011753192 0.07048047
0.045085452 0.008395508 -0.0652757 -0.035977997 0.04312606 0.042586148 -0.022676833 -0.049086723
00000000: 1d2d 18bd c7fe a73d b994 9fbc 0e6f 33bd
00000010: 5ea3 683c 68b0 343d 008e b0bc d512 85bd
00000020: 9d80 b2bd b2f8 b13d f0cd 113d 5124 853c
00000030: 9892 ba3d 0f3c 52bd 8d2c e9bc 9dd8 fd3c
00000040: 1ffc 8abd f90a 303d 92e0 bdbc 0b55 5bbc
00000050: 5ed8 9c3d eb50 443d fa6f 5a3d edbd 733d
00000060: 33e0 d43c 45c5 b13d d108 a43c cb0b 933d
00000070: 4b29 8b3d 245d a53d fd4e 8bbd f8d5 f83b
00000080: 0115 813d 4646 f63c 40f0 11bd 5d92 043c
00000090: a9a6 b83d 1a99 b4bd 818c 493d b136 1fbd
000000a0: f130 173d a686 533d ae96 953d 7423 a7bd
000000b0: 2acc acbd 0112 6fbd e76c a63d ba04 e13c
000000c0: 4d15 a8bc 3ad3 c7bd f91e 27bd 8cc7 9b3d
000000d0: 41ad b9bd 8b54 5d3d 0628 abbd 0c27 60bd
000000e0: 9eb2 613c b731 a9bd 4b31 623d 8d39 423b
000000f0: 196c e0bc 7cda 933d 7915 a73d 7da3 f8bb
00000100: 346f a93d 4c46 3a3d 1cd4 c1bc 797b c43b
00000110: a5d5 12bd c5ec 3ebd e9b0 973d 8c28 483d
00000120: 1298 3e3d 7d24 533d 605f 823d e065 8f3c
00000130: 1a03 163c bd47 dfbb 0e0d a4bd 4965 8bbd
00000140: 1fca 8f3b 97a9 47bc 1c43 0dbd a69b 21bd
00000150: 264d 84bd d27a 263d bb25 993d 6517 00bc
00000160: d1d9 92bd 2561 03bd ddbd 8b3d 06a9 5fbd
00000170: aa8b 47bd dcb3 56bd fc11 9c3c 852a 36bb
00000180: fc7e 9b3c f7cf 07bd 366e 6a3d 83f7 dbbc
00000190: fb07 d43c 1a89 9a3d 59aa 653d 5054 0c3c
000001a0: ecc8 bb3d 85e5 6fbd 3dcc b7bd 1dff e7bc
000001b0: 6c85 e23c fd56 ce3c f5a8 0abc 3b73 edba
000001c0: 0f88 b7bc d53c bbbc 1e63 883d f359 d8bc
000001d0: f273 653d f6dd ae3d a116 e1bc 3592 2dbd
000001e0: e71f afbd 9a86 6c3d 50f5 9fbd 10b8 343d
000001f0: 1050 7ebd 5c94 9fbd 7fe8 89bd 3b56 96bd
00000200: f96b 313c 8950 8a3d 54c6 cf3c b528 413d
00000210: efc0 883d 73ec 3c3d 2a01 26bc de67 70bd
00000220: e6b4 1f3c bc1d d0bd 5bbe 70bd a110 643d
00000230: eecd 433d d054 513d 4d94 cbbd 0f5f 973d
00000240: 1021 8cbd c192 fe3c ab34 47bd 6c95 81bd
00000250: af6b a4bd b6ce 5ebc 0d01 68bd a6e9 fb3c
00000260: b033 82bd 5c30 473c 7ad6 52bd a999 183d
00000270: 5f44 bf3c 9de8 05bd 8257 6f3d 8f6c 323d
00000280: ef6c 863d 1eb3 57bd d652 cdbc 4c8d 45bd
00000290: 8d05 763d b037 ba3b 7f2f 763d f07f bfbd
000002a0: cab9 07bc 2b91 223d 21a0 c2bd 7dae 7a3d
000002b0: a1e3 d1bc 091e 6d3d 234a 073d cbca 403d
000002c0: f478 8f3c 1044 25bc 358c 51bd fa9b aa3c
000002d0: 18e3 a03d 91e6 913d ee26 debc 2e7f 8f3d
000002e0: c907 8fbc 0704 353d ff9d 23bd f7ab 79bd
000002f0: bfd7 09bd e121 d2bc e598 03bc ce1c bdbd
00000300: 3e8b 24bd 8cb3 f13b 034d 4f3d bab1 babc
00000310: 055b 813d ab4a 6c3b 634e e63c 2882 093d
00000320: 6519 8bbd 53f8 153b 67cc 813d 0166 9cbc
00000330: 92dc a73c bc5b 78bd 66ef ad3d daf8 d43b
00000340: 4220 ba3c 43ea ebbc 2a92 7b3c cdc1 8a3c
00000350: fc78 033d a468 f5ba be14 acbd 437e 963d
00000360: 6699 a0bc c657 47bd 78c8 4c3d 57ea 06bd
00000370: a9c8 063a 6bd9 72bc 08bd 223d 111b 20bd
00000380: 7950 c1bd dca8 b6bd 9fee 383d b2ab 1ebc
00000390: 4f8c 62bc 04f6 6cbc 958f 63bc f8e3 1e3d
000003a0: 0e02 993d a59b 963c a604 88bd 96cd 9fbd
000003b0: 01ee 7abd aecd 8b3d 8ae6 e9ba 2009 013d
000003c0: b63c 27bd c6a5 04bd 4f3a b9bc 7617 883c
000003d0: e9b0 27bd 5322 9a3d 7690 40bc 1158 903d
000003e0: 86ab 383d 508d 093c 44af 85bd aa5d 13bd
000003f0: f4a4 303d d06e 2e3d c4c4 b9bc 290f 49bd

rnn.weight_hh f4 [384, 128]
0.037594132 0.05277348 0.005740762 0.073172554 -0.06001006 0.06634616 -0.02883687 0.053129368
0.03545799 -0.022793582 0.02507712 -0.008761679 -0.022780275 -0.07429264 0.019040283 -0.047032703
-0.014405845 -0.06343654 0.034532323 -0.089207426 -0.03971925 0.092409156 -0.05173326 0.093450144
0.032692544 -0.045652114 -0.039306026 0.029037133 0.02123864 -0.057452843 -0.08257707 0.042611793
0.033499967 0.018612709 -0.074792705 0.07538762 0.055549614 -0.0081729125 0.049014382 -0.031358436
0.07814434 0.04314346 0.088181145 0.047656387 -0.05633834 0.07522304 0.06632435 0.050502736
-0.0016149122 0.05296886 -0.02585381 0.0108385105 -0.07085285 -0.044158235 0.020813612 -0.076420814
-0.015436416 0.011641452 -0.07977858 0.078541964 0.033379715 0.016286096 -0.01539598 0.022673544
-0.024579247 0.0439099 -0.02040618 -0.05012701 -0.08499482 -3.6279093e-06 0.09065861 0.053644665
0.04207751 -0.027653838 0.042475507 0.050311938 -0.026178328 0.0959753 0.08066974 0.071879
0.07877435 0.006604802 0.089663394 0.005275668 -0.056031976 -0.086927384 0.049278524 0.06627835
0.05162516 0.0305918 0.054448538 0.060217638 -0.049157884 -0.007039516 -0.07392735 -0.004142285
0.052715573 0.026203046 -0.013936629 0.084447734 0.08737666 0.07999743 -0.015336215 -0.028457478
-0.0690687 0.03503687 -0.071256645 -0.07450418 -0.06812879 0.023569249 -0.004086623 0.019129971
0.0752284 -0.025053209 0.037065946 -0.06893851 -0.05101976 0.0570962 -0.055770095 0.053639676
0.024748372 0.030814376 0.02303755 -0.06388927 0.012390339 0.060746163 0.05568892 -0.09153249
-0.02557039 0.0008070854 0.010368073 -0.074131675 0.030085457 -0.01659115 0.01498846 0.07628906
-0.07408887 0.04880294 0.078072935 -0.030080926 -0.02186124 0.08124506 0.08404399 -0.071607165
0.032057572 -0.04475642 0.0121771665 -0.075225964 0.05038193 -0.07055815 -0.051136356 0.0071277595
0.0166336 -0.060013156 -0.077708535 0.03814542 0.047520977 -0.009485148 -0.06714181 -0.025831077
0.07135265 -0.03144855 -0.036387593 0.04486272 -0.018795313 0.02694889 -0.012688083 -0.058089245
0.003345169 0.01125305 -0.059269868 -0.039378114 -0.052423257 -0.04002988 0.02856351 0.060246978
-0.047635764 -0.019233342 -0.0022404676 0.07650525 -0.01950891 0.0065125832 0.015111453 0.01894725
-0.05043235 -0.011965813 0.009360268 -0.05190042 -0.03313243 -0.028858917 0.00474224 -0.078439526
0.015939604 0.025418833 -0.057992253 0.0054490147 -0.086021915 -0.05982801 0.0690445 0.03629584
0.06635529 0.07312999 0.018000353 -0.025115803 0.010664615 -0.02930785 0.019384617 0.0803994
0.008516083 -0.008219338 0.015011686 0.07503068 0.079280876 0.055494413 -0.03138762 0.037552074
-0.082650565 0.041496553 -0.0027331305 -0.043157794 0.02619203 -0.07961471 0.05578023 -0.026267039
0.0058411984 -0.07411941 0.013511674 0.038844097 -0.010305531 -0.07152174 -0.053977374 -0.052413072
-0.030665958 -0.028449891 -0.054034855 0.009360672 -0.033212777 -0.0479924 0.017204896 -0.044965677
-0.09698406 -0.01080219 -0.07529561 0.024446916 0.07358123 -0.07971193 -0.0054216892 0.020027226
0.033716086 -0.06340504 -0.0726953 0.041882236 -0.012409388 0.0467318 -0.023388807 0.063114025
00000000: 4efc 193d 0129 583d 011d bc3b 7edb 953d
00000010: 1ccd 75bd 7fe0 873d 4d3b ecbc 2e9e 593d
00000020: 663c 113d 9bb9 babc 886e cd3c 258d 0fbc
00000030: b39d babc bd26 98bd 5efa 9b3c 5da5 40bd
00000040: 7e06 6cbc 04eb 81bd c471 0d3d 62b2 b6bd
00000050: a7b0 22bd 0341 bd3d 41e6 53bd ca62 bf3d
00000060: 9ee8 053d b6fd 3abd 5bff 20bd 48df ed3c
00000070: a8fc ad3c ac53 6bbd 2b1e a9bd b489 2e3d
00000080: 4337 093d ae79 983c eb2c 99bd d364 9a3d
00000090: fe87 633d aee7 05bc 4ec3 483d b471 00bd
000000a0: 240a a03d 32b7 303d 5198 b43d 5833 433d
000000b0: 08c3 66bd 8a0e 9a3d 10d5 873d f5db 4e3d
000000c0: 76ab d3ba e0f5 583d 5fcb d3bc 0294 313c
000000d0: 4d1b 91bd 44df 34bd 4f81 aa3c 8482 9cbd
000000e0: 05e9 7cbc cabb 3e3c f462 a3bd 9cda a03d
000000f0: 2bb9 083d 6b6a 853c 6c3f 7cbc debd b93c
00000100: 6b5a c9bc deda 333d dc2a a7bc fb51 4dbd
00000110: c411 aebd 0277 73b6 39ab b93d 82ba 5b3d
00000120: 7859 2c3d 4d8a e2bc ccfa 2d3d e413 4e3d
00000130: ef73 d6bc b38e c43d 2d36 a53d 4c35 933d
00000140: 7254 a13d 186d d83b 71a1 b73d 83df ac3b
00000150: c981 65bd fc06 b2bd 47d8 493d f2bc 873d
00000160: e774 533d a89b fa3c 6e05 5f3d c5a6 763d
00000170: c759 49bd bdab e6bb 3967 97bd 01bc 87bb
00000180: 49ec 573d c5a7 d63c 7556 64bc eff2 ac3d
00000190: 89f2 b23d b1d5 a33d bf44 7bbc a81f e9bc
000001a0: e473 8dbd d282 0f3d 01ef 91bd a695 98bd
000001b0: 1b87 8bbd 4c14 c13c 14e9 85bb 75b6 9c3c
000001c0: 5911 9a3d 633c cdbc 76d2 173d a22f 8dbd
000001d0: 19fa 50bd b4dd 693d 2f6f 64bd 47b5 5b3d
000001e0: 19bd ca3c 6e6e fc3c 3eb9 bc3c 61d8 82bd
000001f0: d900 4b3c f8d0 783d 111a 643d 6375 bbbd
00000200: ff78 d1bc 9692 533a dade 293c 59d2 97bd
00000210: c775 f63c 2aea 87bc 2892 753c 703d 9c3d
00000220: e8bb 97bd 97e5 473d b4e4 9f3d 466c f6bc
00000230: 5816 b3bc cf63 a63d 411f ac3d c7a6 92bd
00000240: cd4e 033d 8252 37bd bd82 473c 1210 9abd
00000250: 485d 4e3d cb80 90bd 5b74 51bd fb8f e93b
00000260: 3043 883c 5bd0 75bd a725 9fbd 5f3e 1c3d
00000270: 5ba5 423d 9867 1bbc a581 89bd b29b d3bc
00000280: 5721 923d 32d0 00bd 280b 15bd f9c1 373d
00000290: a1f8 99bc ebc3 dc3c ade1 4fbc fdee 6dbd
000002a0: 9f3a 5b3b b65e 383c f6c4 72bd f24a 21bd
000002b0: c5b9 56bd 5ff6 23bd 06fe e93c 89c5 763d
000002c0: b81d 43bd 3e8f 9dbc cfd4 12bb c9ae 9c3d
000002d0: 26d1 9fbc 8267 d53b 0796 773c 4337 9b3c
000002e0: 2792 4ebd 420c 44bc cf5b 193c 8995 54bd
000002f0: dfb5 07bd 8969 ecbc cb64 9b3b e7a4 a0bd
00000300: c693 823c 283b d03c 4989 6dbd a68d b23b
00000310: 422c b0bd 370e 75bd 3467 8d3d f2aa 143d
00000320: 48e5 873d 2dc5 953d 7a75 933c a8bf cdbc
00000330: a3ba 2e3c 0417 f0bc 7dcc 9e3c 71a8 a43d
00000340: 0a87 0b3c 67aa 06bc 93f3 753c afa9 993d
00000350: 035e a23d 1c4e 633d 4e90 00bd 34d0 193d
00000360: b344 a9bd 4af8 293d 521e 33bb 3ac6 30bd
00000370: ab90 d63c 090d a3bd cf79 643d f92d d7bc
00000380: 8667 bf3b ebcb 97bd 1160 5d3c fd1a 1f3d
00000390: 88d8 28bc fd79 92bd 6117 5dbd 17af 56bd
000003a0: 2d37 fbbc bf0f e9bc a753 5dbd 815d 193c
000003b0: 1f0a 08bd ae93 44bd 48f1 8c3c ee2d 38bd
000003c0: 949f c6bd abfb 30bc 9634 9abd e644 c83c
000003d0: c2b1 963d 0240 a3bd 6da8 b1bb 2310 a43c
000003e0: e119 0a3d 80da 81bd 46e1 94bd b58c 2b3d
000003f0: bf50 4bbc d869 3f3d e299 bfbc ed41 813d

rnn.bias_ih f4 [384]
0.031012608 -0.01803227 0.09621053 -0.061959907 0.023071514 -0.08867632 -0.06150054 -0.05683747
-0.059942987 0.004285333 -0.068477266 -0.05104627 0.0244887 0.04392565 -0.049560953 0.031019386
0.0496779 0.014658759 -0.034206387 0.046695024 -0.0918253 -0.07082681 0.022829257 0.029100524
-0.048475046 -0.077142574 0.013615987 0.07922025 0.0551385 0.09655122 0.052723512 0.06424583
-0.06582607 -0.06478675 -0.07467403 0.04736966 0.04210752 0.068948776 -0.06442348 0.009651994
-0.037657246 -0.07221247 -0.014238756 -0.06488427 0.053347282 0.020143736 -0.022687402 0.098370455
0.07009045 0.05696394 -0.02106023 0.08917287 0.053699333 -0.050796807 0.03208055 0.029073903
0.022705507 0.07654199 0.06380355 -0.007513582 -0.074321456 0.05378 0.06052296 -0.018070089
0.024020286 0.019384166 -0.0055305995 -0.023110768 -0.05093441 0.016648773 0.08194431 -0.033003587
0.041368563 0.023002546 0.041251797 0.021128882 0.09404448 0.034403365 0.028308593 -0.03534177
0.0839263 -0.05663176 0.0542828 -0.03103284 -0.092884354 0.0565049 0.059124857 0.023312788
-0.021699412 0.004222146 -0.042364188 -0.008098946 0.0938061 -0.0758075 -0.039679337 -0.03555648
-0.02613232 -0.019906528 -0.07539225 0.07188982 -0.025764726 -0.0039173653 0.022441177 0.0053672455
-0.063769996 0.1043772 0.060458004 -0.09393682 0.061490614 0.0022502712 0.016683068 0.03290053
-0.028314214 0.005589966 -0.035439093 -0.08511603 -0.015531209 -0.009867488 -0.057294384 0.046007358
0.066485144 -0.045899414 -0.046747267 0.07661225 -0.019686766 -0.076674476 -0.06697925 -0.04078286
0.10107833 0.014705182 -0.036691483 -0.04833721 0.012919271 -0.034346458 -0.08901993 0.079691455
-0.029457893 0.00036150013 -0.046697844 0.08587166 -0.05840676 -0.025375977 0.04876893 -0.07220146
-0.006722684 -0.07562972 -0.039911527 0.081894875 0.014275788 -0.080181114 -0.03376623 -0.055053473
0.05214398 -0.03250187 0.03567997 -0.075469054 -0.054042265 -0.068339765 0.024864547 0.0060111242
-0.07062358 0.023557268 0.02572039 -0.012600396 -0.09548448 0.0054540862 0.08993598 -0.02496812
0.08205401 -0.014554941 -0.01715004 0.048116848 0.025296252 -0.034351293 0.054560166 0.022273693
0.062322326 0.058665473 0.033790123 -0.05566442 -0.029857278 0.02650971 0.028937269 -0.061583962
-0.03474795 -0.009358148 0.057441693 -0.054657042 0.004439845 0.08992718 -0.075095594 -0.078174025
-0.023976427 0.035532873 -0.08861112 0.017122747 -0.082263425 0.085419506 -0.021979803 -0.020808816
-0.031775195 0.04835485 -0.011877505 -0.067782186 -0.03833104 -0.06261173 0.01129922 -0.07461464
0.03523947 0.049720198 -0.06555688 -0.04084417 -0.049075 0.060509704 0.081514075 0.09293034
-0.06407178 -0.05431843 0.020419063 -0.067764096 0.054341532 -0.076376125 0.07036662 -0.056498736
-0.07135745 0.051002823 0.014156249 0.033536457 0.04853234 -0.06374442 -0.045254625 0.009510679
0.03196051 0.07311241 -0.030360708 0.004093823 -0.050673053 0.025465235 0.016194656 0.062941894
-0.011617901 -0.050893042 0.083693795 0.084058866 -0.03123691 0.0412485 -0.054557182 -0.067683786
0.031527333 -0.051620487 -0.048838392 0.022304092 0.054203477 0.08966393 -0.01798039 -0.0806949
00000000: 270e fe3c 69b8 93bc 070a c53d acc9 7dbd
00000010: 7900 bd3c ee9b b5bd fde7 7bbd 68ce 68bd
00000020: c786 75bd fb6b 8c3b cf3d 8cbd e515 51bd
00000030: 879c c83c 62eb 333d 6d00 4bbd 5e1c fe3c
00000040: 0e7b 4b3d 4b2b 703c ff1b 0cbd 4843 3f3d
00000050: e70e bcbd a60d 91bd 6c04 bb3c 3964 ee3c
00000060: c58d 46bd edfc 9dbd 9715 5f3c 3a3e a23d
00000070: e8d8 613d a5bc c53d 9cf4 573d 5193 833d
00000080: d2cf 86bd eaae 84bd b3ee 98bd b006 423d
00000090: ef78 2c3d 0435 8d3d 75f0 83bd 6623 1e3c
000000a0: 7c3e 1abd 22e4 93bd ac49 69bc 0be2 84bd
000000b0: ae82 5a3d 7a04 a53c eeda b9bc 7376 c93d
000000c0: 958b 8f3d 0553 693d 8186 acbc 44a0 b63d
000000d0: d5f3 5b3d 5010 50bd e566 033d 652c ee3c
000000e0: e600 ba3c 0cc2 9c3d 70ab 823d 7e34 f6bb
000000f0: d935 98bd 6b48 5c3d ece6 773d b907 94bc
00000100: 31c6 c43c 8bcb 9e3c 083a b5bb cb52 bdbc
00000110: 9aa0 50bd 0263 883c 6bd2 a73d c52e 07bd
00000120: 1572 293d d66f bc3c a5f7 283d 7a16 ad3c
00000130: 649a c03d 8bea 0c3d 6ce7 e73c 88c2 10bd
00000140: 8de1 ab3d b4f6 67bd a457 5e3d 9538 febc
00000150: 273a bebd af71 673d e82c 723d 76fa be3c
00000160: f7c2 b1bc ed59 8a3b 1286 2dbd 71b1 04bc
00000170: 6a1d c03d f640 9bbd cd86 22bd aca3 11bd
00000180: 7213 d6bc 0413 a3bc 4167 9abd f83a 933d
00000190: 8c10 d3bc 3e5d 80bb 8fd6 b73c b8df af3b
000001a0: d899 82bd b7c3 d53d d0a2 773d f361 c0bd
000001b0: 95dd 7b3d 4979 133b eeaa 883c b5c2 063d
000001c0: 36f3 e7bc 092c b73b 9528 11bd 5051 aebd
000001d0: 9d76 7ebc 3fab 21bc 84ad 6abd 3672 3c3d
000001e0: 5d29 883d 0601 3cbd 107a 3fbd e2e6 9c3d
000001f0: 2446 a1bc 8207 9dbd 6b2c 89bd ee0b 27bd
00000200: 2802 cf3d 01ee 703c cf49 16bd 3dfd 45bd
00000210: 5aab 533c dfae 0cbd 1550 b6bd 4635 a33d
00000220: ae51 f1bc ba87 bd39 3d46 3fbd 7bdd af3d
00000230: ed3b 6fbd 48e1 cfbc eec1 473d 5cde 93bd
00000240: f649 dcbb c1e3 9abd 457a 23bd 80b8 a73d
00000250: ffe4 693c ff35 a4bd 754e 0abd c07f 61bd
00000260: ed94 553d ae20 05bd 2925 123d 858f 9abd
00000270: 6c5b 5dbd b8f5 8bbd bcb0 cb3c f7f8 c43b
00000280: 18a3 90bd 2cfb c03c 91b3 d23c e471 4ebc
00000290: 5e8d c3bd 31b8 b23b 5b30 b83d f189 ccbc
000002a0: ef0b a83d d977 6ebc 3e7e 8cbc 2c16 453d
000002b0: 163a cf3c f1b3 0cbd 7b7a 5f3d 5277 b63c
000002c0: b245 7f3d 354b 703d 8367 0a3d 6000 64bd
000002d0: 4097 f4bc e42a d93c da0d ed3c 773f 7cbd
000002e0: de53 0ebd eb52 19bc fb47 6b3d 10e0 5fbd
000002f0: 1f7c 913b be2b b83d b8cb 99bd b419 a0bd
00000300: 366a c4bc eb8a 113d bf79 b5bd 0145 8c3c
00000310: ba79 a8bd 6cf0 ae3d fd0e b4bc 4077 aabc
00000320: b526 02bd bc0f 463d de99 42bc 63d1 8abd
00000330: 0201 1dbd 943a 80bd 5d20 393c 8fcf 98bd
00000340: 4357 103d 68a7 4b3d af42 86bd 374c 27bd
00000350: de02 49bd 06d9 773d daf0 a63d 4352 be3d
00000360: 1138 83bd 017d 5ebd e145 a73c e7c7 8abd
00000370: 3a95 5e3d 166b 9cbd 601c 903d 386b 67bd
00000380: db23 92bd 56e8 503d 9def 673c 865d 093d
00000390: d9c9 463d 6f8c 82bd ea5c 39bd aed2 1b3c
000003a0: 06e9 023d f6bb 953d 05b7 f8bc 7a25 863b
000003b0: 8c8e 4fbd 789c d03c a8aa 843c aee7 803d
000003c0: 0259 3ebc 3975 50bd a767 ab3d 0e27 ac3d
000003d0: 8ce4 ffbc 30f4 283d 5a77 5fbd cc9d 8abd
000003e0: ce22 013d 0170 53bd c40a 48bd 12b7 b63c
000003f0: 7704 5e3d b9a1 b73d 9c4b 93bc 5e43 a5bd

rnn.bias_hh f4 [384]
0.052361157 -0.00922014 -0.06983271 -0.03590669 -0.00018849553 0.07283508 -0.036744222 -0.054600842
-0.0232877 -0.058136873 -0.0073216604 -0.020652488 -0.0047645764 -0.0074296403 -0.0032992377 0.056490775
0.010396366 -0.068719596 -0.036478404 0.02257983 -0.08015934 -0.002715415 -0.010476367 0.0502904
-0.065088354 0.03394097 0.059580263 0.07044366 0.112936884 -0.062081214 -0.053598844 -0.036345918
0.013812344 0.01737478 0.08023532 0.06434193 -0.0005196777 0.080256104 0.05730372 -0.07452545
-0.050626334 -0.03305108 0.09359101 -0.06738187 0.00050533854 -0.045029465 -0.0035888595 0.044592172
0.053557422 -0.033692203 0.018809162 0.0071119973 -0.022536647 0.07392526 0.070425026 0.03064318
0.08696748 0.071459666 0.040999178 -0.08172836 0.084620126 0.05567661 0.024140175 0.051712707
0.049647618 0.052799262 -0.05409828 0.021177925 0.08587297 -0.047749806 -0.007165749 0.08600791
-0.00072218565 -0.08813459 -0.020160798 0.03453428 -0.019561945 -0.017827656 -0.053378336 0.07141018
-0.01822068 0.0041661165 0.055474583 -0.06219141 -0.068369895 -0.06326272 -0.067715995 0.029656714
0.047312748 0.013398905 -0.0722081 -0.008843849 0.08888064 -0.05678124 -0.07111014 -0.02481961
-0.014591187 0.008965775 0.072574064 0.035556935 0.035539195 0.08186054 0.07272751 -0.0050195497
-0.081721626 -0.04591201 -0.037186462 -0.050449234 0.005223597 -0.045139793 0.04397804 0.059007537
-0.069914654 0.02254518 0.03855647 -0.07656762 0.079607524 -0.07218353 0.048587568 0.026477419
0.027148357 -0.035608258 0.057344563 -0.026740352 -0.037208695 0.024238618 0.10409646 -0.08855835
-0.059724715 -0.041471347 0.0031998057 0.0039499565 0.06872316 0.070854366 -0.018933345 0.083549924
0.08059996 -0.08203205 -0.015341514 0.08968557 -0.06270694 0.053369086 0.038880423 -0.044911467
0.056217197 0.005149492 -0.04944628 0.052515373 -0.016113546 -0.01814151 0.05909371 0.013050119
-0.07530651 -0.047351476 0.08862792 0.093272924 -0.07610557 0.06570464 -0.078673504 0.033350054
-0.021880815 -0.0073579517 -0.042295877 0.010901118 0.07666448 -0.0423418 0.08930813 -0.010204435
0.06694531 0.027328184 -0.059769303 0.040666282 -0.070413716 0.048197504 0.10033081 -0.08047087
-0.018848248 0.045640126 -0.06589808 -0.042434335 -0.0330334 0.08804717 -0.019901475 -0.05091233
-0.007391239 0.07987115 0.05703051 -0.023037395 6.419132e-05 0.07188091 -0.029784363 0.08655909
-0.06688147 0.046227984 0.0835582 -0.005599752 0.078138515 -0.047797 0.036373872 0.014153675
-0.01560115 -0.008407591 -0.062029127 0.012587317 0.060319517 -0.031543374 0.058835294 -0.073669784
-0.055489164 0.014524111 0.04398293 0.09948536 0.065607466 0.044342738 0.007279952 -0.058291305
-0.03967413 0.008454337 -0.06763402 0.06593479 -0.028656201 0.030284248 0.036931984 -0.055079117
0.059513997 -0.07754752 0.054604538 0.011591116 0.043338966 0.027803008 -0.03792163 -0.089445725
0.043833446 0.040644374 0.05023603 -0.053583097 0.092105575 -0.03789625 -0.082727514 -0.073571056
0.018891944 -0.019113727 0.071240544 0.08732768 0.024471488 0.010501552 -0.011856938 -0.06791196
-0.033127677 -0.03418345 -0.061533455 -0.05640285 0.089390926 -0.014712383 -0.06551971 -0.059331123
00000000: a778 563d 1210 17bc 7404 8fbd e512 13bd
00000010: e2a6 45b9 8f2a 953d 1c81 16bd 22a5 5fbd
00000020: d9c5 bebc ee20 6ebd 8aea efbb 682f a9bc
00000030: 2a20 9cbb 5774 f3bb 0638 58bb df62 673d
00000040: 8555 2a3c dcbc 8cbd 616a 15bd 56f9 b83c
00000050: 942a a4bd 1bf5 31bb 11a5 2bbc 4efd 4d3d
00000060: 0b4d 85bd b005 0b3d 6f0a 743d c444 903d
00000070: 744b e73d df48 7ebd 768a 5bbd 75df 14bd
00000080: 2b4d 623c 8e55 8e3c 6a52 a43d b4c5 833d
00000090: fb3a 08ba 505d a43d 4eb7 6a3d cda0 98bd
000000a0: 8f5d 4fbd 9260 07bd a5ac bf3d 81ff 89bd
000000b0: b278 043a d170 38bd 1233 6bbb 48a6 363d
000000c0: 075f 5b3d d600 0abd ac15 9a3c c20b e93b
000000d0: c69e b8bc 2066 973d ff3a 903d 6807 fb3c
000000e0: 021c b23d 7259 923d c1ee 273d 3361 a7bd
000000f0: 514d ad3d 280d 643d 9ec1 c53c b4d0 533d
00000100: 4d5b 4b3d 0a44 583d 2896 5dbd 547d ad3c
00000110: 2bde af3d 4d95 43bd a9ce eabb ea24 b03d
00000120: 0f51 3dba e87f b4bd 4228 a5bc d173 0d3d
00000130: 5f40 a0bc 4e0b 92bc 3ea3 5abd 803f 923d
00000140: 8943 95bc eb83 883b 5139 633d 6cbc 7ebd
00000150: 8405 8cbd e38f 81bd afae 8abd a3f2 f23c
00000160: 03cb 413d 1587 5b3c d7e1 93bd cbe5 10bc
00000170: 0e07 b63d 7293 68bd 31a2 91bd 7f52 cbbc
00000180: e00f 6fbc 30e5 123c b6a1 943d 26a4 113d
00000190: 8c91 113d 80a6 a73d 29f2 943d 097b a4bb
000001a0: ab5d a7bd 3b0e 3cbd d550 18bd dba3 4ebd
000001b0: b52a ab3b 81e4 38bd 5122 343d e3b1 713d
000001c0: 6a2f 8fbd abb0 b83c 64ed 1d3d 7ccf 9cbd
000001d0: 4509 a33d f5d4 93bd c203 473d 2ce7 d83c
000001e0: 3b66 de3c f7d9 11bd 22e2 6a3d 950e dbbc
000001f0: 2568 18bd 1190 c63c 8630 d53d 155e b5bd
00000200: e7a1 74bd dcdd 29bd d5b3 513b a36e 813b
00000210: babe 8c3d 181c 913d 1a1a 9bbc 391c ab3d
00000220: 9811 a53d 6b00 a8bd f95a 7bbc 11ad b73d
00000230: 7f6c 80bd 8b99 5a3d 1441 1f3d 16f5 37bd
00000240: 0144 663d 12bd a83b 2f88 4abd 5c1a 573d
00000250: 8e00 84bc 819d 94bc 3f0c 723d 2bd0 553c
00000260: 4d3a 9abd 9ff3 41bd 8e82 b53d e005 bf3d
00000270: 3ddd 9bbd 2790 863d 931f a1bd 119a 083d
00000280: 653f b3bc f91a f1bb 713e 2dbd 9a9a 323c
00000290: 4402 9d3d 986e 2dbd 2ee7 b63d 8130 27bc
000002a0: 9f1a 893d 5bdf df3c a8d0 74bd b091 263d
000002b0: 1135 90bd bf6a 453d 3d7a cd3d e9cd a4bd
000002c0: a467 9abc 24f1 3a3d 93f5 86bd a0cf 2dbd
000002d0: 084e 07bd 1352 b43d 6b08 a3bc 7389 50bd
000002e0: 3532 f2bb 7c93 a33d d398 693d ebb8 bcbc
000002f0: 749e 8638 4c36 933d 56fe f3bc e445 b13d
00000300: 27f9 88bd 8e59 3d3d 9020 ab3d 207e b7bb
00000310: 1607 a03d c9c6 43bd c5fc 143d d1e4 673c
00000320: f79b 7fbc febf 09bc 4112 7ebd 093b 4e3c
00000330: 9911 773d a033 01bd 47fd 703d 2fe0 96bd
00000340: 9b48 63bd 89f6 6d3c 7227 343d fbbe cb3d
00000350: 355d 863d bba0 353d aa8c ee3b ddc2 6ebd
00000360: 5781 22bd 0f84 0a3c b483 8abd d208 873d
00000370: 69c0 eabc ac16 f83c fe45 173d a49a 61bd
00000380: f3c4 733d 3cd1 9ebd 02a9 5f3d aae8 3d3c
00000390: 3384 313d 22c3 e33c b653 1bbd 522f b7bd
000003a0: b38a 333d b77a 263d 4cc4 4d3d f379 5bbd
000003b0: d9a1 bc3d 1939 1bbd 0b6d a9bd 6cac 96bd
000003c0: 47c3 9a3c 6494 9cbc 90e6 913d dbd8 b23d
000003d0: 6e78 c83c b40e 2c3c 9a43 42bc 6d15 8bbd
000003e0: e3b0 07bd f203 0cbd 810a 7cbd ad06 67bd
000003f0: 9712 b73d 350c 71bc 332f 86bd 3105 73bd

fc2.weight f4 [19, 128]
-0.0017003119 0.09288824 0.0013153942 0.08137063 0.016275529 0.07289068 -0.01737237 -0.06257366
-0.027805414 -0.058956962 -0.054829247 0.03580934 -0.09156131 -0.054137263 -0.12118526 -0.03981998
-0.024112083 0.049607377 -0.06996282 0.05678877 0.028755339 0.007604705 -0.053127833 -0.034190584
-0.061843134 0.037779134 0.047799584 0.010506732 0.011365438 -0.043283034 0.047269084 0.053575248
-0.053947307 -0.014250641 0.089841135 0.05478394 -0.049223565 -0.017177504 0.023999838 -0.027751952
0.022572948 -0.018361097 -0.007929131 0.0039698794 0.03826909 0.034084927 -0.0574371 -0.08232241
-0.029012049 -0.0043992633 -0.042543363 -0.021876283 0.035815395 0.038871955 -0.044554617 -0.016708901
-0.011898786 -0.025326755 -0.08528558 0.040448666 0.038267355 0.030505488 0.026027841 0.0378238
0.092595406 0.04088433 -0.018856954 0.08905533 -0.05123323 -0.024261042 0.02803379 -0.0511056
0.069550015 -0.061641417 0.07552174 -0.041917253 0.07319055 0.007247302 -0.08065582 0.031271063
0.03145806 -0.03277953 -0.023507822 0.02584739 0.0066396063 -0.04836625 -0.05183642 0.082133375
0.09721434 -0.017413348 0.025267579 0.031931933 -0.092823386 -0.016422976 -0.011422464 0.051604755
-0.040395476 0.033442907 -0.038486816 0.08956261 -0.043517314 0.03384814 0.02158458 -0.014383284
-0.07792287 0.0032811612 0.010905977 -0.004340476 -0.011921474 -0.06652492 0.0519412 0.023242528
0.051226422 0.060114644 0.08651095 -0.015196922 -0.07017092 0.016648246 -0.010728717 0.035363786
-0.0083878 -0.054885194 0.10780431 -0.08233282 0.058157627 0.04141143 -0.10413968 -0.006623038
-0.07168591 -0.05538719 0.017783796 0.039687373 -0.0420393 -0.08448543 0.026052753 0.014607267
0.044202577 -0.06410515 -0.043366488 0.074372634 0.013142643 0.021915494 0.035472587 -0.0116507085
-0.037032362 0.011999612 -0.069244824 0.0030270854 -0.08341548 0.05509465 0.023748763 0.07482293
-0.07021722 -0.09293272 -0.099052936 -0.015749594 0.028654581 -0.022788541 -0.06113829 -0.06330822
0.089833 -0.10200976 0.08205645 -0.026817234 -0.009817808 0.116699606 0.05428313 -0.0040814434
0.01832821 -0.0117246825 -0.0216791 -0.004288311 0.01809898 0.059967693 0.034511305 -0.045051847
0.047587495 0.08454571 0.09018117 0.07620819 0.0117866695 0.07100963 0.059056405 0.009674722
0.044771973 -0.07686777 0.03690432 -0.044402547 -0.01570189 0.03350691 0.031700145 0.026710967
0.05362466 0.09150675 -0.0066033285 -0.0063453834 -0.026549973 0.07064198 0.08599367 -0.04157861
0.07308131 -0.04329508 -0.06037666 0.041706264 0.049319193 0.0330272 0.052541245 -0.03969944
0.02879352 -0.030453762 0.08493442 0.043258335 0.06033885 0.050224748 0.05267996 -0.053503215
0.026872044 0.047972757 0.027902523 -0.086798236 0.04916974 0.057307515 0.01019195 -0.03707133
-0.045361243 0.0612614 -0.10150853 -0.022445409 -0.04914106 -0.02535928 0.034683604 0.017444074
0.08624749 0.061905526 -0.08892651 0.037754547 -0.080508426 0.026830006 0.06121264 -0.061450947
-0.07441598 0.031849578 0.028138256 -0.007655521 -0.06328063 0.075197265 -0.04550707 -0.044981096
-0.037736066 0.041684978 -0.020742083 0.047347322 0.091673225 -0.059311554 -0.005690158 0.053636473
00000000: 00dd deba 313c be3d 4e69 ac3a a5a5 a63d
00000010: 4254 853c b547 953d 8050 8ebc 9e26 80bd
00000020: 2ec8 e3bc db7c 71bd a294 60bd d1ac 123d
00000030: 7f84 bbbd 09bf 5dbd fa2f f8bd 461a 23bd
00000040: b486 c5bc 1b31 4b3d ab48 8fbd 579b 683d
00000050: 5190 eb3c e430 f93b 929c 59bd 6d0b 0cbd
00000060: 3a4f 7dbd 4bbe 1a3d 7fc9 433d 6e24 2c3c
00000070: 1a36 3a3c 8d49 31bd 3a9d 413d b871 5b3d
00000080: daf7 5cbd 857b 69bc a1fe b73d 2065 603d
00000090: a69e 49bd d6b7 8cbc 4f9b c43c 1058 e3bc
000000a0: e7ea b83c 036a 96bc 30e9 01bc c315 823b
000000b0: 0dc0 1c3d a39c 0b3d 2a43 6bbd a798 a8bd
000000c0: adaa edbc b227 90bb f341 2ebd e435 b3bc
000000d0: 2ab3 123d 3338 1f3d e77e 36bd 1be1 88bc
000000e0: 20f3 42bc 0e7a cfbc 35aa aebd 80ad 253d
000000f0: 3bbe 1c3d a5e6 f93c 5738 d53c 21ed 1a3d
00000100: a9a2 bd3d 5476 273d e679 9abc a462 b63d
00000110: efd9 51bd 18bf c6bc 1ea7 e53c 1b54 51bd
00000120: 3d70 8e3d b67b 7cbd 24ab 9a3d 6db1 2bbd
00000130: ede4 953d c77a ed3b e12e a5bd 1616 003d
00000140: 2bda 003d d443 06bd 7a93 c0bc e8bd d33c
00000150: 0e91 d93b b01b 46bd 6d52 54bd 8b35 a83d
00000160: 5018 c73d 70a6 8ebc f4fd ce3c 0fcb 023d
00000170: 301a bebd 7a89 86bc 4925 3bbc 825f 533d
00000180: ba75 25bd 6efb 083d 5aa4 1dbd 9a6c b73d
00000190: 363f 32bd 59a4 0a3d 25d2 b03c dea7 6bbc
000001a0: 0796 9fbd c008 573b fcae 323c 8d3a 8ebb
000001b0: 4952 43bc 383e 88bd 4cc0 543d 1d67 be3c
000001c0: ccd2 513d c63a 763d a72c b13d 83fc 78bc
000001d0: c5b5 8fbd e761 883c 80c7 2fbc 9ed9 103d
000001e0: fc6c 09bc 4ccf 60bd 82c8 dc3d 1c9e a8bd
000001f0: b136 6e3d 089f 293d 2f47 d5bd 1206 d9bb
00000200: 10d0 92bd aedd 62bd 53af 913c 3a8f 223d
00000210: 6731 2cbd b206 adbd 956c d53c 5253 6f3c
00000220: c30d 353d 9049 83bd 0fa1 31bd ae50 983d
00000230: 3d54 573c 1f88 b33c b44b 113d 9de2 3ebc
00000240: 3faf 17bd 059a 443c 3bd0 8dbd 1162 463b
00000250: bcd5 aabd edaa 613d c48c c23c c43c 993d
00000260: 0cce 8fbd 8353 bebd 44dc cabd 4b05 81bc
00000270: 03bd ea3c 09af babc 256c 7abd bda7 81bd
00000280: 5dfa b73d 7eea d0bd 360d a83d d1af dbbc
00000290: dfda 20bc 3400 ef3d fd57 5e3d a1bd 85bb
000002a0: 0b25 963c e218 40bc 5e98 b1bc f684 8cbb
000002b0: 5044 943c afa0 753d ba5b 0d3d 4988 38bd
000002c0: 1beb 423d 4d26 ad3d e8b0 b83d 0a13 9c3d
000002d0: e01c 413c 7f6d 913d 21e5 713d ba82 1e3c
000002e0: d162 373d d96c 9dbd fc28 173d 72df 35bd
000002f0: 40a1 80bc 8b3e 093d 03d8 013d f5d0 da3c
00000300: 88a5 5b3d e467 bb3d bc60 d8bb efec cfbb
00000310: 547f d9bc beac 903d 731d b03d 554e 2abd
00000320: a7ab 953d 2f56 31bd 844d 77bd 30d4 2a3d
00000330: ec02 4a3d 8747 073d 7d35 573d e19b 22bd
00000340: 63e0 eb3c 2b7a f9bc 19f2 ad3d a72f 313d
00000350: df25 773d 77b8 4d3d f1c6 573d 3026 5bbd
00000360: c322 dc3c 157f 443d d593 e43c 46c3 b1bd
00000370: 3666 493d 49bb 6a3d 23fc 263c 1bd8 17bd
00000380: b6cc 39bd 3ced 7a3d b4e3 cfbd 6fdf b7bc
00000390: 2348 49bd 44be cfbc 6510 0e3d e0e6 8e3c
000003a0: 86a2 b03d a690 7d3d 1a1f b6bd 83a4 1a3d
000003b0: 9ae1 a4bd 9aca db3c 1bba 7a3d fdb3 7bbd
000003c0: 6867 98bd b474 023d 3382 e63c 2adb fabb
000003d0: 4699 81bd 0601 9a3d 9f65 3abd 193e 38bd
000003e0: 2291 1abd debd 2a3d 4deb a9bc 44ef 413d
000003f0: 2cbf bb3d acf0 72bd 8174 babb ebb1 5b3d

fc2.bias f4 [19]
0.049518384 0.045620363 0.026363552 -0.022560317 0.073915005 0.0045303423 -0.08864806 -0.085219786
0.044331368 -0.030253222 0.019138405 -0.042273793 -0.049460456 -0.06589877 -0.02015751 -0.039861154
0.0067596566 -0.044290874 -0.030114064
00000000: cad3 4a3d 6bdc 3a3d 60f8 d73c 6ad0 b8bc
00000010: c060 973d 4473 943b 1d8d b5bd b687 aebd
00000020: cf94 353d 9bd5 f7bc 25c8 9c3c 4927 2dbd
00000030: 0c97 4abd eff5 86bd 5d21 a5bc 7345 23bd
00000040: 1c80 dd3b 596a 35bd c5b1 f6bc
