trunk/models/model_100/mixer.pth (torch, 863867 bytes, 13 tensors)

hyper_w_1.0.weight f4 [64, 1064]
000000 f8 ba d1 3b cf 13 9f bc 9a 92 f8 bc 8b aa 74 ba
       0.0064004622 -0.019418625 -0.030343343 -0.0009333274
000010 f5 e8 b6 bc f5 fe 10 3c 3c 60 40 bc 0d e0 0b 3c
       -0.02232788 0.008849849 -0.011741694 0.008537305
000020 22 8e e5 3a a2 d9 c5 3c 63 52 e9 bc 1b 9a c3 3c
       0.0017513672 0.024151627 -0.028481668 0.023877194
000030 61 3d 71 3c a1 65 6f 3b 97 db bf bb fe 7d 92 3c
       0.0147241065 0.0036529081 -0.0058550346 0.017882343
000040 43 11 77 3c d5 d7 93 3c 0a da c1 3b 58 53 a7 bc
       0.015079799 0.018047253 0.005915885 -0.020425484
000050 a2 38 27 ba 06 8d bd bb d7 1b b1 3c 5e f5 f2 bc
       -0.00063789834 -0.0057846336 0.02161972 -0.029658016
000060 10 e2 a7 3c 72 04 ad bc a4 64 17 3c 1f e4 60 3c
       0.020493537 -0.021120284 0.009240303 0.013726263
000070 e2 c6 20 bd 80 30 0c bd cf 9b 80 bc 91 e2 b3 bc
       -0.03925217 -0.03422594 -0.015699295 -0.021958621
000080 fa dc c2 3b 33 8b 85 3b ac e0 05 bd 67 f2 d9 bb
       0.0059467526 0.0040754317 -0.032684967 -0.006651211
000090 4e 7a e8 3c 07 90 4f 3c 0a 86 a1 3c 56 22 bb bc
       0.028378632 0.012668616 0.019717235 -0.022843521
0000a0 38 a2 7d 3c 40 57 1d bd c3 f5 99 3c de 4d 4d bb
       0.0154805705 -0.038413286 0.018793946 -0.003132693
0000b0 6c 78 e5 3c ed 40 8b bb 8c ed 5c bc e4 b4 b4 bb
       0.028011523 -0.004249683 -0.01348437 -0.005514728
0000c0 ae a8 f2 bc 80 c5 1d bd d8 89 d7 bc 08 f2 03 3d
       -0.029621448 -0.03851843 -0.026310846 0.03221324
0000d0 55 f4 fb 3b 6e 37 b0 3c 0f d4 98 3c f6 cc da 3a
       0.0076890388 0.021510806 0.018655805 0.0016693163
0000e0 e9 a1 ec bc 8a 3e 25 bc a6 ef b7 3c 6f e1 9c bc
       -0.028885799 -0.010085711 0.02245314 -0.019150464
0000f0 17 e9 33 3c 5b da 42 3c 3c fe 23 3c 28 8c e8 bc
       0.010980866 0.01189288 0.010009345 -0.028387144
000100 e6 0a af bc 12 e0 56 bc a5 e9 87 3c de f3 c0 bc
       -0.021367501 -0.013114946 0.016590903 -0.023553785
000110 34 dc 0a bd ca 9f 19 bd 3d 2c 9f bc 4b c1 81 bb
       -0.03390141 -0.037505902 -0.019430274 -0.00395981
000120 44 c6 a5 ba 3c cb a0 bc 26 6f 8e 3c a3 bc e4 bc
       -0.0012647589 -0.01962816 0.017386984 -0.02792198
000130 73 c9 22 b9 59 21 cf 3c 34 88 b7 3c af cb 56 3c
       -0.0001552457 0.025284456 0.022403814 0.013110085
000140 78 9e d8 3c 34 4c a5 bc 3d 6e e1 bb 24 09 db 3c
       0.026442751 -0.020177938 -0.0068795965 0.026737757
000150 f2 8c 10 bd 92 38 a9 bc 10 3f 38 bc 05 a8 d4 bc
       -0.035290666 -0.020656858 -0.011245504 -0.025959024
000160 58 d3 bd bb a4 d5 aa bc 9f 3d 1f 3c 7b ad 1b 3d
       -0.0057930164 -0.020853825 0.009719281 0.03800724
000170 e6 2d bd bb 8b e8 a3 3c f7 2c 58 3c 5a f4 93 3b
       -0.005773294 0.020008346 0.013194314 0.004515213
000180 5c 98 eb bc 16 9f a1 bc 8b b4 a1 3c bb 3e 8c bc
       -0.028759174 -0.019729178 0.01973941 -0.017119756
000190 34 24 c4 3b 99 cf a4 bb e7 06 0a bc 61 b6 00 bc
       0.005985761 -0.0050296304 -0.008424497 -0.0078559825
0001a0 e0 c1 73 ba bb b5 93 3c 33 81 fe bc 95 4a 19 bd
       -0.0009298604 0.018030992 -0.031067466 -0.037424643
0001b0 12 6c 55 bc 49 bc 74 3c 4c 61 93 3b 8f e0 d0 3b
       -0.013026254 0.014937469 0.0044976827 0.0063744257
0001c0 f3 22 cf 3b 2e 31 96 bc e6 26 d2 bb d2 67 6b 3c
       0.006321305 -0.018333998 -0.0064133285 0.014368014
0001d0 79 24 bb bc b0 22 3c bc ac 71 93 3c 3c 4b 75 bb
       -0.02284454 -0.0114828795 0.017998539 -0.0037428876
0001e0 9a 9f c6 38 10 14 94 bb 6e a1 82 3c 43 92 ad bc
       9.471104e-05 -0.004518993 0.015946116 -0.021187907
0001f0 9c ab 06 bd 64 f2 eb bc 98 19 72 3c b7 d5 6e bc
       -0.032878503 -0.028802104 0.01477661 -0.014577321
000200 4a 40 01 bd cb 67 94 bc 61 8d 16 bd f5 0b 07 bc
       -0.03155545 -0.018115899 -0.036755923 -0.008242597
000210 a6 78 01 bd 55 2c af bc 0f 78 ee bc 2d c8 8f 3b
       -0.0316092 -0.021383444 -0.029109983 0.0043878765
000220 83 06 6e 3c 25 46 b5 bb 53 83 1c bd b0 b8 55 bc
       0.01452792 -0.0055320435 -0.038211178 -0.013044521
000230 f3 c7 f2 3b 39 4e 18 3c 7b 75 dd bc bc 16 51 3b
       0.0074090897 0.0092959935 -0.027033558 0.003190442
000240 cc 82 82 bb 4f 5b af 3c db 13 f7 bc 07 f4 fb bc
       -0.0039828774 0.021405844 -0.030160835 -0.03075601
000250 46 d9 9a 3c 9d c9 f5 bc 9a 2b 7f 3c 6b 58 79 bc
       0.018902432 -0.030003363 0.01557436 -0.015218834
000260 39 f4 b8 3c 02 9a aa bb fb a6 ab bc 50 63 0b bc
       0.022577392 -0.0052063474 -0.020953646 -0.008507565
000270 70 4e a9 3c b3 d4 98 bb ca 1e 08 bd 87 fa 18 bd
       0.020667285 -0.0046640276 -0.033232488 -0.037348296
000280 1d ff 53 3c 4e 82 8c bc 03 a5 61 39 f1 dc 1c bc
       0.012939242 -0.017151978 0.00021519144 -0.009574161
000290 94 e6 e1 bc 89 ed fd bb d7 12 9c 3c eb 38 14 3c
       -0.027575769 -0.0077492637 0.019051952 0.009046773
0002a0 00 22 cb 3c b2 fe bc 3c 8f 7d 04 bc d1 5e 54 bc
       0.024796486 0.023070667 -0.008086576 -0.012962059
0002b0 e2 53 19 bd 35 8f 22 bc 48 9f 0a bd 2b 3c 9f 3b
       -0.037433513 -0.0099218385 -0.03384331 0.0048594675
0002c0 7c 36 2b 3b 9b ea a0 3b bd 57 06 bd b5 54 fb 3b
       0.0026125005 0.0049107797 -0.032798517 0.00767001
0002d0 ac 29 d4 3c f3 4d e3 bc 2d cc b1 bc 20 a8 8f bb
       0.025898777 -0.02774713 -0.021703804 -0.0043840557
0002e0 55 2d 4b bb 91 4e 14 3d 08 bc f5 bc e1 0a 87 3c
       -0.0031002362 0.03620774 -0.029996887 0.01648468
0002f0 88 2e 15 bd 2a 4c 0a bd 6c 33 8a 3b cd 49 af 3c
       -0.03642133 -0.033764042 0.0042175557 0.021397496
000300 63 54 cd bb 1c df 00 bd d1 51 41 3a 0e 16 a0 bb
       -0.006266163 -0.031462774 0.00073745573 -0.0048854416
000310 ee 25 17 3b 05 00 b9 bc 5f f2 e7 3c d2 11 f5 3c
       0.002306338 -0.022583017 0.028313814 0.029915724
000320 95 cd a4 3c 3e 74 d7 3b a8 dc 83 3c 1f 8d 82 3c
       0.02011756 0.0065751364 0.016096428 0.015936432
000330 3f c4 db bc 52 2d 16 3d e9 9b ac 3c 8b fa bb bc
       -0.026826976 0.036664315 0.021070438 -0.022946617
000340 e9 5b 4a bc 88 9a 4f 3c 58 33 fb 3b 2e d1 a6 3c
       -0.012351015 0.01267112 0.0076660328 0.020363417
000350 35 e0 16 bc 69 48 27 bc b7 03 3b bc 5e 9e 50 bc
       -0.009208729 -0.010210135 -0.01141446 -0.01273307
000360 25 b6 b5 ba 18 46 d2 bc 68 21 fb bc 6f 5e c8 bc
       -0.0013863487 -0.025668189 -0.030655578 -0.024459092
000370 d9 90 cf bc 4a e8 ed bc 06 f7 d7 3b 7c 01 18 bd
       -0.025337623 -0.029041428 0.006590727 -0.03711079
000380 4a 8f c0 3c 03 27 70 3c 3d f8 fb bc 49 84 57 3c
       0.023505826 0.014657739 -0.030758018 0.013154098
000390 c3 c0 5b 3c 1c 39 2f bc 16 b1 14 bd e5 19 e6 3b
       0.013412657 -0.010694768 -0.036301695 0.00702213
0003a0 4f e0 ab bc d6 48 c0 bc 7e 9f d9 3c fb e9 7c 3c
       -0.020980982 -0.02347223 0.02656531 0.015436645
0003b0 47 d1 cc 3b 93 13 00 bd 8e e6 89 3c ff c8 93 bc
       0.0062505337 -0.031268667 0.01683357 -0.018040178
0003c0 13 26 14 3c 7e 66 c8 3c d2 54 06 bd 20 86 22 3c
       0.009042281 0.024462935 -0.032795735 0.009919673
0003d0 bc 6b 0f bd ba 10 c5 b9 1d 11 b1 bb f6 1f 82 3c
       -0.035014853 -0.0003758723 -0.0054036514 0.01588438
0003e0 99 79 1c 3c b6 09 12 3b ba e0 f6 bc 23 bb 16 bc
       0.0095504755 0.002228362 -0.030136455 -0.00919989
0003f0 26 ce 47 3b a2 f0 db ba 92 d4 46 bc fd ff ae 3c
       0.0030487864 -0.0016780088 -0.012135642 0.0213623

hyper_w_1.0.bias f4 [64]
000000 0f 86 97 bc ea c0 ca bc 88 9c 31 3c 50 3c a8 3c
       -0.018496541 -0.024750192 0.010840543 0.020536572
000010 28 6f 06 bc 9c 88 46 bc ae 83 4f 39 dd f2 89 bc
       -0.008205213 -0.012117531 0.00019790113 -0.016839439
000020 28 76 1c bd ea 72 1b bd c8 b0 8f bc 79 e0 ce bc
       -0.03819862 -0.037951387 -0.01754035 -0.025253521
000030 c5 5c 07 bc 62 6b ef 3b 2f 83 25 bc d6 e0 da bb
       -0.008261864 0.007306502 -0.010102077 -0.0066796346
000040 c8 cd 9d bc 6e 52 8b bc 85 4a 11 bd 77 dc b1 3c
       -0.019263163 -0.017007079 -0.035471458 0.021711571
000050 ed 6e e8 ba 79 fc 1f bc 02 24 5b bc d4 05 64 3c
       -0.0017733254 -0.009764784 -0.013375284 0.013917405
000060 b4 e2 b6 3b a0 20 d7 bc d5 b9 e5 bc cf 1e 93 3c
       0.0055812243 -0.026260674 -0.028042713 0.017959027
000070 37 4d 9e bc da ea 11 bd 1a db 2d 3c 30 fd 06 bd
       -0.019323928 -0.035624363 0.01061132 -0.032956302
000080 c6 20 15 3a 63 9a 1e bc 8c e0 e0 bc 5a a0 73 bb
       0.00056887825 -0.009680363 -0.027450822 -0.0037174434
000090 9c 0b 8b bc 1b 37 ad 3c 79 d2 c6 bc f3 64 d4 3a
       -0.01697331 0.02114444 -0.024270283 0.0016204402
0000a0 12 e4 22 3b bc 64 71 bc 1a ac ac 3c 28 02 e3 bc
       0.0024855179 -0.01473349 0.021078158 -0.02771099
0000b0 e0 06 b0 bb 44 9b b9 bc 00 80 ec bc a4 05 49 bc
       -0.0053719133 -0.022657044 -0.028869629 -0.012269411
0000c0 35 3b b0 bc 1d 73 ee bb 25 12 e9 bc 1c e0 91 bb
       -0.021512607 -0.007276906 -0.028451035 -0.0044517647
0000d0 16 9a 14 bc 25 99 19 bd 00 e0 56 ba a1 72 fd bc
       -0.00906994 -0.037499566 -0.0008196831 -0.030938448
0000e0 a6 a3 4e bc a8 16 7b bb 79 77 d5 bc 11 08 46 3c
       -0.012612259 -0.0038313065 -0.026057946 0.012086884
0000f0 30 b2 fd bc 56 8c 24 b9 89 16 f3 bc 91 0e e4 bb
       -0.030968755 -0.00015692538 -0.029673832 -0.0069597443

hyper_w_1.2.weight f4 [128, 64]
000000 e6 37 42 3d f5 3a f6 bb 7c ed 12 bd 13 f0 3b bd
       0.04741659 -0.0075143524 -0.035871014 -0.04588325
000010 02 a4 5b 3d 33 1f df 3d e3 95 ec ba 12 06 9d 3c
       0.053623207 0.10894623 -0.0018050041 0.019167934
000020 e1 e2 85 bc df e4 79 3d 0c b5 56 bd 31 90 4f bd
       -0.016343536 0.061009284 -0.052418754 -0.05067462
000030 c7 b9 d1 3c 96 af 08 3e d7 96 d6 3c 33 c0 48 3d
       0.02560128 0.1334823 0.026194973 0.04901142
000040 e1 e3 44 3d 5e ee 77 bd 0e ce e1 bc 1f 51 9d bc
       0.048068885 -0.06053006 -0.027564075 -0.01920372
000050 43 0c ce bd be 54 11 3d c6 67 3a 3c 1a 6f 60 bd
       -0.100609325 0.035481207 0.011377281 -0.054793455
000060 e7 cc a5 3d 82 2d 9d 3c 0f 0d 43 3c d1 c6 e5 bd
       0.08095723 0.019186739 0.011904969 -0.11219562
000070 74 42 c0 bd f4 07 e6 bd f6 73 9b 3d 5a 1a 32 bd
       -0.09387675 -0.11231986 0.07590477 -0.043482162
000080 89 e6 b6 3d 2d b5 b1 3d eb 27 6b 3c 3a 47 9a bc
       0.0893069 0.08677135 0.014352779 -0.018832792
000090 eb 16 50 bd c7 16 09 bc 5f b2 98 bd b0 1a 8c bd
       -0.050803106 -0.008367247 -0.074558966 -0.06841028
0000a0 c8 6b c7 3d eb e0 0d 3e 43 12 61 3d ad 7a 89 bc
       0.097373545 0.1385533 0.054949056 -0.01678213
0000b0 7c 08 b0 3c 2a c7 f2 3b e5 5b 83 3d 0e 6d e8 bd
       0.02148842 0.007408996 0.06414012 -0.113489255
0000c0 db 77 83 3c 63 59 eb bd 07 37 f1 bc a4 0a 6d 3d
       0.016048362 -0.114916585 -0.029445184 0.057871476
0000d0 1f 7e c6 bd a5 74 86 bd 8b 76 dc bc 3e 73 19 bc
       -0.096920244 -0.06565217 -0.026911994 -0.009365855
0000e0 48 69 d0 bd d5 4d 13 3d 4e 10 95 bc c5 41 ef 3c
       -0.10176331 0.0359629 -0.018196251 0.029206166
0000f0 83 ec 32 bd df 83 f7 3d 33 8b 56 bd 83 f8 04 bd
       -0.043682586 0.12085699 -0.052378844 -0.03246356
000100 8e c5 82 bd e2 0e 1e 3c 5e 8c e9 3d 66 a1 bd bd
       -0.06385337 0.009647103 0.11403726 -0.092593
000110 cc 69 e5 3d 54 96 5f bd a9 b5 43 3c 7b 29 92 3d
       0.1120182 -0.054586723 0.011945167 0.07136818
000120 08 8f ae 3b eb 50 f2 ba 12 5d be 3d c8 30 13 3d
       0.0053271092 -0.001848725 0.092950955 0.035935193
000130 a4 bd 47 3d ec 59 44 bd fc 28 b2 3d 81 8d d2 bd
       0.04876484 -0.04793732 0.086992234 -0.10280896
000140 3d 73 96 3b f0 f8 e6 bd 04 67 c6 bd 24 8d ee 3d
       0.004591374 -0.1127795 -0.096876174 0.11648014
000150 60 35 3f bd 43 b4 e1 3d b1 c8 93 bd 2a fb 50 3b
       -0.04668176 0.1102071 -0.07216013 0.0031887987
000160 1b ea a0 bd 50 78 f4 3d 06 59 b6 bd 94 c9 48 bd
       -0.07857152 0.1193701 -0.089036986 -0.049020365
000170 8e 69 e1 bd 8d fd 82 bd 6d e8 ab bd 23 9f c3 3d
       -0.11006461 -0.06396017 -0.08393941 0.09551837
000180 a1 db fc 3c 8e 82 97 3d b7 18 d9 3b 88 ad 1a 3d
       0.030866446 0.07397948 0.0066252607 0.03776315
000190 35 e0 d3 3d 79 cf e2 3c 7d e8 a0 3d d4 8c da bd
       0.103454985 0.027686821 0.078568436 -0.10671392
0001a0 e1 ac 8c bd 2f cf a3 bd 12 60 df 3d 1c 8b 89 3b
       -0.068689115 -0.079985015 0.10906996 0.0041974913
0001b0 fa eb c5 3d 70 52 84 bb b7 03 f3 3d 1c b6 b3 bd
       0.096641496 -0.0040381476 0.11865943 -0.08774969
0001c0 1a ba cd bd 72 02 47 bd ad 69 6d 3d f7 01 dc bd
       -0.10045262 -0.048586316 0.05796211 -0.10742562
0001d0 02 48 d5 bd d1 06 dc 3d 1f 55 ba 3c f5 27 f7 3d
       -0.10414125 0.107434876 0.022745667 0.12068168
0001e0 9d b6 c0 bd e1 e3 e8 bd 28 68 52 3d e0 8f 42 ba
       -0.09409831 -0.113715895 0.051368862 -0.0007421952
0001f0 48 da 95 3b 7f 5f 99 bb 53 02 f6 bd 38 b8 b2 bd
       0.0045731403 -0.0046805735 -0.12012162 -0.08726543
000200 12 a2 79 3c 84 7f 26 3d 26 83 f7 3d bd aa b4 3d
       0.0152363945 0.040648952 0.120855615 0.08821628
000210 7a f5 a3 bd 52 ff 52 bd 0f a8 49 3d 6a c0 db 3c
       -0.08005805 -0.051513024 0.04923254 0.026825149
000220 5f b7 d6 bd a6 5b 55 3c 87 ab d7 3d 54 62 69 bd
       -0.10484194 0.013022339 0.10530763 -0.05697854
000230 45 c4 7c bd 72 5a b2 bd e8 81 e8 3d 1e 37 dc 3d
       -0.061710615 -0.08708657 0.11352903 0.107527
000240 2a af e2 3c d4 6e 06 3e 1f 78 0d bc e2 80 ab bd
       0.027671415 0.13128215 -0.008634596 -0.08374192
000250 65 90 01 3d 2e 1e 97 bc 4d 1d 07 3c f3 e6 06 bd
       0.031631846 -0.018447008 0.008246732 -0.032935094
000260 a0 72 03 bd 69 21 6f bd 42 b3 a3 3d 61 a8 b9 3d
       -0.032091737 -0.05838147 0.07993175 0.09065319
000270 9d 05 63 3c 1a 83 a3 bd f0 ac 17 3d 35 12 e8 3c
       0.013856319 -0.0798399 0.03703016 0.028328994
000280 6a 8a 0d 3d d8 85 81 3c 66 c9 d3 bd f5 2d 48 bd
       0.03455583 0.015810892 -0.10341148 -0.048871953
000290 e8 cb dd 3c ef 35 07 bd 6c b3 d7 3d e3 8d 72 bd
       0.02707477 -0.03301042 0.10532269 -0.059217345
0002a0 ac 5a d5 bd f9 34 da 3d d4 e4 95 3d 2b 03 ac 3c
       -0.10417685 0.10654635 0.07319036 0.020997604
0002b0 4b 38 8c bd 84 18 a8 3d 30 4b d9 3b 92 a2 df 3d
       -0.068466745 0.08207801 0.0066312775 0.1091968
0002c0 df 19 d5 bd 4e 6c 4d 3c bc a1 c1 bd 87 4f a9 bd
       -0.10405325 0.012538029 -0.094546765 -0.08267122
0002d0 3d 99 e3 bd a6 8b 90 bd 57 78 af 3d f8 54 db bd
       -0.11113212 -0.07057886 0.08567875 -0.10709566
0002e0 e9 25 d8 3c 3e 9d 27 bd 41 c2 76 3d 24 7f af bd
       0.026385264 -0.040921442 0.06024385 -0.08569172
0002f0 e7 24 86 bd d7 73 4d 3d 21 ab 25 bd 36 7b c1 bd
       -0.06550007 0.0501593 -0.040446404 -0.09447329
000300 f4 2e 79 bc fe 17 1c 3d 55 18 1d 3d 88 4d 8f 3c
       -0.015208948 0.03810882 0.038353283 0.017493024
000310 27 bd e8 bd 52 eb b0 bd 8a 8c 56 3d db 28 0f 3d
       -0.11364203 -0.08638634 0.052380122 0.034951072
000320 f5 5b 96 bd 9b 40 f3 bd df b2 dc bb a9 a5 ea 3c
       -0.07341758 -0.11877557 -0.0067351903 0.028643446
000330 20 b3 76 bd ab 1e 23 bc 7f 76 ae bd 42 62 06 3e
       -0.06022942 -0.009956042 -0.08518695 0.1312342
000340 dd 1d cd bd dd 6a dc bd 49 8e 49 3d 67 43 59 3d
       -0.100154616 -0.1076257 0.04920796 0.053042796
000350 00 50 9a bc f2 96 d6 3d 77 b6 9f bd 2c af d9 3d
       -0.018836975 0.10478009 -0.07798474 0.106291145
000360 9d 81 3c 3d ec 41 45 3d f6 18 8a bd 8a 6b 05 be
       0.046022046 0.04815857 -0.06743042 -0.13029304
000370 a1 03 35 3c d9 3a a5 3c 56 a8 f5 3c 2a ec 65 3c
       0.0110482285 0.020169662 0.029987495 0.014033357
000380 26 ad c5 bd 21 cf b2 bd 85 60 9f bc 2e 8f 5e bd
       -0.09652166 -0.08730913 -0.019455204 -0.054335766
000390 3b ad 35 bd 8d 2b af bd ca e9 6e 3d 87 f5 0a 3c
       -0.04435466 -0.085532285 0.058328427 0.00848139
0003a0 18 9a 74 bc ac 34 87 3d 13 44 33 3d 2f 46 e3 3d
       -0.014929317 0.06601843 0.043766093 0.11097371
0003b0 8a f2 f2 3c 15 f0 8f 3d ef 3d 26 3d 9d b9 28 bd
       0.029656667 0.07028214 0.04058641 -0.04119264
0003c0 eb ba 59 bd a5 71 44 bc 38 66 26 bd db 34 9c bd
       -0.053156774 -0.011989986 -0.040624827 -0.07627269
0003d0 80 75 b3 bd 67 36 76 bd 5c fc dc 3c d6 c1 ae 3c
       -0.08762646 -0.060110476 0.026975803 0.021332663
0003e0 a2 65 b0 3d 7f 5b 86 bc 97 20 d0 3d 21 f5 2d bd
       0.08613135 -0.01640105 0.10162466 -0.0424701
0003f0 72 0c 60 bd 4d 32 ab bb ea ef 7a 3d 9c 68 ff 3d
       -0.05469937 -0.005224502 0.061263956 0.124711245

hyper_w_1.2.bias f4 [128]
000000 41 36 23 3d 0d 10 a5 3c 99 92 ff bd 60 7a 08 3e
       0.039846662 0.020149255 -0.12479133 0.13327932
000010 f5 42 be 3d 68 eb 3e 3c f2 07 d0 3d 19 bf cf 3d
       0.09290115 0.011652805 0.101577654 0.10143871
000020 86 b5 7a 3d cc 4f 98 bd 50 b5 45 bd a9 a0 e7 bd
       0.06120827 -0.07437095 -0.048268616 -0.1130994
000030 48 bc 08 3c 4f 52 6a bd be 13 cd bd 87 e5 bc bd
       0.008345671 -0.0572074 -0.10013531 -0.09223466
000040 16 d2 c3 bd 9f e5 5b 3c fa 3c ef 3d 41 ab 49 bd
       -0.09561555 0.013421445 0.11681552 -0.049235586
000050 f8 78 b9 3d 20 47 e0 bc ee 95 b3 bd 09 49 0c 3e
       0.09056276 -0.027377665 -0.08768831 0.13699736
000060 2b e4 bf bd 0d 4a 41 bd 9e 20 bf 3d 70 b2 82 3d
       -0.093696915 -0.04718976 0.09332393 0.063816905
000070 86 01 f6 bd d9 58 4e bc 1c 58 e7 3d 8d 31 25 3d
       -0.12012009 -0.012594425 0.112961024 0.04033046
000080 14 77 50 3d f0 de 0c bd 6d d6 de bd e8 e3 f9 3c
       0.05089481 -0.034392297 -0.10880742 0.030504182
000090 21 b5 42 3d 83 8d fd 3d 0b 2a 19 bc 60 de a8 bd
       0.04753602 0.12380507 -0.009348403 -0.0824554
0000a0 a9 66 13 3e 4f ce e3 bd a3 03 ef bd f8 b1 d3 bd
       0.1439463 -0.111233346 -0.116706155 -0.10336679
0000b0 5b 93 6b 3d 16 75 f3 3b 71 e4 6f bd e1 90 82 bd
       0.057513576 0.007429729 -0.058567468 -0.0637529
0000c0 2d 1a 90 3c a4 45 9c 3d 8f 8f 49 bd d5 05 5f bd
       0.017590607 0.076304704 -0.049209174 -0.05444892
0000d0 cf e3 3b bd dd 41 5c bc 6d 52 e8 bd d8 f2 d8 bd
       -0.045871552 -0.013443437 -0.113438465 -0.10593194
0000e0 e8 8e 01 3e 77 3d b8 bd 64 d4 23 bd 61 9d c0 3d
       0.1265217 -0.089960985 -0.039997473 0.09405018
0000f0 b6 c6 da bd f6 64 e6 bb 16 55 ad bc b7 41 5a bd
       -0.10682432 -0.0070310785 -0.021158736 -0.053285327
000100 28 c8 87 3d f0 58 18 3d e4 0e 86 bd 46 62 7f 3c
       0.06629974 0.037194192 -0.06545809 0.015587395
000110 c3 1e 92 bd c7 86 85 3d 46 07 a8 bd 3e cc 9a bd
       -0.071347736 0.06519847 -0.08204512 -0.07558487
000120 d5 0a bb 3d aa 6c c9 bd 0e c2 56 bd 02 78 c0 bc
       0.091329254 -0.09835179 -0.05243116 -0.023494724
000130 e2 e4 39 bd 14 11 e7 3d 5f 00 81 bd 4e 67 41 bd
       -0.045384295 0.11282554 -0.06298899 -0.04721766
000140 34 d9 f0 3b 36 17 36 3c 84 51 03 bd 82 83 d7 3c
       0.0073501114 0.011113932 -0.03206016 0.026307825
000150 ed 50 23 3d ea 3a d7 3c 74 c7 b4 bd a3 84 f5 3d
       0.0398721 0.02627321 -0.08827105 0.11988189
000160 8a aa 0f bd f3 54 c8 3c 50 f7 af 3d 4b 37 8f 3c
       -0.035074748 0.02445457 0.08592093 0.01748242
000170 7f 80 ae 3d 67 95 6f bc 01 0c bf 3d cf d7 a1 bd
       0.085206024 -0.014623023 0.093284614 -0.0790249
000180 19 53 cc 3d 00 1f 9c 3d 36 8d e7 bd 03 7e f0 bd
       0.09976787 0.076231 -0.11306231 -0.11742785
000190 f6 78 e2 bd c4 74 d2 bd 10 63 e7 bb 43 2b 08 3d
       -0.11058228 -0.102761775 -0.0070613697 0.033244383
0001a0 53 67 51 bd 9f bb 90 3c 81 f7 df bd 07 c9 be bd
       -0.05112393 0.01766759 -0.109358795 -0.09315687
0001b0 72 b7 66 bc 39 9f 86 3d c4 0c cd bc 7f 46 11 3e
       -0.014081823 0.06573338 -0.025030501 0.14187048
0001c0 fc 1b 99 3d 38 2b 98 3d 09 03 f3 bb 38 98 10 3d
       0.07476041 0.07430118 -0.0074161333 0.035301417
0001d0 86 a2 f7 bd cf ac 31 bd 06 47 90 3d c0 35 bd bb
       -0.12091546 -0.043377694 0.07044797 -0.0057742298
0001e0 7b d0 f2 bc 5c 2f 09 3e 65 a9 60 bd 17 e0 17 be
       -0.029640427 0.13396972 -0.054849047 -0.14831577
0001f0 99 d3 7e bd 45 af 0d be e9 76 c6 bd d8 11 76 3d
       -0.062213514 -0.13836391 -0.09690649 0.06007561

hyper_w_final.0.weight f4 [64, 1064]
000000 99 ee 2f 3c 4d 31 54 bb 5f 89 ed bc 03 16 91 bb
       0.010738038 -0.0032378018 -0.028996168 -0.004427673
000010 8c 24 a1 3c 17 68 49 bb 2a 19 1a bc 71 7e 7b 3c
       0.019670747 -0.0030732208 -0.009405414 0.01534997
000020 27 3d d9 bc 57 7a bc b9 2a 7f 2e bc 5d 75 98 3a
       -0.026518418 -0.00035949305 -0.010650435 0.0011631657
000030 58 ca fb 3c 1b 8b ee bc 5a 6c 82 3c 13 54 93 3c
       0.030736133 -0.029119065 0.015920807 0.017984426
000040 c0 c5 12 3c fd 12 50 3c 80 2a ba 39 7b de c1 bb
       0.00895828 0.01269984 0.0003550835 -0.0059164143
000050 63 42 06 bd 51 7c 7e bc a8 58 e6 bc 56 5e 48 bc
       -0.032778155 -0.015532569 -0.028118446 -0.012229523
000060 d0 16 b5 bc 99 22 01 ba 52 f5 10 bd 63 6b 18 bb
       -0.022105604 -0.0004926115 -0.035390206 -0.0023257367
000070 02 be 79 bc 92 b2 21 3b 06 9a b1 3b 46 da bb 3c
       -0.015243055 0.0024673087 0.0054199724 0.02293123
000080 75 05 86 bc 4c 0a ae bb 11 81 e0 bc 41 7f e6 3c
       -0.016360024 -0.005311286 -0.027405294 0.028136851
000090 fa 55 92 3c 39 23 ef 3c a9 12 5d 3b 76 05 9b 3c
       0.017863262 0.0291916 0.0033733046 0.018923502
0000a0 71 3a 45 bc d9 bd af bb 41 cf 0f bd ca 85 c0 bc
       -0.012037859 -0.005363208 -0.035109762 -0.023501296
0000b0 62 c3 98 3c 44 6e 9a bb 3f e3 10 bc f9 68 84 3c
       0.018647853 -0.0047128517 -0.008843242 0.016163336
0000c0 54 cc c6 bc ec f4 75 bc 7a ce 9e bc 6a 31 a3 ba
       -0.024267353 -0.015012007 -0.019385565 -0.001245064
0000d0 38 5d fe 3a c8 82 8c 3c 5d f5 8d bc bc 10 4e 3c
       0.0019406443 0.017152205 -0.017328912 0.012577232
0000e0 fa ce 28 bc 95 1f 27 bc 38 26 7a bc 1d 50 4e bc
       -0.010303253 -0.010200401 -0.015267901 -0.012592343
0000f0 b3 55 03 bb e7 48 50 3c 6d 92 4a bc 59 bc 3d 3c
       -0.0020040094 0.012712694 -0.012364012 0.01158055
000100 17 cc 0b bd 5c b4 bb 3c 3e ea 82 bc 94 37 e7 3b
       -0.034130182 0.02291315 -0.015980836 0.007056186
000110 7c 91 01 bc 3a 75 d8 bb 9f 29 02 bd d4 d2 83 ba
       -0.007908221 -0.0066057714 -0.031777974 -0.0010057339
000120 cc 62 48 bc 98 9d 16 3c d5 31 12 bd cb fe 2e 3b
       -0.012230586 0.009192847 -0.035692055 0.0026702161
000130 14 c7 b1 bc fc 1b e0 bc 94 44 17 3c e9 49 ca bc
       -0.021701373 -0.027357094 0.009232659 -0.024693446
000140 d3 4f b1 bc 1d 70 18 ba 12 e8 9c 3c 1e 8b a3 3c
       -0.021644508 -0.0005815046 0.019153628 0.019963797
000150 e7 a9 40 bc 71 03 7a 3c 2c fc e0 bc 4b a5 04 bb
       -0.011759258 0.01525961 -0.027463995 -0.0020240124
000160 7f 21 1b bd 78 33 a1 3c e6 08 72 3c 6e 7b 0d 3d
       -0.03787374 0.019677863 0.014772629 0.03454154
000170 a4 26 43 3c c4 b1 c5 3b 58 5d 7e 3c fd 99 bb bc
       0.011911068 0.006033154 0.015525185 -0.022900576
000180 3d 8d fa bc 0c 1e 13 3c a7 45 b5 bc 2e da 85 3c
       -0.030584926 0.008979332 -0.02212794 0.016339388
000190 ce f8 3d 3b cf 42 e4 3c 99 11 a1 bc cb 0b 81 bc
       0.002898741 0.027863888 -0.019661712 -0.015752694
0001a0 05 cb b5 bb 78 67 cc bb ae 36 19 bd 8b b6 ad bc
       -0.0055478835 -0.0062379204 -0.037405662 -0.021205207
0001b0 fe 17 62 bc 21 7a de bb fc 36 1c bd e2 f2 db bc
       -0.0137996655 -0.0067894612 -0.038138375 -0.026849214
0001c0 ad 34 19 3d c7 16 91 bb 78 df ee 3b f0 74 df bc
       0.03740375 -0.004427764 0.007289823 -0.02727744
0001d0 1a 05 8c 3c ed 7c e5 bc 4d 94 59 bc f3 15 56 3b
       0.017092276 -0.02801367 -0.013279987 0.0032666891
0001e0 dd 6a 06 bb 56 0c a9 3c 4f 50 b8 3b a9 84 14 bc
       -0.0020510473 0.020635765 0.005624808 -0.009064832
0001f0 85 fe 68 bc 74 09 02 bd e2 3a 86 3c 3b 84 a9 bb
       -0.014220838 -0.031747296 0.0163855 -0.005173234
000200 59 de 9c bc db cf 34 3b 75 98 09 bb f5 96 99 39
       -0.019148992 0.0027589712 -0.0020995412 0.00029294906
000210 75 ad ab ba a1 27 71 bc a9 a8 09 bd 3b fd 1c bd
       -0.0013097959 -0.014718921 -0.033608112 -0.038327437
000220 92 da 3c bc 2d f8 0e ba 0c 25 0e bd 2d 71 04 bd
       -0.011526721 -0.0005453851 -0.0347033 -0.032334495
000230 65 bc e2 bc 16 37 8e bc 43 68 35 3c 51 3d ff bb
       -0.027677724 -0.017360251 0.011072221 -0.007789292
000240 a0 0e 9a 3c c8 97 98 3c 17 af 06 bc 7f 84 80 3c
       0.018805802 0.018627062 -0.008220456 0.015688179
000250 f0 10 0f bc 8f ae bb bc b7 4b bf 39 e0 b6 a9 3c
       -0.008732066 -0.022910384 0.0003648677 0.020717084
000260 08 fc 6c 3c e2 58 b0 bc eb b3 8d 3c c3 65 a6 3c
       0.014464386 -0.021526758 0.017297706 0.020312196
000270 ee 57 a7 bb 2a 96 cb 3b 72 85 9f 3c e6 d7 69 3c
       -0.0051069176 0.0062129693 0.019472811 0.014272666
000280 98 5c af 3c 26 19 68 bc d5 ac a3 3c f2 99 fd 3b
       0.021406457 -0.014166152 0.019979874 0.007739299
000290 08 01 1f 3c 85 15 af ba cf 38 ed bc 06 d8 c6 bc
       0.009704836 -0.0013357854 -0.028957753 -0.02427293
0002a0 40 61 4a 3c fb 89 8a bc 9a 99 d5 3c 06 1a bf 3c
       0.012352288 -0.016911497 0.02607422 0.023327839
0002b0 58 e7 8e bc 6a 21 a2 bb fe 84 1e bd f7 0f 94 3c
       -0.017444298 -0.004947831 -0.03870105 0.018074019
0002c0 6f 42 08 3c f4 60 c7 3c 96 c3 39 bc 06 96 b4 bb
       0.00831662 0.024338223 -0.011338135 -0.0055110482
0002d0 bd 0f 00 3d b4 65 b7 3a d6 b9 fe bb 57 98 15 bd
       0.03126501 0.0013992102 -0.007773618 -0.036522236
0002e0 88 0d f0 3c 11 2e 39 3c 1c 21 38 3a 1f ad 73 3b
       0.029303327 0.011302487 0.00070239767 0.0037182046
0002f0 d6 84 24 bd 81 b9 5f 3c 07 9e 16 bd 16 be 12 3d
       -0.040165745 0.013655067 -0.0367718 0.03582581
000300 72 48 b2 3c 48 60 6c 3c 4e c6 c9 3c 53 4e 8e 3c
       0.02176306 0.014427252 0.024630692 0.017371332
000310 26 28 81 3b 77 cd cd bc 9e d0 6f bc f2 cb 0d 3c
       0.0039415536 -0.025122387 -0.014637141 0.008654581
000320 aa ee 9a 3c 32 97 56 bc fa 6b 84 bb 5f f5 71 bc
       0.018912632 -0.013097571 -0.004041192 -0.014767974
000330 d4 df 9a bc 50 62 ca 3c 31 08 10 3d 62 bb ac 3c
       -0.018905558 0.024705082 0.035164062 0.021085445
000340 3b d0 fd bb 95 b9 06 bd 01 f0 00 3c 22 70 8f bc
       -0.0077457703 -0.03289183 0.007869721 -0.017509524
000350 20 4b 74 3c d7 7a 05 bc f0 b2 20 bc a5 9a e6 bc
       0.014910489 -0.008146963 -0.009808287 -0.028149912
000360 c4 5a 8f 3c a3 e6 e1 bc 7d 97 86 39 05 46 ac bc
       0.017499335 -0.027575796 0.0002567134 -0.021029482
000370 2b 14 3a ba 4e b7 39 bc c1 40 0b bc d3 58 8f bb
       -0.0007098342 -0.011335207 -0.008499325 -0.0043746023
000380 eb cb 80 3c f7 a2 f9 bb 5b 3b be bb 66 7d 7c bc
       0.015722236 -0.007618304 -0.0058054156 -0.015410757
000390 4f c9 24 bd 71 63 04 3c 93 f2 1e bc da 68 a4 bc
       -0.040231045 0.008080349 -0.009701389 -0.020069528
0003a0 a2 9b be bc a9 4d 8a bc 6e 18 60 3b 8d 08 e5 bc
       -0.02326757 -0.016882734 0.0034194249 -0.027958179
0003b0 19 0f 09 3c 4c 1c 15 3c bb 03 f3 3c 79 a8 0f 3b
       0.008365416 0.009100985 0.029664865 0.0021920486
0003c0 8f 31 29 3c eb aa 98 3c 4d 71 c2 bb 48 59 4e 3b
       0.010326757 0.018636188 -0.0059339167 0.0031486321
0003d0 8e b6 42 bc d6 9a 7a 3c da fe ba bc 87 10 d5 bc
       -0.011884345 0.015295705 -0.0228266 -0.026008857
0003e0 39 67 9d 3c 26 e6 aa bc 02 65 7f bb 43 ff 3c bc
       0.01921426 -0.020861696 -0.0038970117 -0.0115354685
0003f0 57 96 49 3b da f8 0d bd c2 62 12 bd 2f 85 78 3a
       0.0030759776 -0.03466115 -0.035738714 0.0009480295

hyper_w_final.0.bias f4 [64]
000000 6a 82 1c bd 5d 42 2c bc 93 1b 21 bd 85 4a e0 3c
       -0.03821031 -0.010513869 -0.039332937 0.027379284
000010 b1 81 87 3b 96 6e 9c 3c 5c 91 bd b9 a3 30 4a b9
       0.0041353335 0.0190957 -0.0003615719 -0.0001928234
000020 14 cf 87 bc 81 05 85 3b 22 53 27 3c fd b4 1e bd
       -0.016578235 0.004059494 0.0102126915 -0.038746823
000030 5c b2 e5 bc 1e 03 09 bd 9a 38 e0 bc 57 39 1e bd
       -0.02803915 -0.03345024 -0.02737074 -0.038628902
000040 29 86 17 bc 03 e9 84 3b 5f b8 0d bd c3 8d 0c bd
       -0.009248295 0.0040560975 -0.034599658 -0.034314882
000050 d8 88 10 3c 1b 25 2d bc 92 10 89 3c 52 06 0c bc
       0.008821689 -0.010567929 0.016731534 -0.008546429
000060 d8 81 dd 3b a0 fd 3c 3c ab 0b 1d bd 97 26 d1 3c
       0.0067598633 0.011535078 -0.038341206 0.025531096
000070 56 7e 68 bc 79 ea 79 3c bb 42 18 bc ac 36 22 bc
       -0.014190277 0.015253657 -0.0092932535 -0.00990073
000080 8b cd 55 bc 34 63 0b 3c 95 4e ff 3b 1b a5 3d 3c
       -0.013049494 0.008507539 0.00779135 0.011575009
000090 84 c1 53 3c df 95 25 bd fd 3a f6 bc 81 98 ae 3c
       0.012924556 -0.04042613 -0.030057425 0.021312954
0000a0 b5 9e b4 bb b1 16 03 bd 0e 19 02 3c a2 c6 6e bc
       -0.0055120834 -0.032004062 0.007940544 -0.014573725
0000b0 98 9c 10 bc 92 7f a1 bb 78 a5 61 3c d2 62 ce bc
       -0.008826397 -0.0049285376 0.013772361 -0.025193606
0000c0 8c 10 da bc ca 84 0c 3c 33 9c a6 bb 44 d3 05 bd
       -0.026619218 0.008576581 -0.0050845384 -0.03267218
0000d0 c5 08 ba 3b 34 0b 33 ba 0d 39 1f bd e8 d9 9d 3b
       0.005677315 -0.00068299775 -0.038872767 0.004817236
0000e0 a7 f6 89 3c 51 66 df 3b 84 1d 46 bc 95 28 bb bb
       0.016841246 0.006817617 -0.012091998 -0.005711625
0000f0 c2 43 c0 bc 61 cd ec 3b 30 4f a5 bc 40 f6 3b 3a
       -0.02346981 0.0072266315 -0.020179361 0.0007170178

hyper_w_final.2.weight f4 [32, 64]
000000 63 11 cb bb 98 24 bc bd e3 40 7c bd cc f2 ba 3d
       -0.006197141 -0.09186667 -0.06158532 0.09128341
000010 91 5e 84 bb 75 56 b4 bd 36 75 9f bd b5 de c3 bc
       -0.0040395935 -0.08805553 -0.07786028 -0.023909906
000020 8d 9d ef 3b 2e cc a0 bb b8 b6 0a bd 95 2f 23 3d
       0.0073124827 -0.0049071526 -0.03386566 0.0398403
000030 b8 13 76 bd f7 89 07 3c f9 9a 04 be 1d f8 6f bc
       -0.0600774 0.0082726395 -0.12949742 -0.014646557
000040 83 47 1c 3d 0f b9 b9 bd c0 89 8d 3d bb 68 c0 3b
       0.038154136 -0.090685 0.06911039 0.00587186
000050 cd dd 90 3d ab 21 65 3c bf a1 af 3d eb 0c d6 3d
       0.07073555 0.013985078 0.085757725 0.10451683
000060 42 70 c4 3d 9b 0e b5 bd 81 17 57 bd 47 6f 4d bd
       0.09591724 -0.088406764 -0.05251265 -0.05015495
000070 59 07 f3 3d 36 02 cd 3d 8a 78 a0 3c 42 6c e3 bd
       0.11866636 0.10010187 0.019588728 -0.11104633
000080 7f b2 cf bc 23 ce 6f 3d 2c f8 43 bd 63 95 85 bd
       -0.025353668 0.058546197 -0.047844097 -0.06522634
000090 04 c6 02 3e 21 99 57 3c 32 78 b2 bd 17 0d aa bd
       0.1277085 0.013159067 -0.08714332 -0.08303278
0000a0 20 51 ad bd 51 5d 52 3c 95 4a a6 3c a4 5a cc bd
       -0.08462739 0.012839631 0.020299235 -0.09978226
0000b0 7e e2 d1 bd 72 cd f9 bd a6 18 0d 3e b2 18 3f bd
       -0.10248278 -0.12197389 0.13778934 -0.04665441
0000c0 bb 8e a0 bd ee fd 94 3d 08 dc ee 3d 6f 63 21 bc
       -0.07839724 0.07274996 0.116630614 -0.009850367
0000d0 f5 60 b1 bc 82 25 bb 3d 2a 2f 94 3d 08 73 00 bb
       -0.021652678 0.091380134 0.07235558 -0.0019599814
0000e0 cd e7 7c 3d d1 a5 d8 bd a2 3d 01 3e 64 a5 15 3d
       0.0617445 -0.10578502 0.12621167 0.036534682
0000f0 7c 9b 86 3c ff 12 f5 bd 5b 9f 8b bd 6c 42 5c 3d
       0.016431563 -0.11966514 -0.06817504 0.053774282
000100 ed ab b4 3d 43 81 c6 bd d9 de 8b 3d 2d 94 b5 3d
       0.08821855 -0.096926235 0.06829614 0.08866153
000110 22 1a 48 bc b3 0b 86 3d b1 25 3c bd 3b ed cd 3d
       -0.012213262 0.065452 -0.045934383 0.10055014
000120 3e 97 80 bc 95 06 86 bd 8f 9e 55 bd 6b c6 32 3d
       -0.015697118 -0.06544224 -0.052153166 0.043646257
000130 d2 e2 70 3c ed 53 0b bd be b1 52 bd 8f de 3a 3c
       0.014702516 -0.034015585 -0.05143904 0.011405601
000140 82 1b aa bd 7f 38 8c 3d 8b e5 9c bd 00 24 4c 3d
       -0.08306028 0.06846713 -0.07660969 0.04983902
000150 96 f3 0f 3d bf ee 0f 3d 00 09 ee 3b 3c 22 84 3d
       0.03514441 0.035139795 0.0072642565 0.06451842
000160 1a c3 da bc db 75 3f bc 2f 50 55 3d 7f 06 f0 bd
       -0.02670436 -0.011685814 0.052078422 -0.11719989
000170 47 e1 5b bc 38 25 05 3c ac fe 90 bd b6 22 78 3d
       -0.0134204095 0.008126549 -0.07079825 0.060579978
000180 3f fa 8a bd ba ef c5 bd a4 34 26 bd b7 07 b6 3d
       -0.06786012 -0.09664865 -0.040577546 0.0888819
000190 30 17 a2 bd 87 7c eb bd 37 d7 0f 3d d3 44 ac 3c
       -0.07914579 -0.11498361 0.035117354 0.021028912
0001a0 94 28 00 be ae d8 e4 3d f1 40 a0 3d 00 2e 90 3d
       -0.1251548 0.11174141 0.078248866 0.07040024
0001b0 cf d7 bd 3c 25 df e2 bb f5 c8 e7 bc f1 0f cf bd
       0.023174195 -0.0069235736 -0.028294066 -0.101104625
0001c0 52 f5 60 3b f8 89 b0 bd 95 20 c7 3d f3 dd e1 bd
       0.003432591 -0.086200655 0.097230114 -0.110286616
0001d0 b3 1a d5 3d 29 5c e5 bd 43 72 c4 bd b9 b9 cc bd
       0.10405483 -0.11199219 -0.09592106 -0.09996361
0001e0 5d 2f b9 bb c8 75 40 3d 1d 11 5a bc ed 8a ee bd
       -0.005651398 0.046987325 -0.013309744 -0.11647592
0001f0 38 83 db 3c fe 26 45 3c 0e 53 9e 3d 0f 99 29 3d
       0.026795968 0.012033222 0.07730685 0.041405734
000200 ff f1 c6 bd b6 a2 cf bc e2 49 cd 3d 8e f0 26 3d
       -0.09714126 -0.025346141 0.10023858 0.040756755
000210 6a df 31 3d cb 6f 15 bd 01 f0 f6 bd 5d a4 80 3d
       0.043425955 -0.036483567 -0.12057496 0.0628135
000220 19 85 d9 bc 01 21 af bd 0d 4a 7a bd e6 10 27 bd
       -0.026552724 -0.08551217 -0.061105777 -0.0407876
000230 39 2a a3 3d c4 e2 a5 bd f7 9c e5 3d 35 e1 da bd
       0.07967038 -0.08099893 0.11211579 -0.10687486
000240 31 0d 8c 3b c7 5f 8e 3d 6f 2a 34 3d 91 aa bc 3d
       0.0042740335 0.06951862 0.04398578 0.092122205
000250 10 6e da bd 4b c4 91 3d 3c d3 0a bd f4 9e c7 bd
       -0.10665524 0.07117518 -0.033892855 -0.09747115
000260 60 8e ce bd 2f 47 c4 bd c7 90 92 3d 99 79 d8 3d
       -0.100857496 -0.0958389 0.0715652 0.10570068
000270 c6 dd bc 3d 33 50 25 bc 00 57 42 bc 36 ff 6a 3d
       0.092219874 -0.010089922 -0.011861563 0.057372294
000280 14 16 80 3d ba 45 c7 bd 86 61 28 bd e7 70 bd 3c
       0.06254211 -0.09730096 -0.04110863 0.023125125
000290 c2 f7 14 bd 20 ac ce 3d 6a b6 18 bc dd c2 ca bc
       -0.036369093 0.10091424 -0.009320835 -0.024751121
0002a0 a3 81 ad 3d 60 03 bd bd 8a d6 a3 bb 6a 91 e7 3d
       0.08471992 -0.09229159 -0.0049999403 0.113070324
0002b0 21 0e e7 3d 8b f0 59 3d 4c 7a cb bd 5f 80 34 bd
       0.11281992 0.053207915 -0.09935436 -0.044067737
0002c0 5b b9 e0 3b cc 67 82 bc b4 72 60 3d 46 a0 50 bc
       0.0068580336 -0.015918635 0.05479689 -0.012733525
0002d0 12 d9 d2 3b b8 8f 86 3a 0d f5 ba bc 6e 8c c5 bd
       0.006434568 0.001026622 -0.022821927 -0.096459255
0002e0 81 74 b9 bd c6 21 b8 3d 58 e5 e5 3d ea 53 dd bc
       -0.090554245 0.08990817 0.112253845 -0.027017552
0002f0 fa ec e1 bd b1 91 86 3d da 22 b0 bc f6 84 3b bd
       -0.11031528 0.06570757 -0.021500994 -0.0457811
000300 69 19 0e bd ca f3 b6 3d 8d 61 63 bd ce 4d 82 3b
       -0.0346922 0.08933218 -0.055512954 0.00397656
000310 ab 26 90 3c 82 e8 8f 3d 9f 00 9b bd fa d1 f4 bd
       0.017596563 0.07026769 -0.07568478 -0.11954112
000320 03 62 a8 3d ec 29 f2 3d 84 16 c1 38 18 dc fd bc
       0.08221819 0.11824402 9.207151e-05 -0.030988738
000330 fc 93 ea 3d f9 2d 9f 3b 68 3a e5 3d e4 21 91 3d
       0.11454007 0.0048577753 0.11192781 0.07086542
000340 c6 bc 88 bd bc 9a d6 3d 6d 04 b0 3c 0b 13 27 3d
       -0.06676631 0.10478732 0.021486485 0.040789645
000350 29 04 09 3d 68 62 9f 3d eb 92 a2 bd 29 6d c5 3d
       0.033451233 0.077824414 -0.07938179 0.09639961
000360 4a f6 81 3c dd 35 41 3d 11 53 9a 3d a6 f3 aa 3d
       0.01586451 0.04717051 0.07535375 0.083472535
000370 90 7d ba bd d6 f4 1e bd d7 2e c2 3d 7b 43 8c 3d
       -0.091059804 -0.038807712 0.0948159 0.068488084
000380 e1 12 0c 3e 69 5f 5b bd 54 22 fd bd 67 78 9d bd
       0.13679077 -0.053557787 -0.12360063 -0.076889805
000390 2d 19 6d 3d 81 83 7d 3c 22 04 c6 3d ee 64 a3 bb
       0.057885338 0.0154732475 0.09668757 -0.004986397
0003a0 dc 35 60 bd 27 ed 45 3d 0a a8 c2 3d fc 29 77 3d
       -0.054738864 0.04832187 0.09504707 0.060342774
0003b0 6f d2 bc bb 6f 8a 7b bd 39 98 84 3d 64 3d 7c 3c
       -0.0057623903 -0.061411317 0.06474347 0.015395496
0003c0 fa b4 b7 3c 56 14 9b 3d 4e a8 75 bd 1e e0 72 bc
       0.022425164 0.07572238 -0.05997496 -0.0148239415
0003d0 bc bc 90 3d 6e b2 99 3b c3 b5 ee bb 2d 35 3b 3b
       0.07067248 0.00469046 -0.0072848513 0.002856563
0003e0 7c 7b 8e 3d 1f ce e7 3d c3 d7 89 3d c1 f8 aa bd
       0.069571465 0.11318611 0.067306064 -0.08348227
0003f0 a0 36 9e 3d 0b e9 c2 bd 82 e6 91 3d d1 79 2f 3d
       0.07725263 -0.09517106 0.07124044 0.042840783

hyper_w_final.2.bias f4 [32]
000000 b2 3c f3 bd a2 33 00 3e b3 7a 5d 3c 89 da 2e 3c
       -0.11876811 0.12519696 0.013518023 0.01067222
000010 39 bd 7a 3c 43 a7 1b 3d b4 5b 0a 3e ac ce f2 bd
       0.015303903 0.03800131 0.13511544 -0.11855826
000020 cb 18 72 bd e9 65 e8 3d 8c aa 2b bd c9 94 d3 bb
       -0.059105676 0.11347563 -0.041910693 -0.0064569456
000030 dc 44 19 3d f5 3b 7d bc 6e d4 f1 bd f0 b3 e9 3d
       0.037419185 -0.015456189 -0.11808096 0.114112735
000040 d7 f3 c7 bd 3e f8 b2 bd 1e ef bc 3d 5a dc 8b 3d
       -0.09763306 -0.08738755 0.092252955 0.06829138
000050 77 83 23 bc 4b 1e e6 3d 8d 2e 9c 3d 70 93 12 be
       -0.009980074 0.11236247 0.07626066 -0.14314055
000060 a8 5a b4 bc 3c bc 8a 3d b3 82 a7 bd 48 41 d7 3d
       -0.022015885 0.06774184 -0.08179226 0.10510498
000070 43 cb ed bc 51 30 c1 bd a1 e7 d8 3d bf 95 d3 3c
       -0.029027587 -0.09433044 0.10591055 0.02582824

hyper_b_1.weight f4 [32, 1064]
000000 ac fa 0d bb 88 78 e1 bc 02 47 c3 b9 f9 35 e8 bc
       -0.0021664305 -0.027523294 -0.00037246203 -0.028346049
000010 ce c9 94 3b 7d 3f 6e bc 67 3e 91 3c d1 34 91 3c
       0.0045406586 -0.014541504 0.017729951 0.01772538
000020 9c 1a c1 bc 70 65 3f 3c 79 75 86 bb f6 39 ba 3c
       -0.023572259 0.011681899 -0.0041033593 0.022732716
000030 3a db b1 3c d7 8f 33 bb 50 43 d4 bc a8 36 01 bd
       0.02171098 -0.0027398968 -0.025911003 -0.031546265
000040 e3 a2 48 bc 96 b9 25 3b 7b 25 6b bc 92 3e 96 3b
       -0.0122458665 0.002528762 -0.014352198 0.0045850957
000050 6b ee 71 3c 4e c5 5b 3c b1 f9 fd ba cd b2 c8 ba
       0.014766316 0.01341374 -0.0019376782 -0.0015312076
000060 75 c4 bc bc 1e 5d 6c bc ca 99 2f 3b ec 56 f4 bc
       -0.023042897 -0.014426498 0.0026794546 -0.029826604
000070 7b c3 da 3c d8 b3 13 bb 03 ea f1 3c 13 cb 5b bd
       0.02670454 -0.0022537615 0.02953053 -0.053660464
000080 e4 6f e4 3c 57 41 3e 3c 12 e1 fd bc 4b 01 b6 bc
       0.027885385 0.011612258 -0.030991111 -0.022217413
000090 d4 59 ab 3c 3b 1b c1 3c 9a cb 00 bc a4 1b ab bb
       0.020916857 0.023572555 -0.007861042 -0.005221801
0000a0 d4 7c 24 3c 75 17 f3 bc c9 17 f3 bc 0f 22 ab bc
       0.010039527 -0.029674271 -0.029674428 -0.020890264
0000b0 0f 34 0b 3c 89 45 92 3c f4 29 bd ba b6 9b a2 bc
       0.008496298 0.017855423 -0.0014432059 -0.01984964
0000c0 bf 15 a4 3c 00 74 82 bc 4c 86 22 3c f2 1b 00 3d
       0.0200299 -0.015924454 0.009919714 0.03127665
0000d0 19 d0 e0 3b e4 05 d8 bc 12 2b 05 bc a8 28 94 bb
       0.0068607447 -0.026369996 -0.008127945 -0.004521448
0000e0 53 8a 5d bc 72 8f 0a 3c 0a 21 5f 3a 8c 17 11 bd
       -0.013521749 0.008457052 0.0008511698 -0.035422847
0000f0 88 ee 68 bc 2b 67 81 bc 08 ba 94 bc 15 4b 05 3b
       -0.0142170265 -0.015796265 -0.018155113 0.0020338942
000100 68 2c 77 3c 8a 94 f3 3c 1a 90 74 bc c5 0c a2 3c
       0.015086271 0.029733915 -0.014926935 0.01978148
000110 5d 38 49 3b 9c fd 9f bb c4 16 18 3a 44 63 59 bb
       0.003070376 -0.0048825275 0.0005801732 -0.003317074
000120 60 42 db bb 63 07 02 3c c1 62 be bc 08 d0 8b 3c
       -0.006691262 0.007936331 -0.023240449 0.01706697
000130 72 d0 08 3c 06 ae 65 bc b1 e6 54 3b c3 06 94 bc
       0.0083504785 -0.014018541 0.0032486136 -0.01806963
000140 f6 ac df 3c 41 5a 66 3c 76 74 ee bb 20 66 e2 3c
       0.027304154 0.014059604 -0.007277067 0.027636588
000150 fb 9e db 3b 61 6d 32 bc 35 75 90 3c a9 1c e4 3a
       0.0067023016 -0.010890336 0.017634014 0.0017403561
000160 de 40 9a 3c 99 58 0a bc c3 2b cd 3c e3 75 b7 bc
       0.01882976 -0.008443975 0.025045281 -0.02239508
000170 a4 8d 1c bb 40 35 b1 bc cc f4 2b 3c 49 34 26 3c
       -0.0023888135 -0.021631837 0.010495376 0.010144302
000180 9b 76 1b 3c cb fd ed bb b7 1a c9 bc bc 46 8f 3b
       0.009488727 -0.0072629205 -0.024548871 0.004372446
000190 29 c2 f7 bb af 85 bf 39 af e2 ca 3c ad b1 dc bc
       -0.0075609875 0.0003652996 0.024766294 -0.026940191
0001a0 7a 58 25 3c ce d0 26 bd 2f 15 b1 3c f5 d7 17 3b
       0.010091895 -0.040726475 0.021616546 0.0023169492
0001b0 29 4a 18 3c af 23 09 bd e0 96 ec bc c4 87 72 3c
       0.009295025 -0.033481296 -0.028880537 0.014802877
0001c0 e1 93 3a 3b 65 9b a1 bc 0e f1 88 3c de 8c f9 3c
       0.002846949 -0.019727418 0.016716506 0.030462679
0001d0 c8 e5 22 3b 9d dd 36 3c 6e 5f c7 bc 32 51 15 3c
       0.0024856199 0.011161235 -0.024337497 0.009113597
0001e0 c6 2e 42 3d 54 52 90 bc bb 0a 1a 3c f8 ec e9 bc
       0.047407888 -0.017617382 0.009401972 -0.028555378
0001f0 78 8f 44 3b 54 64 41 bc 49 d1 7f 3c 00 b4 8b 3c
       0.002999274 -0.011803705 0.015613862 0.017053604
000200 9c 93 19 bd b9 69 23 3c 36 b7 99 bc be f8 cc bc
       -0.037494287 0.009973937 -0.01876412 -0.025020953
000210 16 14 81 bc 53 13 72 3c 69 da 3f bc 6b 19 8d 3c
       -0.015756648 0.014775115 -0.011709788 0.017224034
000220 46 f0 33 bc 97 56 09 bd 72 c9 1f bc 1e b2 b7 3c
       -0.010982579 -0.033529844 -0.009752618 0.0224238
000230 71 43 05 bc 47 80 ff bc 22 b6 d9 bb 12 6c 8b 3c
       -0.008133755 -0.031189097 -0.0066440264 0.017019305
000240 f5 82 fa bb 4a c3 d0 3c 3b ae fc 39 41 62 35 bc
       -0.007645006 0.025483746 0.00048194997 -0.011070789
000250 f6 c5 5c 3c ad 25 82 ba f1 12 ad 3c 2f e9 79 3c
       0.013474932 -0.0009929441 0.021127196 0.015253349
000260 c0 29 a7 3c c9 67 2f ba 52 5d 06 bd fa bf 16 bc
       0.02040565 -0.00066911854 -0.03280384 -0.009201044
000270 3a 0c f9 bc e1 64 0b bd 2a 61 59 bb b8 75 e2 bb
       -0.030401338 -0.034031752 -0.0033169487 -0.006911006
000280 a6 b4 a9 bc f8 96 9b 3c cf 3a 16 bc c2 f0 98 bc
       -0.020716023 0.018992886 -0.0091692945 -0.01866949
000290 2e 65 f2 bc ff 91 c3 3c 02 70 c7 bc d5 0e c2 b9
       -0.029589262 0.023873327 -0.024345402 -0.00037013614
0002a0 fe 9d 04 bd a4 fb f9 3b 94 8f 70 ba a8 85 95 bc
       -0.032377236 0.007628875 -0.0009176668 -0.018252209
0002b0 d8 af 85 3c c1 51 bd 3c 65 be 77 bc 5b 29 23 bc
       0.0163192 0.023110272 -0.015121077 -0.00995859
0002c0 be 39 8f bc 9a dd 6b bc 5b f8 6e 3c 64 ca 16 bc
       -0.017483588 -0.014396096 0.01458558 -0.009203527
0002d0 c7 48 d7 3c 01 26 9a 3c 0b bf 97 bc de 20 0f 3c
       0.02627982 0.01881695 -0.018523714 0.0087358635
0002e0 8a a4 c7 bc 6f e6 1c ba cd d3 30 bc 3c 63 0f bc
       -0.02437045 -0.0005985265 -0.010792685 -0.008751687
0002f0 fe 01 86 bb 85 1e 69 3c ab 7a db b9 47 8e 55 bc
       -0.004089593 0.014228468 -0.0004186233 -0.01303441
000300 c8 88 86 bc 4e 2a d9 3c c3 1d 10 3d 92 50 70 3c
       -0.016422644 0.02650943 0.035184633 0.014667647
000310 ca eb 2a 3c e1 5e 0e ba f8 a4 d7 3c 7d f6 dd 39
       0.010432193 -0.0005431008 0.02632378 0.00042336053
000320 48 80 3c bc 7f a6 c8 3c ee ca 91 3c 68 da f6 bc
       -0.011505194 0.024493454 0.01779696 -0.030133441
000330 38 9d 8f bc e8 42 de bc 28 c4 8f 3c 79 d9 e5 bb
       -0.017531022 -0.027131513 0.01754959 -0.00701445
000340 03 6f 0d 3d 66 b3 c5 bc 1f 32 72 bb d3 79 8c 3c
       0.034529697 -0.024133395 -0.0036956144 0.017147934
000350 32 97 84 bc 08 91 40 bc ee e7 42 bb 8e f0 69 bc
       -0.016185377 -0.011753328 -0.0029740292 -0.014278544
000360 e4 c2 0f bb 1b a8 be 3c b6 c1 cc bc 95 7a 9d bc
       -0.0021936232 0.023273518 -0.024994712 -0.01922349
000370 e2 67 3c 3c 86 3e a0 bc 90 1d 83 bb 74 ec 53 bb
       0.011499377 -0.019561063 -0.004001327 -0.0032336982
000380 33 94 bf bc e4 89 fd 3c 2f 24 87 3c e5 59 01 bc
       -0.023386097 0.03094954 0.016496746 -0.007894968
000390 2f 89 d2 bc f4 08 cb 3c 4f d9 94 3c de dc 76 bb
       -0.02570018 0.024784543 0.018170027 -0.0037668268
0003a0 b3 a2 52 3d 96 db b9 3c a4 dc 7b 3c f3 7d a9 3c
       0.051424693 0.022687715 0.015372429 0.02068994
0003b0 66 17 d4 bc 14 98 0d bc d1 e4 e2 bc 4f 7e 4b 3c
       -0.025890063 -0.008642215 -0.027696999 0.012420251
0003c0 31 e5 9b bc 88 f9 e1 bb 9c 5b dc bb 11 d7 80 bb
       -0.019030185 -0.0068962015 -0.006724788 -0.003931888
0003d0 66 3e 17 3c 7e 06 b0 bc f7 da 7e 3c 70 7d 07 3d
       0.009231186 -0.02148747 0.015555135 0.03307861
0003e0 f9 45 11 3d 20 0a 92 3c 3e 53 39 bc 39 14 b0 3a
       0.03546712 0.017827094 -0.01131135 0.0013433761
0003f0 86 5e df bb 49 3c 4e 3c 79 6a 67 3c 7b 32 ed bb
       -0.006816688 0.012587615 0.014124506 -0.0072386838

hyper_b_1.bias f4 [32]
000000 f2 d4 56 bb d0 81 a6 bc 45 3f 28 3b c9 72 05 bb
       -0.0032780734 -0.020325571 0.0025672477 -0.0020362607
000010 6c f0 6f bb 42 58 5d bb 5e ed 49 bc 13 71 da bc
       -0.0036611808 -0.003377453 -0.012324659 -0.026665246
000020 e5 2d a9 bc 1f 3b 9b bc 21 27 4a ba 2b 46 2c 3c
       -0.020651767 -0.01894909 -0.0007711519 0.010514776
000030 3b ee 33 3c 8b 15 a1 bc 06 26 9b 3a f3 d5 8b bc
       0.010982092 -0.019663593 0.0011836893 -0.017069792
000040 f5 bf c0 bc 26 9b ae bc c4 39 8a 3c c5 1f a2 bc
       -0.023529032 -0.021314215 0.016873248 -0.01979054
000050 bb b8 b5 bc 22 bd 4f 3a 2a 55 d5 bc d2 3b df bc
       -0.022182813 0.00079246063 -0.026041586 -0.027250204
000060 34 16 b5 bc 0a 88 8f 3c 3b d3 dd bc aa 15 95 3c
       -0.022105314 0.017520923 -0.027078262 0.018198807
000070 7d b5 dd bc 81 82 e7 3b 9b f8 97 bc 45 ae 84 3b
       -0.02706408 0.007065118 -0.018551162 0.004049095
