trunk/models/mappo/2022-07-16-02-57-42/default/transfomer.pt (torch, 454288 bytes, 70 tensors)

encoder.obs_encoder.0.weight f4 [215]
000000 0a 05 35 3f 84 0e 10 3f c5 48 1c 3f ff 83 36 3f
       0.70710814 0.5627215 0.6104854 0.7129516
000010 1d 95 36 3f ee cd 30 3f 88 5e 2f 3f 77 c6 2a 3f
       0.7132128 0.69064224 0.6850362 0.66709083
000020 79 cc 1a 3f 2b 97 9e 3f e0 86 9e 3f 59 3b ae 3f
       0.6046825 1.2389883 1.238491 1.3611861
000030 f2 08 39 3f 43 dd 41 3f 22 cd 04 40 2b a4 07 40
       0.72279274 0.75728244 2.0750203 2.119395
000040 26 0a 3a 3f 17 f8 93 3f c8 4b 8e 3f dc 2f 3e 3f
       0.72671735 1.1560086 1.1116877 0.7429178
000050 44 84 3c 3f 4c 60 5a 3f b9 b9 29 3f e1 ec 4d 3f
       0.7363932 0.8530319 0.66299015 0.80439574
000060 fa a2 6f 3f 67 2e 50 3f b3 90 4d 3f c7 be 67 3f
       0.9360806 0.81320804 0.8029892 0.9052548
000070 2a ed 49 3f e3 83 69 3f 3d c5 8a 3f 84 61 73 3f
       0.7887751 0.9121687 1.0841442 0.9507067
000080 69 29 45 3f 8c 8f 88 3f cd a0 9d 3f 9d f0 93 3f
       0.7701631 1.0668807 1.2314698 1.1557804
000090 4c a6 a0 3f c9 77 00 3f aa 4c 8f 3f d7 9c c4 3f
       1.255075 0.5018278 1.1195271 1.5360364
0000a0 af 16 93 3f 54 a4 c4 3f a8 b5 8a 3f 1f 5d 42 3f
       1.1491297 1.5362649 1.0836687 0.7592334
0000b0 b3 d0 18 3f 88 90 5d 3f c3 32 ba 3f bf 25 94 3f
       0.5969345 0.8654866 1.4546741 1.1574019
0000c0 68 f2 91 3f b8 a1 3e 3f 0d 9a 44 3f c0 1c 26 3f
       1.1402102 0.74465513 0.7679756 0.6488762
0000d0 0f 5d 4e 3f da 23 c2 3f 71 fd 7e 3f f8 c0 9f 3f
       0.80610746 1.5167191 0.9960547 1.2480764
0000e0 a5 fb 58 3f e8 fd 27 3f 1d 1c 2d 3f 60 b1 0c 3f
       0.8475898 0.65621805 0.6762102 0.5495815
0000f0 83 3b b1 3f 1e 82 a0 3f b2 43 b6 3f 56 d3 32 3f
       1.3846287 1.2539709 1.4239409 0.69853723
000100 73 01 36 3f c3 5b 04 3f 91 da 42 3f c6 9b 9e 3f
       0.7109596 0.5170252 0.76114756 1.2391288
000110 5f 14 a9 3f 40 d8 b2 3f cb d2 32 3f e5 09 24 3f
       1.3209342 1.3972244 0.69852895 0.640776
000120 32 b1 2c 3f 37 c2 38 3f 5b fa 9b 3f 15 dd 82 3f
       0.6745788 0.7217135 1.2185777 1.0223719
000130 33 43 ab 3f fb 81 63 3f 51 ac 27 3f bd 3c f5 3e
       1.3379883 0.8887021 0.6549731 0.47897902
000140 89 81 12 3f a8 61 9d 3f 0f 15 b2 3f b8 2d c2 3f
       0.57228905 1.2295427 1.3912677 1.5170202
000150 c7 b0 70 3f cc 33 2c 3f a9 9f 2e 3f 4f dc 6a 3f
       0.9401974 0.67266536 0.6821237 0.91742414
000160 58 da 92 3f 15 59 8e 3f eb 35 91 3f cc da 6a 3f
       1.1472883 1.1120936 1.134458 0.9174011
000170 80 b0 17 3f 76 87 14 3f ad 64 74 3f 05 03 87 3f
       0.5925369 0.58019197 0.9546612 1.0547796
000180 21 e0 9c 3f 5f c9 a0 3f b0 5a 4a 3f 3d 20 12 3f
       1.2255899 1.2561454 0.7904463 0.5708044
000190 35 5b 32 3f 0e 05 87 3f ca 9c d8 3f 64 be 9f 3f
       0.6967042 1.0548418 1.6922848 1.2479978
0001a0 69 64 87 3f 57 a5 2b 3f 12 dc 3f 3f 9a 60 30 3f
       1.0577518 0.67049164 0.74945176 0.688974
0001b0 03 56 68 3f 50 b4 b0 3f 0d cf 6a 3f 67 bb a1 3f
       0.90756243 1.3805027 0.91722184 1.2635316
0001c0 48 39 49 3f 41 e1 23 3f af 12 29 3f c1 63 5d 3f
       0.7860303 0.64015585 0.66044134 0.8648034
0001d0 f9 8f bb 3f 44 7c b1 3f 5b df f3 3f 2f e7 94 3f
       1.4653312 1.3866048 1.9052538 1.1633052
0001e0 8f 49 b3 3f 12 e5 a2 3f 19 bd 9e 3f ef 08 2b 3f
       1.4006823 1.2726157 1.2401458 0.66810507
0001f0 1d 2b ab 3f 6d 68 7d 3f a0 e0 a8 3f 7e 7e 31 3f
       1.3372532 0.98987466 1.319355 0.69333637
000200 dd 5d a8 3f e7 73 6a 3f 52 96 33 3f 7d 27 28 3f
       1.3153645 0.915831 0.70151246 0.65685254
000210 14 1f 51 3f cf 20 96 3f a6 5a 75 3f 37 f7 bb 3f
       0.81688046 1.1728762 0.95841444 1.4684819
000220 0a 3a 8b 3f a7 d5 3d 3f 41 15 2a 3f 36 7f 33 3f
       1.0877087 0.7415413 0.6643868 0.70115983
000230 eb 56 8f 3f 7b 13 39 3f 8f 25 8d 3f af 47 30 3f
       1.11984 0.7229535 1.1027087 0.6885938
000240 13 6f 22 3f a7 48 22 3f 47 f9 35 3f a9 21 8e 3f
       0.63450736 0.6339211 0.7108349 1.1104022
000250 39 cb 9f 3f 3f b9 ce 3f f3 43 4c 3f 27 5e 13 3f
       1.2483894 1.6150283 0.7979118 0.5756554
000260 31 9d 3c 3f 79 26 2d 3f 3f 90 90 3f 2c 69 7d 3f
       0.73677355 0.6763683 1.129402 0.98988605
000270 dc ef a0 3f e7 12 38 3f 1b f4 31 3f dc c5 35 3f
       1.2573199 0.7190384 0.695131 0.71005034
000280 3c d6 38 3f c1 f0 9b 3f d1 a3 91 3f 0e 98 98 3f
       0.72201896 1.2182847 1.1378118 1.1921403
000290 e5 d5 50 3f e5 e4 11 3f 33 60 44 3f 1a a8 27 3f
       0.8157638 0.5698989 0.7670929 0.6549088
0002a0 ba 46 8d 3f 57 74 84 3f 48 d8 a1 3f 71 91 47 3f
       1.1037209 1.0348004 1.2644129 0.779563
0002b0 9e c7 16 3f 52 9f 2d 3f 43 e3 3e 3f f8 34 c2 3f
       0.5889834 0.6782123 0.74565524 1.5172415
0002c0 2f 76 8b 3f ab 54 99 3f 97 2e 2f 3f 69 9e 33 3f
       1.0895442 1.1978964 0.68430465 0.7016359
0002d0 c2 2e 33 3f e1 5d 24 3f 5e d3 9a 3f b6 f4 96 3f
       0.6999322 0.6420575 1.2095754 1.179343
0002e0 d5 e8 85 3f f1 06 47 3f f3 9f 20 3f 9f af ff 3e
       1.046168 0.77744967 0.62744063 0.49938676
0002f0 f8 f4 32 3f 1d 2e 9f 3f 45 56 75 3f 2d 5f 9b 3f
       0.6990504 1.2435948 0.9583476 1.213842
000300 3e ee 47 3f e9 9d 35 3f ec 9f 24 3f 12 1c 25 3f
       0.78097904 0.70944077 0.6430652 0.64495957
000310 97 48 81 3f 80 7a 91 3f 4d e7 a9 3f 96 62 4f 3f
       1.0100278 1.1365509 1.3273712 0.81009805
000320 c1 c5 3e 3f 25 8b 33 3f 52 86 50 3f b9 56 9f 3f
       0.745205 0.7013419 0.81454957 1.2448341
000330 b4 25 83 3f ad 01 79 3f 9c 36 3c 3f 8c f0 18 3f
       1.0245881 0.9726818 0.7352083 0.59742045
000340 89 48 1c 3f 23 e4 32 3f 20 b9 94 3f 10 44 6d 3f
       0.6104818 0.6987936 1.1618996 0.9268198
000350 88 cc ac 3f 01 e6 68 3f 2f 9d 39 3f
       1.3499918 0.9097596 0.7250547

encoder.obs_encoder.0.bias f4 [215]
000000 b9 76 7a be 44 a4 f5 be d4 5f c8 be 3c b8 c0 be
       -0.24459352 -0.47976887 -0.3913561 -0.3764056
000010 56 4f 81 be d8 39 b2 be 6c 47 a5 be 93 e4 b2 be
       -0.2525584 -0.34809756 -0.32281053 -0.34940013
000020 df b4 c3 be d7 87 16 3e 39 5b 12 3e 27 eb 10 3e
       -0.3822393 0.14700256 0.14292611 0.14152204
000030 8d 2e 72 3e ef 56 92 be 8f 5b 38 be 65 3b 4c bd
       0.2365057 -0.2858195 -0.18003677 -0.04986133
000040 5b 5e 76 3e 78 4f f8 3d 26 65 26 3e 7e de 3b 3e
       0.24059431 0.121245325 0.16249523 0.18346593
000050 1e 5a 2f 3e 10 0e cf bd 67 e5 69 bb 27 3e 1d bd
       0.1712422 -0.10110104 -0.0035689713 -0.03838935
000060 ec 2e 8e bd 83 23 02 3e 5e 50 0d 3d b9 c8 30 3e
       -0.069425434 0.12708859 0.034500472 0.1726407
000070 43 b3 f4 3d c5 d7 ea 3d 94 44 0d 3e b8 1a 21 3e
       0.11948254 0.11466936 0.13795692 0.15732849
000080 02 85 a9 3d 57 86 8f bc 38 cd c1 bd fc e8 08 bc
       0.08277322 -0.017520113 -0.094629705 -0.008356329
000090 7f 95 ac bc db 80 26 3e 5b 95 9b 3d af 2e aa 3d
       -0.021067379 0.16260092 0.07596847 0.083096854
0000a0 c0 8e 20 3e 04 e1 cc bd 72 bc a4 bd 42 cb f4 3c
       0.15679455 -0.10003856 -0.080437556 0.029882077
0000b0 20 2d c6 3e 4f 3b 15 3e 24 82 b0 3d 61 ec 0e 3e
       0.38706303 0.14573406 0.08618572 0.13957359
0000c0 85 17 ad bd 2e 71 84 be 45 45 be 3c c4 a6 84 3e
       -0.084517516 -0.258676 0.02322639 0.25908482
0000d0 aa 6e 89 3e 2d 37 33 3d b4 4b f5 3d 6b 6b b3 bd
       0.26842242 0.04375379 0.1197733 -0.08760723
0000e0 40 e1 85 be 6d a7 3b bd 7e 2d 3b 3e fd c4 0f 3e
       -0.26148415 -0.045813967 0.18279073 0.14039989
0000f0 a5 81 ae 3d 44 08 09 3e 8d f8 12 be 26 99 87 be
       0.085208215 0.1338206 -0.14352627 -0.2648403
000100 40 50 49 bd 7d e5 91 3e 33 cd b4 3d d8 cf 3e 3d
       -0.049148798 0.28495398 0.08828201 0.046584934
000110 ff 83 c2 3d 9e f6 9c bd 9c 15 6a be 1a 8e a2 bc
       0.094978325 -0.07664226 -0.22859806 -0.01984315
000120 59 6c 4a 3e f7 7d 52 3d d3 b7 02 3e ec d0 26 3e
       0.19767894 0.05138966 0.12765436 0.16290635
000130 bf ed 82 bd e4 6e 5f be e9 cc bb ba ee 49 70 3e
       -0.06393003 -0.21819645 -0.0014328036 0.23465702
000140 50 f7 0d 3e 85 e8 0f 3e 87 1d 9e 3d e6 f4 e1 bd
       0.13863873 0.14053543 0.07720476 -0.11033039
000150 b2 9d 14 be a6 07 91 bc f9 d5 8a 3d be 47 a3 3d
       -0.14513281 -0.017703842 0.06779093 0.07972668
000160 74 29 10 3e c7 11 f5 3d d0 73 0d be d7 5c 24 be
       0.14078313 0.119662814 -0.1381371 -0.1605104
000170 58 76 33 bc 8b 68 32 3e 89 f5 fa 3d 07 60 9d 3d
       -0.010953508 0.17422692 0.12253863 0.076843314
000180 74 ef fc 3d cb 05 bd bd f0 ca 6c be 11 f2 0c bd
       0.123503596 -0.092296205 -0.2312429 -0.03441054
000190 79 2e 00 3d e2 7f 8a 3d bf 8b 94 3c 94 dd c2 3d
       0.03129432 0.06762673 0.018133042 0.09514919
0001a0 75 e9 82 bd a4 ba 86 be 39 c2 42 bc 0c 34 a6 3d
       -0.06392185 -0.2631427 -0.011887127 0.08115396
0001b0 60 c6 7f b7 8c d1 3f 3d f5 6f 31 3e 91 e2 1b be
       -1.5245372e-05 0.0468307 0.17327864 -0.15223147
0001c0 c8 39 52 be df 20 b2 3c f6 96 51 3e fa 7a c4 3d
       -0.20529854 0.02174419 0.20467743 0.095937684
0001d0 f0 7b bd 3d be ad 22 3e 0e 7d e5 bd af c6 95 3d
       0.09252155 0.1588659 -0.11205493 0.073132865
0001e0 49 94 40 3d b7 7d a1 3d 2c 02 4c 3d b4 45 97 3e
       0.047016416 0.07885306 0.04980676 0.29545367
0001f0 1e a3 12 3d a0 19 bb 3d c1 7f 68 3d 47 5c 73 3e
       0.035800092 0.09135747 0.05676246 0.2376567
000200 38 f3 e4 3d 44 74 63 be bc 82 f9 bc 90 94 5a 3d
       0.11179203 -0.2221232 -0.030457847 0.053364336
000210 31 75 e4 3d cc 41 11 3e 62 8b 11 3e 29 cb 3f bd
       0.11155165 0.14185256 0.14213327 -0.046824608
000220 2f 9f cb bd d3 5f c2 bc d6 9c 94 be 40 0c 1b 3e
       -0.09942471 -0.023727333 -0.29025906 0.15141392
000230 bd 78 d8 3d 17 b8 5d 3e b7 a8 04 bc 9e 18 a5 be
       0.10569904 0.21652256 -0.008096865 -0.32245344
000240 ca 57 2a 3c 42 6f ea bc 81 b9 86 bc 9e 8b 0c 3e
       0.010396907 -0.028617505 -0.016445877 0.13725135
000250 93 0e e8 3d 3e 4a d2 bd 16 72 31 be 2d 26 32 bd
       0.11330905 -0.10268067 -0.17328677 -0.04349344
000260 d1 00 40 bd f8 ef 3d 3d 34 7f 04 3e 7c 7b 16 3e
       -0.04687578 0.04637143 0.12939149 0.14695543
000270 52 33 d3 bd 93 07 75 be 38 25 86 bc fd e8 5d bd
       -0.10312523 -0.2392867 -0.01637517 -0.054177273
000280 75 81 c6 3d 71 3e e2 3d 4c 20 0d 3e e0 c2 8c bd
       0.09692661 0.11047066 0.13781852 -0.06873107
000290 bf 76 4e be 53 2c e8 bc 28 04 4d 3b da 14 83 3e
       -0.20162486 -0.028341448 0.0031282995 0.25601846
0002a0 5d 3f 2b 3e ff 77 07 3e 32 8a 78 bd bd 75 74 be
       0.1672339 0.13229369 -0.06067867 -0.23873039
0002b0 6e 12 55 bd c6 f4 f4 3c a2 c3 c9 3d 72 06 48 3d
       -0.05201953 0.029901873 0.09851767 0.04883427
0002c0 0f 9f 21 3e 2a e0 3b bd 34 04 6b be 78 e2 dd bc
       0.15783332 -0.045868076 -0.22950822 -0.027085528
0002d0 6b 50 20 3d 33 1a 1b 3e a7 21 0a 3e 09 03 29 3e
       0.039139193 0.15146713 0.134894 0.16505064
0002e0 fb fb 35 bd 0b 97 3e be f2 9a 6b bd 40 31 83 3d
       -0.04442976 -0.18612306 -0.057520814 0.06405878
0002f0 97 86 44 3e 9e cd 43 3e bf 27 1a 3e f3 05 23 bd
       0.19191967 0.19121405 0.15054224 -0.039800595
000300 4c 0d 6a be 50 a2 29 bd ec e6 bd 3c 54 2d 9a bd
       -0.22856635 -0.04141456 0.023181401 -0.07528177
000310 59 f1 ce 3d b7 1c 40 3e f9 db ab bd ed f5 27 be
       0.10104627 0.18760954 -0.08391566 -0.16402407
000320 df cf b9 bc 49 6e 3e 3e de e0 b9 3d 39 4a ac 3d
       -0.022682128 0.18596758 0.09076093 0.08412594
000330 6f 14 0c 3e 23 ae 6e bd 3d 79 38 be 27 7c c2 bb
       0.1367967 -0.05827154 -0.18014999 -0.0059352103
000340 e1 35 3a 3e f2 db 44 3e 11 48 12 3e f8 53 44 3e
       0.18184616 0.19224527 0.14285304 0.19172657
000350 9f 46 d1 bd 8f 74 5c be 36 f1 24 3c
       -0.10218548 -0.21528839 0.010067275

encoder.obs_encoder.1.weight f4 [64, 215]
000000 f1 65 b4 bd 47 5b 37 3e 1e b6 52 be 33 c6 a8 3d
       -0.08808506 0.17905913 -0.20577285 0.082409285
000010 da 49 92 bd 2a b0 67 3c 9b e8 df bd c0 ec fb bd
       -0.07142992 0.014141122 -0.10933038 -0.12301016
000020 1a e4 21 3d 6a 67 86 be 5b 13 1e be 02 4f 82 be
       0.039524175 -0.26250774 -0.15437071 -0.25450903
000030 5a c7 78 bd 75 57 08 3e a5 02 3e 3c 83 55 c6 be
       -0.06073699 0.13314612 0.01159731 -0.38737115
000040 39 0c 02 bd 9c 9f fc bd ea cc f2 bd 6a be fd 3d
       -0.031749938 -0.123351306 -0.118554905 0.12389834
000050 5d 96 6e 3e ad d2 e2 be e0 16 44 3d 4a d4 d2 bc
       0.23299547 -0.44301358 0.047873378 -0.025735993
000060 ca 48 d7 3d 17 58 32 3e 09 f8 92 3d 4e 95 0a be
       0.1051193 0.17416416 0.07176215 -0.13533518
000070 af ca 4d 3e 98 64 88 3e 04 47 a5 3d b3 a2 11 3d
       0.20096849 0.26639247 0.08070186 0.035555553
000080 f5 b5 f1 bd 3c a9 52 bd be 88 35 be 3b de 72 3e
       -0.11802284 -0.051430926 -0.17727944 0.23717587
000090 00 a5 bf 3e 02 38 f5 bd 2a e5 cc 3d e4 42 11 be
       0.37430573 -0.11973573 0.10004647 -0.14185673
0000a0 8f 83 d2 bc 14 8c c2 3d 79 fa d6 bd 50 bc d3 ba
       -0.025697498 0.09499374 -0.104969926 -0.0016154144
0000b0 a5 08 d8 bd af c6 06 3e 44 ec 46 be b7 d1 90 be
       -0.10548524 0.1316173 -0.19426066 -0.28285
0000c0 fc 08 11 3e f1 f1 23 bd a8 e9 ee 3c 99 a3 72 bd
       0.14163584 -0.040025655 0.02916415 -0.05923805
0000d0 66 36 8a 3e b4 8e c3 be f9 e5 b9 be 6a a4 26 bd
       0.26994628 -0.3819481 -0.36308268 -0.04068414
0000e0 c7 ff 95 bd 17 4d 86 3e 74 40 b2 3d 16 68 30 3e
       -0.07324176 0.2623069 0.087037 0.17227206
0000f0 6d 3b 3f be 86 16 58 3e 29 ff 1d bf 5a 3c 6c be
       -0.18675013 0.21102342 -0.6171747 -0.23069897
000100 15 83 54 3d 8e c0 0b bd cd 17 5c 3e 6c 08 39 3e
       0.051882822 -0.03411918 0.21493454 0.18069619
000110 a1 d5 e1 3d 20 7a 18 3e 75 c4 5c be 78 d7 76 3e
       0.110270746 0.14890337 -0.21559317 0.24105632
000120 01 74 63 3d 25 ae 7e be 8d 14 97 3e 80 5c 69 be
       0.05553055 -0.24871118 0.29507867 -0.22789192
000130 df cc 63 be 21 d9 85 be ce f8 cf 3d 00 41 9a bc
       -0.22246121 -0.2614222 0.101548776 -0.018829823
000140 bf 72 55 3e f9 49 08 3e c6 2b 18 bd ca c1 99 3d
       0.20844553 0.13309468 -0.03715112 0.075076655
000150 04 aa 36 bd 47 db ae 3d 9b fa 91 3d ea 2e 23 bc
       -0.044595733 0.085379176 0.07127877 -0.009959916
000160 66 1b 5c bd 70 b4 b1 3e dc fb 2b 3c 8b 55 dc 3c
       -0.053737067 0.34707975 0.01049706 0.026896259
000170 98 14 cb bc 3c 84 b9 bd ad fd cf 3d 65 d5 53 be
       -0.024790093 -0.09058425 0.10155807 -0.20686872
000180 5e 11 4f 3e 19 1f c8 3e 18 db 72 bd 8b 0c e7 3d
       0.20221469 0.39086226 -0.059290975 0.11281689
000190 5e f4 7e 3c 8c 4d 65 3d ba 42 48 be e8 ce e6 bd
       0.015561191 0.055982158 -0.19556704 -0.11269933
0001a0 2b 57 9e bd dc 34 0e bd 44 9f 6e bd 60 24 cd bd
       -0.0773147 -0.03471838 -0.058257356 -0.100167036
0001b0 c8 66 3c 3d 90 e0 03 be f2 0a 0f 3e c5 b9 af 3e
       0.045996457 -0.12878633 0.13969019 0.34321418
0001c0 5c bd 36 bd 4c 10 a7 3d 1a 62 91 3d d1 90 7d 3e
       -0.04461418 0.08157405 0.070987895 0.24762274
0001d0 fb 19 b0 3e 38 ec 5c 3e 51 22 8a 3e b1 7e 97 3e
       0.34394822 0.21574485 0.26979306 0.29588845
0001e0 ef ac de be 88 39 34 3f c1 c9 76 be ad 50 02 be
       -0.43491313 0.70400286 -0.241004 -0.12726088
0001f0 1d 42 7c be 1a c4 f0 3d d4 7d 13 3f fc 75 aa 3e
       -0.24634595 0.117561534 0.57613873 0.3329314
000200 b2 6a 94 be f8 7b c3 bc 6b 22 53 3d 08 dc b6 3c
       -0.28987652 -0.023862824 0.051546495 0.022321716
000210 34 27 7e be 10 9d 16 3e 6c 53 fd 3d b2 a6 6e be
       -0.24819642 0.14708352 0.12369427 -0.23305777
000220 db dc 22 3e 22 61 01 3d 09 77 47 be b2 8a 02 bd
       0.15904562 0.031586774 -0.19479002 -0.03187055
000230 a6 6f b0 3e 51 af 8b bd f1 9d 1a be be 95 a4 3d
       0.3446018 -0.06820548 -0.15099312 0.080363736
000240 39 63 ba bd 13 63 8f 3d a9 5d 5c bd 19 00 0b 3c
       -0.091009565 0.07001319 -0.05380026 0.00848391
000250 a9 50 87 bd 3d a2 5d be 06 27 66 be 05 29 41 3d
       -0.066071816 -0.2164392 -0.22475824 0.04715826
000260 f0 4d 09 bd e6 8b ac 3e d5 14 d9 bd b1 2b 5e bd
       -0.033521593 0.33700484 -0.105996765 -0.054240886
000270 08 4e a7 3d f6 51 30 3d 52 fa 6a bd 06 79 97 be
       0.0816918 0.043046914 -0.05736763 -0.2958452
000280 0a d8 ad 3d f8 ab a6 bd 22 2f cb bc 50 34 af bd
       0.08488472 -0.08138269 -0.024802748 -0.085549
000290 6f 08 d9 bd 8c 44 bd 3d 5b 3d 58 bd 97 b0 eb 3d
       -0.10597312 0.0924159 -0.052792888 0.11508291
0002a0 fe 98 d8 3d 72 bb 95 bc 49 b0 7a be 0b f5 7f bc
       0.10576056 -0.018277857 -0.2448131 -0.015622388
0002b0 2b cf 01 3d 1a 4c 23 ba e2 6a 32 3d 8b 93 8a bd
       0.03169171 -0.00062292966 0.043558963 -0.06766423
0002c0 56 13 d1 bd 8c 27 09 be b0 6c 90 3e 65 41 a4 3d
       -0.10208766 -0.13393992 0.28207922 0.080202855
0002d0 51 3f 03 3d 1a 9b 26 3a 3c 49 17 3e 01 59 09 be
       0.032042805 0.00063555094 0.1477403 -0.13412859
0002e0 db c8 73 bd 3c fb a5 3d e7 21 de 3d 8a b3 f3 bd
       -0.059517723 0.0810456 0.1084631 -0.11899479
0002f0 01 c5 d1 3d 04 a7 66 3e 7d 8e 6b 3d bd 3b 5a be
       0.10242654 0.22524649 0.057508934 -0.21311851
000300 f4 39 b6 3d 13 a7 a4 3d ed 41 12 3d 9e 58 77 3e
       0.088977724 0.080396794 0.035707403 0.24154899
000310 ec 65 99 3b ad 41 bb 3d 89 d8 85 3e 53 0c 37 3d
       0.0046813395 0.09143386 0.26141766 0.044689488
000320 f9 36 25 3e a3 55 0f be 6f f2 00 bd fe 98 50 3e
       0.16134252 -0.13997512 -0.031481203 0.20370862
000330 f3 c4 9a 3e 7c fd 1c be 00 56 6d 3e c1 52 22 be
       0.30228385 -0.15331072 0.23177338 -0.1585188
000340 9e c9 c4 bb 9c 26 bb 3d 57 b6 5e bd 19 38 16 3e
       -0.00600548 0.091382235 -0.05437311 0.14669837
000350 36 9f 64 3e 20 2b c0 3d 83 2f 3f 3d 46 94 a3 3d
       0.22326359 0.093832254 0.04667617 0.07987265
000360 64 cb 00 3e b0 e6 85 3d 48 51 f8 3d 61 eb 15 bc
       0.12577587 0.06538141 0.12124878 -0.009150357
000370 e7 cd fb 3d 75 40 c1 3d 8f 71 0e 3e 38 14 47 bc
       0.12295132 0.09436122 0.13910507 -0.012150817
000380 cc a4 87 3e 36 d9 86 3e b7 c5 e5 bb 2b 64 10 be
       0.26492918 0.26337594 -0.007012095 -0.14100711
000390 f4 27 1a be 67 b5 3a bf d3 3b 95 3e 8b f2 f2 3d
       -0.15054303 -0.7293305 0.29147205 0.11862668
0003a0 bf 83 ce 3e 49 28 44 3d 7a 04 4e 3c 90 68 8b bc
       0.4033489 0.04788998 0.0125743095 -0.017017633
0003b0 24 7a 43 3e 95 d4 c5 bd c3 07 23 bd 07 9b 72 bd
       0.19089562 -0.096596874 -0.039802324 -0.059229877
0003c0 3e d6 c4 bd 2a b8 84 bd 0b 33 5b 3e 06 e2 68 bb
       -0.09611176 -0.06480439 0.2140619 -0.003553511
0003d0 e5 59 1f bd 01 75 c2 3e ad 18 e5 bd 21 80 ad bd
       -0.03890409 0.37979892 -0.11186347 -0.08471704
0003e0 2d ce 63 3d c4 d0 1f be 6f c8 bb bd 81 b6 36 bd
       0.055616546 -0.15606982 -0.09169089 -0.044607643
0003f0 10 49 cb 3c 88 02 e8 bc 72 cd 57 bb d6 d2 d4 bc
       0.024815112 -0.02832152 -0.0032928851 -0.02597944

encoder.obs_encoder.1.bias f4 [64]
000000 40 56 0b be 1e 9b 94 3b f0 b5 e6 bb 37 1a 26 3d
       -0.1360712 0.004535093 -0.0070407316 0.040552344
000010 7d 9c 91 bc 3d 48 c5 bd 60 4a 60 bc 36 64 6b bd
       -0.017774815 -0.09632919 -0.013689607 -0.057468615
000020 91 bb 57 3c 73 20 62 bd c7 32 bc bd dd b4 a2 3b
       0.013167278 -0.055206727 -0.091893725 0.0049654082
000030 42 4e 2c be 82 dd 76 bd 97 6d 34 bb eb 6c 2e 3d
       -0.16826728 -0.06026984 -0.002753114 0.04258434
000040 32 3b 07 3c dc 15 08 bd 78 ea 07 bd a2 9c 46 bd
       0.008253859 -0.03322397 -0.03318259 -0.04848922
000050 b8 b3 98 bd e5 ea 99 bc 51 2e 4c bd 87 f3 95 3d
       -0.07456154 -0.018788764 -0.04984886 0.0732184
000060 87 d6 88 bc e1 9e 3f bd 8c d5 12 bd ae 3c 0c bd
       -0.016703857 -0.046782378 -0.035848185 -0.034237556
000070 97 71 a5 bc 12 b1 06 bd 4a 0a b9 bc 4a f4 48 be
       -0.020195765 -0.03288371 -0.022587914 -0.19624439
000080 2b dc b6 bd f6 58 f6 bd 14 76 0e bd dd 14 f8 bc
       -0.089287125 -0.12028687 -0.034780577 -0.030283386
000090 9f 14 db bc 1f 44 a6 bd 7e 2f af 3c 7b 52 bc bc
       -0.026743231 -0.08118462 0.02138495 -0.022988549
0000a0 b9 57 8b bc bc 34 b2 bd 9f 01 0d be c4 cd a8 3b
       -0.017009603 -0.087014645 -0.1377015 0.0051514823
0000b0 fe 90 99 bc ac 9a dd bc 0d 85 40 bc cc 1d 59 bc
       -0.018745895 -0.027051292 -0.011750472 -0.013251733
0000c0 41 c7 ea bc b1 d8 b4 bd 2b 72 09 3b 44 81 3c bd
       -0.028659465 -0.08830393 0.002097259 -0.046021715
0000d0 17 56 2c 3c 60 26 1f bd f7 98 4d bd 9b c8 91 bd
       0.010518572 -0.038854957 -0.050194707 -0.071183406
0000e0 3b 92 64 bd df ab 32 3d 54 63 0a 3d 09 b2 49 3c
       -0.05580352 0.04362094 0.033786133 0.012310513
0000f0 55 48 45 bd f8 58 29 3b ef 8f c8 3a 8f 44 3f 3d
       -0.048164684 0.0025840383 0.0015301685 0.046696242

encoder.ln.weight f4 [64]
000000 cf c2 86 3f 45 83 7c 3f 6b 14 91 3f d9 9b 93 3f
       1.0528201 0.986378 1.1334356 1.1531936
000010 28 d2 a1 3f 63 6f 42 3f 7f 4b 84 3f d6 e3 99 3f
       1.264226 0.7595121 1.033554 1.2022655
000020 a2 c5 8e 3f d8 7b 86 3f f8 bd 7b 3f 81 9f 95 3f
       1.1154063 1.0506544 0.98336744 1.1689302
000030 17 df 79 3f a8 3d 97 3f c8 09 79 3f 38 28 8e 3f
       0.97606033 1.1815691 0.9728055 1.1106024
000040 15 67 8b 3f fa 79 52 3f a5 9e 84 3f b6 a0 92 3f
       1.0890833 0.8221737 1.0360914 1.1455295
000050 44 40 81 3f 55 98 88 3f e4 a0 81 3f 4d 25 94 3f
       1.0097737 1.0671488 1.0127225 1.1573883
000060 20 f3 85 3f 7a 75 92 3f 23 64 50 3f 25 5a 84 3f
       1.0464821 1.1442101 0.81402797 1.034001
000070 af 97 77 3f aa 73 82 3f f6 e3 86 3f 7c f7 42 3f
       0.96715826 1.0191548 1.0538318 0.7615888
000080 71 63 81 3f f2 de 7b 3f 62 3d 81 3f 35 13 9f 3f
       1.0108472 0.9838706 1.0096858 1.2427737
000090 8f ec 89 3f 47 1e 6d 3f 77 67 79 3f 46 40 49 3f
       1.0775317 0.92624325 0.974235 0.786137
0000a0 66 a5 63 3f 5f 96 82 3f 5a 60 4c 3f 2a 66 68 3f
       0.88924253 1.020214 0.7983452 0.9078089
0000b0 0a e4 77 3f bc 63 7c 3f 28 ef 66 3f 88 99 84 3f
       0.96832335 0.9858968 0.90208673 1.0359354
0000c0 71 2f 84 3f 2c de 59 3f 77 2a a1 3f c0 0e 85 3f
       1.0326978 0.8510463 1.2591084 1.0395126
0000d0 4a e0 92 3f 02 df 83 3f 64 75 84 3f fa 75 7c 3f
       1.1474698 1.0302432 1.0348325 0.9861752
0000e0 f0 94 89 3f b9 da 96 3f b0 5a 77 3f 70 8f 64 3f
       1.0748577 1.1785499 0.96622753 0.8928137
0000f0 19 78 81 3f 3e d1 99 3f 97 d2 72 3f 7d a0 79 3f
       1.0114776 1.2016981 0.94852585 0.9751051

encoder.ln.bias f4 [64]
000000 12 cc e4 bb fa 15 01 3d 49 c2 e6 3c 7c 01 88 3d
       -0.006982335 0.0315151 0.028168814 0.06640908
000010 e0 97 34 3d 6b 0b 10 3e 5a 8d 51 bc 49 7b d6 3c
       0.04409015 0.14066856 -0.0127900485 0.026181834
000020 de 43 86 bc 10 30 2f 3d 6d 2a 7b 3d ec 6d 1e bd
       -0.016389783 0.042770445 0.061319757 -0.03867905
000030 48 98 e7 3d 92 c2 39 bd b4 1f eb bd fd 26 54 bd
       0.11308342 -0.045351572 -0.11480656 -0.051794995
000040 ce 6c 53 3d 5e f0 ab 3d b2 2a 03 3e 7c 35 95 3d
       0.051617436 0.08395456 0.12809256 0.07285592
000050 11 93 a8 3c dd b1 a2 bd 85 99 b6 3d 4d dd 46 bd
       0.02057794 -0.07944081 0.08916 -0.048550893
000060 4c 09 2c 3d 1d 42 05 3d 74 0b 10 3d 24 cd c0 3d
       0.042001054 0.032533754 0.035167173 0.094141275
000070 de d7 9b bc a4 8b ac bd f2 c9 a7 bd 46 72 72 3e
       -0.019023832 -0.08425072 -0.08192815 0.23676404
000080 b1 54 c4 3d ca c5 87 3d f4 6e 99 3d a1 0e a4 3d
       0.09586466 0.06629522 0.07491866 0.08010603
000090 56 35 79 bd 6f a4 1d 3e b2 88 14 bd c7 6e 01 3e
       -0.06084188 0.15394758 -0.036263175 0.12639914
0000a0 26 a9 00 bc 1c 1f b1 3d bb ce 7c 3e 08 97 63 3d
       -0.007852828 0.08648512 0.24688236 0.055563956
0000b0 71 91 f2 3c e2 54 f2 3d 1c 98 c1 3b b0 44 23 bd
       0.029610367 0.11832596 0.0059080254 -0.039860427
0000c0 d6 fb dc bd cb 3f f6 3d 46 e0 23 bd 4c 13 fd 3b
       -0.107902214 0.12023886 -0.040008806 0.0077232476
0000d0 bc c1 07 bd c6 9b a0 3d 3c 16 10 bd 6b ed 11 3d
       -0.033143744 0.078422114 -0.035177454 0.03562681
0000e0 3a 12 f1 3d 10 db b6 3c 98 b3 09 3d b7 e0 d6 bd
       0.117710546 0.022321254 0.03361854 -0.1049208
0000f0 c3 73 32 3c 99 d2 88 3d 21 7a 46 bd 78 5e 0e 3e
       0.010891858 0.06680793 -0.048456315 0.13903224

encoder.blocks.0.ln1.weight f4 [64]
000000 8c 02 8d 3f 76 68 6c 3f 23 28 9c 3f ae 07 9d 3f
       1.1016402 0.92346895 1.2199749 1.2267969
000010 cc 01 8d 3f 98 c7 28 3f 83 f5 82 3f 4b 68 88 3f
       1.1016173 0.65929556 1.0231174 1.0656828
000020 5c 48 79 3f 19 d9 6c 3f 7f 1c 67 3f ef 33 85 3f
       0.97376037 0.92518765 0.90277857 1.0406474
000030 61 16 7c 3f 39 7f 96 3f 54 fc 82 3f e0 20 8c 3f
       0.9847165 1.1757575 1.0233254 1.0947533
000040 03 93 90 3f 9b 96 52 3f 92 ec 92 3f ce 4b 8f 3f
       1.1294864 0.82261056 1.1478446 1.1195009
000050 97 60 8c 3f e6 14 86 3f b0 2b 89 3f b3 6c a1 3f
       1.0966977 1.0475128 1.0716457 1.2611297
000060 b1 22 86 3f e5 66 82 3f f2 1e 57 3f cc 3f 74 3f
       1.0479337 1.0187651 0.84031594 0.95409846
000070 dd b4 71 3f 60 98 91 3f d2 af 95 3f 7e fd 57 3f
       0.944166 1.1374626 1.1694281 0.84371173
000080 93 1a 93 3f dc 72 7d 3f 80 24 70 3f 8a a8 9d 3f
       1.1492485 0.99003386 0.93805695 1.2317059
000090 f2 0a 91 3f ef 08 35 3f 41 9b 96 3f 2e 3e 47 3f
       1.1331465 0.70716757 1.176613 0.77829254
0000a0 fd a2 79 3f 79 73 59 3f 5d 3f 3b 3f b9 f4 82 3f
       0.97514325 0.8494182 0.7314356 1.0230933
0000b0 31 ae 77 3f 1f 16 85 3f 21 34 4f 3f ec 0f 82 3f
       0.9675017 1.0397376 0.8093892 1.0161109
0000c0 1e 31 76 3f b9 33 47 3f ed 9d 9e 3f a7 5a 61 3f
       0.96168697 0.778133 1.2391945 0.8802895
0000d0 5b 1d 96 3f 4d d5 74 3f 37 8e 90 3f 4c 9e 71 3f
       1.1727709 0.9563797 1.12934 0.94382167
0000e0 8a 9c 80 3f 73 09 a3 3f 80 df 8c 3f 69 1e 66 3f
       1.0047772 1.2737259 1.1005707 0.8989015
0000f0 d6 07 81 3f e6 49 94 3f 22 7f 7d 3f 78 97 6d 3f
       1.0080516 1.1585052 0.99022114 0.9280925

encoder.blocks.0.ln1.bias f4 [64]
000000 90 f0 ff bd 40 4d bb 3d 80 56 02 3e d1 5b 1e 3e
       -0.124970555 0.09145594 0.1272831 0.15464713
000010 5b e8 a3 3c 2f d7 a9 bc cd 9b e7 3c 5f 42 50 bd
       0.020008257 -0.02073249 0.028272534 -0.050844546
000020 84 71 34 bd a2 fe 47 bd f2 28 7a bd 90 5d 0f be
       -0.04405357 -0.04882682 -0.061074205 -0.14000535
000030 b1 f8 f8 bd 50 55 18 be 0e dc b3 bd 63 e1 97 bd
       -0.12156809 -0.14876294 -0.087822065 -0.07416036
000040 63 b9 2d 3e cd af 91 bd 93 ea e4 3d 29 dd ed 3c
       0.1696525 -0.071136095 0.11177554 0.029036121
000050 65 c1 01 3e c0 9e bb bd a9 4d 79 3c 5a 99 f9 bc
       0.1267143 -0.091611385 0.0152162695 -0.030468632
000060 e4 7b bc 3d 52 c9 8c 3d 51 b8 4f 3d 38 b7 c1 bd
       0.09203318 0.06874336 0.050712887 -0.09458774
000070 74 c0 54 bd f0 68 04 bd 9a 1b ec bd af 3b 2b 3d
       -0.05194135 -0.03232664 -0.11528702 0.041804966
000080 a7 c8 12 3d af 97 4a bd b0 56 31 bd 4a 8c 84 3c
       0.03583589 -0.049461063 -0.043295562 0.016180176
000090 2f d8 7b bd 4e c7 bf bd 45 a1 d2 3a 13 14 d0 3c
       -0.061485466 -0.09364186 0.001606979 0.025400197
0000a0 ba 48 ec 3d ca 72 a9 3b c3 77 b5 3d 04 5c 8b 3d
       0.11537309 0.0051711546 0.08860733 0.0680466
0000b0 45 36 55 3d bb 15 99 3d 5e b2 0a bb 6f c3 45 3d
       0.05205371 0.07474848 -0.0021163444 0.048282083
0000c0 e3 a1 01 be 8f 79 a7 3d b4 d8 86 3c b8 43 ab bd
       -0.12659411 0.08177482 0.016460754 -0.08362526
0000d0 0b 2c 9e bc 3e b6 e3 3d ee 4f 8d 3d 65 2d 39 bd
       -0.01930811 0.11118744 0.06900011 -0.045209307
0000e0 bb be 49 3c 32 c9 1b 3d 73 65 17 3e 1d 8c 8b bd
       0.01231354 0.03803367 0.14784794 -0.06813834
0000f0 20 e8 e1 bd e5 06 cc 3b 80 7d b8 bd 0a f3 84 bc
       -0.110306025 0.006226408 -0.09008312 -0.016229171

encoder.blocks.0.ln2.weight f4 [64]
000000 c7 4b 9d 3f 12 a6 83 3f e1 dd 8a 3f 6b 5b 9e 3f
       1.228875 1.0285056 1.0848962 1.2371649
000010 40 1e 8a 3f af 47 94 3f 6d 4e b3 3f 6e 80 90 3f
       1.0790482 1.1584376 1.4008309 1.1289194
000020 62 0a 8b 3f be 68 8c 3f 30 0c 87 3f 29 42 99 3f
       1.0862544 1.0969465 1.0550594 1.1973315
000030 c3 d6 74 3f 33 57 90 3f 27 3e 96 3f 68 a1 99 3f
       0.956402 1.1276611 1.1737717 1.2002382
000040 4b b4 95 3f 84 36 89 3f 33 77 98 3f 06 d0 a7 3f
       1.1695646 1.0719762 1.1911377 1.3110359
000050 d4 04 90 3f 17 52 88 3f 23 d3 87 3f 4d 68 88 3f
       1.1251473 1.0650052 1.0611309 1.065683
000060 c3 db 7b 3f df 20 96 3f b2 ac 8c 3f 4c 2f 9a 3f
       0.98382205 1.1728781 1.0990202 1.2045684
000070 3f d5 a5 3f 9b e1 7c 3f 07 7a 91 3f 4d 84 92 3f
       1.2955703 0.98781747 1.1365365 1.1446625
000080 51 ef 7e 3f a5 78 91 3f 3c 9c 88 3f 72 d5 7d 3f
       0.9958392 1.1364943 1.0672679 0.99153817
000090 0d 00 74 3f a3 9c b1 3f 2d a4 9c 3f a9 c1 96 3f
       0.9531258 1.3875927 1.2237602 1.177785
0000a0 22 77 87 3f fd 23 a2 3f 31 ca a7 3f 08 a1 9a 3f
       1.0583231 1.2667233 1.3108579 1.2080393
0000b0 50 65 a4 3f 6e 93 88 3f d0 4b 88 3f ef 06 9d 3f
       1.2843418 1.0669992 1.0648136 1.2267741
0000c0 30 0b b0 3f c9 43 8c 3f da 96 a8 3f ec 66 a1 3f
       1.3753414 1.0958186 1.3171036 1.2609534
0000d0 83 bd 95 3f 39 5c ad 3f e4 70 72 3f 39 5f 7f 3f
       1.1698459 1.3543769 0.9470351 0.99754673
0000e0 6c 6a 9e 3f 6c 97 a4 3f 12 be 96 3f d2 02 8a 3f
       1.2376227 1.285871 1.1776755 1.0782111
0000f0 54 f0 99 3f 2d ab 92 3f d0 93 88 3f bc 8d 6c 3f
       1.2026467 1.1458489 1.0670109 0.9240377

encoder.blocks.0.ln2.bias f4 [64]
000000 19 00 aa bd 87 8a b6 3d bf 54 9f 3d 11 04 4c 3c
       -0.083008 0.08913141 0.07779836 0.012452141
000010 79 a7 54 bd 0f 2d 11 bc ec e3 84 3d 3b eb a6 3c
       -0.051917527 -0.00886084 0.06488785 0.020375839
000020 2d ef 19 bd 2d 2a 47 bd 86 4e c8 3c 0e ee ed 3c
       -0.03758161 -0.048624206 0.024451505 0.029044177
000030 05 4d a8 bc c3 9c 20 3d ad ec 7c bd 88 da 7c bc
       -0.020544538 0.039212 -0.06174915 -0.015432961
000040 4a c0 5c bc ae 6d ef bc 94 0b 68 3d 7c 78 45 3d
       -0.01347358 -0.029227104 0.056651667 0.048210606
000050 c5 ef 3d 3d 06 da 0c bc 24 0a 48 3d 00 98 c6 bc
       0.04637124 -0.008596903 0.048837796 -0.024242401
000060 d8 7d 66 3d dd b2 8a 3c e6 61 cd 3c 12 dd f1 bd
       0.056272358 0.016930992 0.025071096 -0.11809744
000070 ff 86 6d bd 86 5d 4b bd c4 a1 96 bd d2 e0 05 be
       -0.05799007 -0.049649738 -0.07355073 -0.13074043
000080 55 63 84 3d fd c6 09 bc ab 8b 26 bd 27 f8 b7 ba
       0.064642586 -0.008409259 -0.04066054 -0.0014035747
000090 67 48 90 3d 3c b3 bc bd 79 b2 82 3d b2 0e a7 bd
       0.0704506 -0.09213874 0.06381697 -0.081571
0000a0 83 25 b7 3d 44 a7 13 bc 56 0d 9d bd 75 c0 85 bd
       0.08942702 -0.009012047 -0.07668559 -0.06530849
0000b0 90 3d 28 bd fb 1a aa 3d 10 67 5e 3d 29 a5 93 bd
       -0.041074336 0.08305927 0.054297507 -0.07209236
0000c0 02 6c 38 bd a3 52 00 3e 66 40 80 3d b3 32 df bc
       -0.04502488 0.12531523 0.06262283 -0.027245855
0000d0 f7 2f f9 3c 92 cf f6 3d 4d b7 71 ba 6b 19 09 3c
       0.03041838 0.1205131 -0.00092207344 0.0083678765
0000e0 32 d4 ed bb 5c c8 9c bd 58 13 17 3e 9a 3b 3e 3d
       -0.0072579617 -0.07655403 0.14753473 0.04644356
0000f0 da 49 4a bd 88 c4 bf 3b 5e a0 e2 bb 51 3d 58 bd
       -0.049386837 0.005852286 -0.00691609 -0.05279285

encoder.blocks.0.attn.mask f4 [1, 1, 12, 12]
000000 00 00 80 3f 00 00 00 00 00 00 00 00 00 00 00 00
       1.0 0.0 0.0 0.0
000010 00 00 00 00 00 00 00 00 00 00 00 00 00 00 00 00
       0.0 0.0 0.0 0.0
000020 00 00 00 00 00 00 00 00 00 00 00 00 00 00 00 00
       0.0 0.0 0.0 0.0
000030 00 00 80 3f 00 00 80 3f 00 00 00 00 00 00 00 00
       1.0 1.0 0.0 0.0
000040 00 00 00 00 00 00 00 00 00 00 00 00 00 00 00 00
       0.0 0.0 0.0 0.0
000050 00 00 00 00 00 00 00 00 00 00 00 00 00 00 00 00
       0.0 0.0 0.0 0.0
000060 00 00 80 3f 00 00 80 3f 00 00 80 3f 00 00 00 00
       1.0 1.0 1.0 0.0
000070 00 00 00 00 00 00 00 00 00 00 00 00 00 00 00 00
       0.0 0.0 0.0 0.0
000080 00 00 00 00 00 00 00 00 00 00 00 00 00 00 00 00
       0.0 0.0 0.0 0.0
000090 00 00 80 3f 00 00 80 3f 00 00 80 3f 00 00 80 3f
       1.0 1.0 1.0 1.0
0000a0 00 00 00 00 00 00 00 00 00 00 00 00 00 00 00 00
       0.0 0.0 0.0 0.0
0000b0 00 00 00 00 00 00 00 00 00 00 00 00 00 00 00 00
       0.0 0.0 0.0 0.0
0000c0 00 00 80 3f 00 00 80 3f 00 00 80 3f 00 00 80 3f
       1.0 1.0 1.0 1.0
0000d0 00 00 80 3f 00 00 00 00 00 00 00 00 00 00 00 00
       1.0 0.0 0.0 0.0
0000e0 00 00 00 00 00 00 00 00 00 00 00 00 00 00 00 00
       0.0 0.0 0.0 0.0
0000f0 00 00 80 3f 00 00 80 3f 00 00 80 3f 00 00 80 3f
       1.0 1.0 1.0 1.0
000100 00 00 80 3f 00 00 80 3f 00 00 00 00 00 00 00 00
       1.0 1.0 0.0 0.0
000110 00 00 00 00 00 00 00 00 00 00 00 00 00 00 00 00
       0.0 0.0 0.0 0.0
000120 00 00 80 3f 00 00 80 3f 00 00 80 3f 00 00 80 3f
       1.0 1.0 1.0 1.0
000130 00 00 80 3f 00 00 80 3f 00 00 80 3f 00 00 00 00
       1.0 1.0 1.0 0.0
000140 00 00 00 00 00 00 00 00 00 00 00 00 00 00 00 00
       0.0 0.0 0.0 0.0
000150 00 00 80 3f 00 00 80 3f 00 00 80 3f 00 00 80 3f
       1.0 1.0 1.0 1.0
000160 00 00 80 3f 00 00 80 3f 00 00 80 3f 00 00 80 3f
       1.0 1.0 1.0 1.0
000170 00 00 00 00 00 00 00 00 00 00 00 00 00 00 00 00
       0.0 0.0 0.0 0.0
000180 00 00 80 3f 00 00 80 3f 00 00 80 3f 00 00 80 3f
       1.0 1.0 1.0 1.0
000190 00 00 80 3f 00 00 80 3f 00 00 80 3f 00 00 80 3f
       1.0 1.0 1.0 1.0
0001a0 00 00 80 3f 00 00 00 00 00 00 00 00 00 00 00 00
       1.0 0.0 0.0 0.0
0001b0 00 00 80 3f 00 00 80 3f 00 00 80 3f 00 00 80 3f
       1.0 1.0 1.0 1.0
0001c0 00 00 80 3f 00 00 80 3f 00 00 80 3f 00 00 80 3f
       1.0 1.0 1.0 1.0
0001d0 00 00 80 3f 00 00 80 3f 00 00 00 00 00 00 00 00
       1.0 1.0 0.0 0.0
0001e0 00 00 80 3f 00 00 80 3f 00 00 80 3f 00 00 80 3f
       1.0 1.0 1.0 1.0
0001f0 00 00 80 3f 00 00 80 3f 00 00 80 3f 00 00 80 3f
       1.0 1.0 1.0 1.0
000200 00 00 80 3f 00 00 80 3f 00 00 80 3f 00 00 00 00
       1.0 1.0 1.0 0.0
000210 00 00 80 3f 00 00 80 3f 00 00 80 3f 00 00 80 3f
       1.0 1.0 1.0 1.0
000220 00 00 80 3f 00 00 80 3f 00 00 80 3f 00 00 80 3f
       1.0 1.0 1.0 1.0
000230 00 00 80 3f 00 00 80 3f 00 00 80 3f 00 00 80 3f
       1.0 1.0 1.0 1.0

encoder.blocks.0.attn.key.weight f4 [64, 64]
000000 bf c5 83 3d 6d 7d f7 3c 37 1c 3d be 15 77 99 3e
       0.064342014 0.030211175 -0.18467794 0.29973665
000010 63 b1 15 be c8 5c 15 be c3 d5 47 3d 22 fd 21 3e
       -0.14618449 -0.14586174 0.048787843 0.15819219
000020 0d 96 0a be 57 40 70 3a a1 92 ab be f2 b3 c3 3e
       -0.13533802 0.0009164861 -0.33510306 0.38223225
000030 4e f0 98 bd cb 68 c5 3c 96 7e 93 bd 26 49 d3 3e
       -0.074677095 0.02409782 -0.07201879 0.41266745
000040 44 5d 9c bd a1 11 31 be a9 cb 76 bd e2 c2 2d 3e
       -0.076349765 -0.17291881 -0.06025282 0.16968873
000050 9c 49 32 3e c2 ee 87 be af 37 a2 bd a7 e8 b2 3d
       0.17410892 -0.26549345 -0.07920777 0.08735781
000060 81 2c 58 be a9 45 a6 bd 05 e5 0e 3e 4f 7d 96 3d
       -0.21110727 -0.08118755 0.13954552 0.073481195
000070 a6 f0 2e ba f7 91 5b 3e 1e 90 06 3d 44 17 4b be
       -0.00066734327 0.214424 0.032852285 -0.19833094
000080 e5 8e 0a 3d 1c 25 23 3e 2f 66 4c be 38 54 84 bd
       0.03382768 0.15932125 -0.19960855 -0.06461376
000090 05 86 8c 3c 2b 02 1f be 49 09 a2 3c ce d7 00 bc
       0.01715375 -0.15528171 0.019779818 -0.007863952
0000a0 dd e6 2a 3d 0c 28 81 3d 9d 03 13 bd ca f6 f1 bd
       0.041724075 0.063064665 -0.035892118 -0.118146494
0000b0 b4 ce 19 be 9d 07 82 3d dc a0 10 be 65 0b 47 be
       -0.15020257 0.06349108 -0.14123863 -0.1943794
0000c0 98 88 74 3e 52 c9 3b 3d fa c5 c4 3d b6 e6 79 bb
       0.23880231 0.04584629 0.096080735 -0.00381319
0000d0 20 08 96 3d ff 11 5f bd b6 32 30 3d fc 7c 4b be
       0.073257685 -0.05446052 0.04301711 -0.19871897
0000e0 0c dd d6 bd 5c cf 93 3e a5 c9 16 bd d5 27 a4 be
       -0.1049138 0.2886914 -0.036813397 -0.3206164
0000f0 55 0e eb bd 40 f4 bb 3d 19 bd 4a be 46 57 e7 3c
       -0.11477343 0.09177446 -0.19798698 0.028239857
000100 b0 9b 85 bc dc 20 92 bd 91 b1 9b bd 24 f2 7a be
       -0.01630959 -0.07135174 -0.076022275 -0.24506432
000110 ce 43 62 3e df 85 5f 3c f3 a9 a2 bd 06 30 8b be
       0.22096178 0.013642757 -0.079425715 -0.27185076
000120 be 5e 78 bc 4e 28 b2 bc d5 0b 62 3e f4 9a 99 be
       -0.015159307 -0.021747734 0.22074826 -0.30001032
000130 7c 33 0f bd b0 f9 eb 3d 94 32 5a 3e 7a e6 91 be
       -0.03496121 0.115222335 0.21308357 -0.28496152
000140 39 15 f7 3d 0a e4 52 3e 82 e7 6e 3d 54 67 8b be
       0.12064595 0.20594802 0.05832625 -0.2722727
000150 36 fc 3c 3d f7 d9 6d 3e ef 52 90 3c 10 35 0d be
       0.046138965 0.23227678 0.01761767 -0.13789773
000160 06 e2 66 3e 51 08 ec 3d 18 10 8e bd 72 b7 93 bd
       0.22547159 0.11525024 -0.069366634 -0.07212724
000170 db 1b ed bd fa de 0b be fb 09 bf bd 9f cf 13 3e
       -0.11577579 -0.13659278 -0.093280755 0.1443467
000180 8f 4a b7 bd 2d f1 cf bd 3b a1 22 3e 77 25 d4 3d
       -0.08949768 -0.101534225 0.15881817 0.10358708
000190 c1 49 71 3d 77 64 8f 3d 78 ab 3a 3d 9f 29 0e bc
       0.058908228 0.07001584 0.04557368 -0.008676915
0001a0 3e 39 fe 3d 6c 28 3e be 9c 42 64 bd 89 e8 22 3e
       0.12413262 -0.18570107 -0.055727586 0.15909018
0001b0 5a c4 e9 3d c9 0f 83 bd 27 21 5a 3e 35 b5 4e 3c
       0.11414404 -0.06399495 0.21301709 0.012616445
0001c0 0f 65 74 be 02 d2 20 bd 50 bc 3e 3d db f2 65 bd
       -0.23866676 -0.03926278 0.046566308 -0.05613981
0001d0 fc c6 d1 bd 7b 8b e8 bb 8b 0a 7c bd 13 16 4e 3e
       -0.102430314 -0.0070967055 -0.061533492 0.20125608
0001e0 af c0 dc 3d d7 e8 80 be d2 38 1a 3e 33 35 44 3e
       0.10778939 -0.25177643 0.15060738 0.19160919
0001f0 b3 69 ff 3d 07 8b c7 bd 78 f5 1e 3e 11 e7 19 be
       0.124713324 -0.09743314 0.15523326 -0.15029551
000200 20 fc 21 3e 1d 38 e0 3d 40 ba 80 3e 0b 18 3a 3e
       0.15818834 0.10948203 0.25142097 0.18173234
000210 38 64 4e be 58 f5 b3 3d 09 5d 1a 3e 2c 23 75 bc
       -0.20155418 0.0878703 0.15074553 -0.014961999
000220 d6 0c 36 3e b0 22 0e be dc b7 3d 3d 42 53 e5 bd
       0.17778334 -0.1388042 0.04631792 -0.11197521
000230 5e d8 e7 bd c7 b2 b5 be c3 79 d0 3d 40 cf 94 3d
       -0.11320566 -0.3548796 0.10179474 0.07266092
000240 13 c9 2c bd 21 62 50 3c d9 7b ce 3d 15 24 fb 3b
       -0.042183947 0.012718708 0.10082216 0.0076642134
000250 f2 5c 32 be 84 d2 05 be a4 4e d2 bd 84 3f 45 3e
       -0.17418268 -0.13068587 -0.10268906 0.1926251
000260 05 c4 2e 3e cf bd 62 be 2c aa 23 3e 1b 65 22 3e
       0.17066963 -0.22142719 0.15982884 0.15858881
000270 cc fc 70 3d 6d e9 b6 3b 14 24 18 be 92 3f 86 bc
       0.058834836 0.0055820257 -0.14857513 -0.016387735
000280 ba ba 93 3b b6 a0 c7 bb 64 fb 9b 3d b5 b2 e8 3d
       0.0045083435 -0.0060921563 0.07616308 0.11362211
000290 d4 51 95 bc b5 ad a4 bc 80 4c 9d bc 83 b8 9a bb
       -0.018227495 -0.020102361 -0.019201517 -0.0047217025
0002a0 a4 6f a5 bb 78 e6 09 bd bd 93 38 be 35 69 dc bb
       -0.005048709 -0.033667058 -0.18025108 -0.006726409
0002b0 0f a9 99 bd 83 59 9b bc fd f7 8e bc 3a 15 3f be
       -0.075029485 -0.018963581 -0.017452234 -0.18660441
0002c0 03 df 04 3d 39 d2 38 bc a5 8a 11 be 94 10 52 bd
       0.032439243 -0.01128059 -0.14213045 -0.05128534
0002d0 0f d6 a2 be 19 7c 9b 3c 1c 8b 1d 3e 8b e0 c4 bc
       -0.3180394 0.018980073 0.15385097 -0.024032852
0002e0 58 c1 e7 3d bf 11 7c 3d 8e 93 22 be eb 25 97 3c
       0.11316174 0.06154036 -0.158766 0.018450698
0002f0 ac 4e 6f bd 19 7b 2f be 9a 3b a9 bd 77 9f 3f 3e
       -0.058424637 -0.17136802 -0.08263321 0.18713175
000300 72 a9 85 be 29 48 37 be aa 40 38 be b6 be 86 bc
       -0.2610584 -0.1789862 -0.17993417 -0.01644836
000310 9f 7c db 3c a8 9f db bd 4e a7 6f bd 20 25 90 3d
       0.026792822 -0.107238114 -0.058509164 0.07038331
000320 23 5a 29 be a2 6b 71 bc f5 08 56 be a4 2c 9b 3e
       -0.1653829 -0.014735134 -0.20901854 0.30307496
000330 26 ed cd 3d d1 06 7d 3e 2e 55 80 bd 90 c2 b3 3d
       0.10054998 0.24709632 -0.06266247 0.08777344
000340 a6 79 22 3e d5 1c a6 bc fd 75 a4 3c 03 b3 f3 3d
       0.15866718 -0.02027742 0.020075792 0.11899378
000350 e5 fd 01 3e 14 79 b7 3d 0b 9e fb bc 27 3e 91 be
       0.1269451 0.08958641 -0.03071501 -0.2836773
000360 c6 b8 48 be 72 ce 86 3e 64 5c 90 bd 87 00 fc bd
       -0.19601735 0.2632938 -0.07048872 -0.12304788
000370 6f 07 f8 3d 58 44 1b 3e 0b 13 3a bd ca ac 91 bc
       0.12110793 0.1516279 -0.045428317 -0.017782588
000380 d0 d0 0b 3d 9d 7c cf 3d 46 09 56 be 21 44 e9 bc
       0.034134686 0.1013119 -0.20901975 -0.02847487
000390 28 b7 81 3e 0c 51 f7 bc 7e 5a 74 3d 15 45 d4 bc
       0.2533505 -0.030190013 0.059656613 -0.025911847
0003a0 63 6d 58 bd 11 26 f0 3d 09 d7 d1 3d 1e 80 86 bd
       -0.052838694 0.117260106 0.10246093 -0.06567405
0003b0 c1 7f 83 bd a3 48 bd bd 75 80 1b bd cc 8d 71 3b
       -0.064208515 -0.0924237 -0.037964303 0.00368582
0003c0 ce a4 42 bd d2 73 6b bd 01 75 1c 3e 6f 7b a9 3c
       -0.04752045 -0.0574835 0.15279008 0.02068874
0003d0 da 37 b3 3e 8e 8a c8 bd d8 25 dd bd 72 ea c3 bc
       0.3500355 -0.09792052 -0.10798234 -0.023915503
0003e0 b8 da 03 b9 bb 0a b9 3d 19 27 93 3d 60 8e da bd
       -0.00012574613 0.0903525 0.07185192 -0.10671687
0003f0 a4 09 0d 3c c7 e2 df 3d b0 c4 fc bd 4c 91 09 be
       0.008608256 0.10931926 -0.12342203 -0.13434333

encoder.blocks.0.attn.key.bias f4 [64]
000000 d9 58 34 39 b5 70 68 39 5c 75 61 ba 60 5a b8 39
       0.00017199236 0.00022167231 -0.0008600557 0.0003516255
000010 83 b3 2e ba 20 dc c2 39 3f ca 36 3a 28 eb 01 3a
       -0.00066643226 0.0003716657 0.0006972886 0.00049560005
000020 5d a7 e9 3a a6 0b 8b 39 52 c0 b8 b8 6b 20 25 38
       0.0017826367 0.00026520825 -8.809626e-05 3.9369257e-05
000030 51 c8 f6 b9 35 77 5c b8 52 1f 8a ba 1f 77 61 3a
       -0.00047070024 -5.2563108e-05 -0.0010537899 0.0008600819
000040 19 43 03 3a 70 14 ee 39 06 19 c7 39 24 4d 6f 3a
       0.0005007252 0.00045410125 0.00037974882 0.00091286213
000050 03 39 9b b9 90 61 95 b9 df af 09 3a 04 3a e4 39
       -0.0002960638 -0.00028492184 0.0005252342 0.00043530774
000060 80 24 a4 39 46 a0 ed b8 6a 48 96 ba 46 d9 7d b9
       0.00031307712 -0.00011330894 -0.0011465673 -0.00024208901
000070 c2 41 1a ba 53 1e f5 b8 57 68 66 ba dc ff b0 39
       -0.00058844325 -0.00011688159 -0.00087893516 0.00033759966
000080 ca 47 48 ba 98 02 00 39 79 c2 06 3a 01 00 2a 39
       -0.0007640092 0.00012207997 0.0005140673 0.00016212465
000090 e5 f4 d4 ba 87 9d fc 39 d4 ca 33 3a 67 c0 5b b8
       -0.0016247301 0.00048182553 0.0006858532 -5.2392857e-05
0000a0 5c e2 27 ba da dd 07 3a 8c 9a 8a 39 79 d7 b4 b8
       -0.00064042746 0.00051829 0.00026436558 -8.623204e-05
0000b0 cc 76 18 ba 4e de 1b ba 4e 16 52 3a de 5a da b9
       -0.0005816042 -0.0005945907 0.0008014188 -0.00041647902
0000c0 b2 dd 50 3a 62 ca 8d 39 84 4b cf 3a 54 ff ee 39
       0.00079676055 0.00027044403 0.0015815352 0.00045585132
0000d0 a0 52 bb 38 09 8a b6 3a c0 2a f8 36 e2 ff 80 3a
       8.932245e-05 0.0013926636 7.3959527e-06 0.0009841884
0000e0 3d 31 cf 3a e7 d5 53 3a c9 95 d5 b9 2e 70 35 ba
       0.0015807521 0.0008080885 -0.00040738125 -0.0006921318
0000f0 09 5a 81 39 e4 6e c9 b9 8e 6a 83 3a a3 88 5a 39
       0.0002467188 -0.00038420327 0.0010026263 0.00020841001

encoder.blocks.0.attn.query.weight f4 [64, 64]
000000 b2 ce 55 3e 2f 59 41 3e db e9 12 be 1c f5 27 bd
       0.20879629 0.18881677 -0.14347021 -0.04100524
000010 79 f7 a6 3e e1 c9 0e bd e0 a9 74 3c df 58 1b be
       0.32610682 -0.034860495 0.0149330795 -0.1517062
000020 5b 24 94 3d a2 6d fd bd f7 ab ed 3c 3b 4a f6 3d
       0.07233497 -0.123744264 0.029012663 0.12025877
000030 91 5e f0 bc d8 3c 16 be 8e 56 37 be 30 b0 89 3d
       -0.029341968 -0.14671648 -0.17904112 0.06723058
000040 be 3e 3e be 0c b4 b0 bd 1b 4b 2d 3d 1c 1e f4 bc
       -0.18578622 -0.08628091 0.042307954 -0.029799514
000050 1c 73 8f 3e dd 3b 05 be b8 e8 05 bd df d9 e6 3d
       0.2801751 -0.13011117 -0.03269264 0.11272024
000060 99 a7 a8 3d 00 77 6e be 8c 1c 1a 3e 41 c2 8f bd
       0.08235092 -0.23287582 0.15049952 -0.07019473
000070 07 c6 9f be e5 e8 f0 bd e5 89 4a be 2b aa 57 ba
       -0.3120577 -0.11763171 -0.19779165 -0.0008226956
000080 e1 a7 cf bd da 1f 67 be f2 ec a6 bd 1c c1 59 be
       -0.10139442 -0.22570744 -0.081506625 -0.21265072
000090 61 b5 3a be dc b6 88 bc 2d b4 25 3d 3c ac 6a 3d
       -0.18233253 -0.016688757 0.040455032 0.05729316
0000a0 bd 00 57 3e f4 d3 b9 bc 86 4f 54 3c f6 56 83 3c
       0.20996375 -0.022684075 0.012958413 0.016032677
0000b0 10 ca c1 bd c2 76 d6 3d cd 45 b0 3d 34 fc 0a 3e
       -0.094623685 0.1047187 0.086070634 0.1357277
0000c0 cd 95 c2 3d 91 a6 be 3d d5 d0 c4 be 1e f0 06 be
       0.095012285 0.09309114 -0.38440576 -0.13177535
0000d0 b1 a7 45 3d f1 54 ab 3d ef 90 80 3e 98 0c ce 3d
       0.048255626 0.08365811 0.25110576 0.10060996
0000e0 3f 77 29 3e 72 f1 14 bc c9 bc 32 3d c6 2b 1d 3e
       0.16549395 -0.009090768 0.04363707 0.1534873
0000f0 9a 43 09 3e d2 13 0a 3d c2 41 0e be fe 7b a4 bd
       0.13404694 0.03371031 -0.13892272 -0.08031462
000100 38 fe 77 bd 09 af 6a be 84 6d 63 3e a6 6f ac 3d
       -0.060545176 -0.22918333 0.22209746 0.08419733
000110 4c 70 64 be be ea 86 3d c9 98 28 3e 35 9b eb 3d
       -0.22308463 0.06587742 0.16464533 0.11504213
000120 bc 2a 2e 3e 13 34 1a 3e 3f bd e4 bc c9 13 cf bc
       0.1700849 0.15058927 -0.02792227 -0.025277989
000130 13 45 96 3c 9a aa fb 3d 6c 41 a9 3c 1e 7d 52 bd
       0.018343484 0.12288399 0.020661078 -0.051388852
000140 e8 03 df bc 31 72 c5 3d c1 d5 e4 3a 2f 69 03 3d
       -0.027223542 0.09640921 0.0017458723 0.032082733
000150 1e 35 27 be 2e 25 94 3e 53 08 78 3c 2b 8c 7e be
       -0.16328856 0.28934616 0.015138703 -0.24858157
000160 00 7f 02 bd 18 4e b4 3e 9d 75 e5 bd 04 3a c8 3c
       -0.031859398 0.3521583 -0.112040736 0.024441727
000170 3e ba 05 3e 6c 64 67 3d 36 5c e5 3d 7f ee 86 bc
       0.13059327 0.056492254 0.111992285 -0.016471146
000180 e5 08 3e bd 2a 22 13 3e 59 6b 42 bd 2b 7a 3c 3e
       -0.0463952 0.14368501 -0.047465656 0.18405978
000190 37 e6 e2 3d e6 40 8a bc de b7 32 bd 42 ae c4 bd
       0.11079066 -0.01687665 -0.04363238 -0.096035495
0001a0 f7 17 9f bd d7 06 bd 3d c0 43 ed 3b 92 b1 96 bd
       -0.07768243 0.0922982 0.0072407424 -0.073580876
0001b0 4e 79 30 3d 23 17 42 bd 4d 15 c9 bc dd 23 1c bc
       0.043084435 -0.047385346 -0.02454629 -0.009530035
0001c0 dd 33 81 be 7f 88 be bd 66 c9 ba 3e 5c 9b 66 3d
       -0.2523488 -0.09303378 0.3648178 0.056300506
0001d0 b6 5f 06 be f4 b6 a1 be 13 24 44 be fd 11 a8 bd
       -0.13122448 -0.31584895 -0.19154386 -0.08206556
0001e0 96 d0 d8 bd 2f 56 f4 bd a3 bd 82 3d 65 a2 ce 3c
       -0.105866596 -0.11930501 0.063838266 0.02522392
0001f0 30 4e 87 bc 5b f3 5c bd 74 6d 1c bc cc 1f a9 bd
       -0.016516775 -0.05394302 -0.00954758 -0.08258018
000200 a6 4d b6 bd 3f 80 21 3e cc 84 4f be d4 82 2c 3e
       -0.08901529 0.15771578 -0.20265502 0.16846782
000210 e1 27 b6 be 79 4e 6e bc a0 12 1a be 63 21 15 3e
       -0.355773 -0.0145450765 -0.15046167 0.14563517
000220 cf 9d d4 be ac 23 4e be bb ef 36 3b 0d 17 c3 3c
       -0.41526648 -0.20130795 0.0027913887 0.023814702
000230 1d 8d 58 bd cb 61 40 bd 9d 86 ad 3d 33 75 28 3d
       -0.05286895 -0.046968263 0.08472941 0.041127395
000240 f1 be 73 3e c6 be 66 3d 2f 9a c4 3b 50 69 2b 3d
       0.23803307 0.05633428 0.0059998254 0.04184848
000250 15 40 68 bc bf 33 3b bd 21 61 99 bd c1 4a 52 bd
       -0.014175435 -0.045703646 -0.07489229 -0.051340822
000260 03 f0 2a 3e 71 0a fb bc 62 ae d6 3d f9 9c c7 bd
       0.1669312 -0.030644627 0.1048248 -0.09746737
000270 43 33 b5 bd 81 19 32 3d b5 fd d4 3a bf f3 07 3d
       -0.08847668 0.043481354 0.0016249927 0.03319144
000280 d4 87 98 bd 6b b7 9a bd d0 7e eb 3d 88 a7 32 be
       -0.07447782 -0.075545155 0.11498797 -0.1744672
000290 44 30 49 3c c0 98 7f bd dd 04 af bd 02 3e a8 3e
       0.012279574 -0.062401533 -0.085458495 0.32859808
0002a0 42 80 98 3d d7 4a a7 bd 08 f2 fa bc af e2 1e be
       0.07446338 -0.081685714 -0.030632988 -0.1551616
0002b0 a8 96 9d 3d a6 52 f3 bc 23 4e b0 bc 27 a1 cd b9
       0.07694751 -0.029702496 -0.021521633 -0.00039220715
0002c0 cf b5 99 3d e7 be 94 3e 08 77 1e 3e ad e6 80 be
       0.0750538 0.29051897 0.15475094 -0.25175992
0002d0 85 87 72 bd 25 45 77 3e c3 be 1d 3e 79 2b 20 3d
       -0.059211273 0.2414747 0.15404801 0.03910396
0002e0 f4 ff c5 bd 4c 7f 06 3e 1e 72 7f 3d 42 01 44 3d
       -0.0966796 0.13134497 0.06236469 0.047852762
0002f0 b1 08 ee 3b 99 e5 c3 3d 5d d3 0f bd d1 74 9a 3d
       0.0072642197 0.09565277 -0.03511368 0.07541812
000300 09 e0 ce 3d 23 92 8f bd b5 25 5c 3d 02 41 9c bd
       0.10101325 -0.07010295 0.053746898 -0.07629587
000310 32 fb cd 3e 15 49 63 3c 03 d0 fd 3d ed 55 86 be
       0.4023071 0.013872405 0.12393191 -0.2623743
000320 19 81 ab 3e c0 db 13 3d b3 7a 72 3d 57 fc f0 3d
       0.3349693 0.03609824 0.059199046 0.1176688
000330 8f b9 13 3d 3c c0 a6 bd ae 2d 43 be 1f 58 27 3d
       0.036065634 -0.081421345 -0.19060394 0.040855523
000340 84 67 a1 be d8 d6 b5 3d 7a 9a 0d 3e e7 84 88 bb
       -0.3152429 0.08878869 0.1382846 -0.004166234
000350 34 df 43 3d 57 48 17 3e 4f fd 53 bd d9 82 fa bc
       0.047820285 0.14773689 -0.051755246 -0.030579971
000360 66 23 ee bd f9 c6 c7 3d a7 0b 0b 3e ad a1 b5 3c
       -0.116278455 0.09754748 0.13578664 0.02217182
000370 ff e3 fc 3c 63 40 50 bc 83 68 a2 bd 64 3a 9d 3c
       0.030870436 -0.0127106635 -0.0793009 0.019192882
000380 65 19 e0 3d 2f 2a e3 bd fc 59 ec bd a1 f8 1b 3d
       0.109423436 -0.1109203 -0.11540601 0.038078908
000390 64 eb 7c bd aa eb 15 3d 6d 18 75 bc 1d ae dc bc
       -0.061747923 0.0366017 -0.014959437 -0.026938492
0003a0 28 0f 53 3e 1d 6b b4 3d fb ab 11 3d b7 2f ed 3d
       0.2061125 0.08809493 0.035564404 0.115813665
0003b0 17 33 49 3d 54 fe 0b 3c d8 14 98 3c 2b 66 9f bd
       0.04912099 0.008544523 0.018564627 -0.07783159
0003c0 67 d2 d4 bd a9 13 54 be 32 d8 8c be c5 74 a7 3d
       -0.103916936 -0.20710625 -0.27508694 0.08176569
0003d0 7c 70 c6 bc ba 1d b5 bd be 4f bb bc 80 f9 18 3e
       -0.024223559 -0.088435605 -0.022865172 0.14938927
0003e0 ad 5c 3b 3d 81 96 5c be 87 80 f6 3c 80 db bb bd
       0.04574268 -0.21541788 0.030090583 -0.09172726
0003f0 ea 1b ae 3d c9 4d 1d be 0f 20 98 3d 12 64 05 bd
       0.08501418 -0.15361704 0.0742799 -0.032566138
