distribute_rl_cartpole/learner/model/0/yh_cartpole_model/policy.pth (torch, 5967 bytes, 7 tensors)

actor_layer.0.weight f4 [64, 4]
000000 92 1a c7 3e f5 e6 d8 3e ae 3e bc 3f 73 de ad 3f
       0.3888746 0.42363706 1.4706628 1.3583511
000010 55 89 27 bc 60 78 b9 bd df 05 84 be 15 ef dc 3e
       -0.010225614 -0.09056163 -0.2578573 0.43151155
000020 46 1b ff 3e eb 01 e8 be 0e 41 c8 3e ba cc c5 3e
       0.49825495 -0.45313963 0.39112133 0.38632756
000030 ce da 93 3e bb 19 b0 3d 64 ef 38 bf be 26 1f bf
       0.28877872 0.08598658 -0.7224028 -0.6216849
000040 93 39 c8 3e da 0d 8b bd 3e 6b 8c 3f 20 84 87 3f
       0.39106426 -0.06789751 1.0970228 1.0587196
000050 3e b1 21 bf 94 a1 ad be 80 ba 7a 3c 56 f8 63 3f
       -0.63161075 -0.33912337 0.015303254 0.89050806
000060 c0 84 08 bf 12 2b 96 bd 68 39 51 bd 3b 1a a8 bf
       -0.5332756 -0.07332434 -0.051080137 -1.3133005
000070 ac f3 94 3e 83 95 0c bf a0 13 16 be 58 34 84 bf
       0.29092157 -0.54915637 -0.14655924 -1.0328474
000080 c9 e9 b2 3e f1 2a c9 3d 9f 97 b4 3f ac 2d 8f 3f
       0.3494399 0.098226435 1.4108771 1.1185813
000090 d1 c9 9a bd 22 b5 fc 3e 15 68 89 3f e8 cf 95 3e
       -0.07558025 0.49356943 1.0734888 0.29260182
0000a0 2b 61 2f 3f 47 76 90 3e 53 ca f7 3e 37 bc a8 3f
       0.6850764 0.28215238 0.4839655 1.3182439
0000b0 fb 4d 41 3f 5b ec e4 3e ec de 31 3f f8 f1 54 3f
       0.75509614 0.44711575 0.69480777 0.83181715
0000c0 40 24 37 3f a8 20 a3 be 8a e8 c2 bf 58 a8 98 3d
       0.7153969 -0.31860852 -1.5227215 0.07453984
0000d0 c7 3b 78 bf 40 33 d0 3e 2d 53 81 3d 52 38 64 bf
       -0.96966213 0.406641 0.06314693 -0.8914844
0000e0 7e 66 21 3f 24 51 c8 bd 4a 11 09 bf 3d b5 69 bf
       0.63047016 -0.09781101 -0.53542006 -0.9129217
0000f0 f8 2c 03 3e b6 5d 8a bf 1e bb ac bf b1 8b 57 bf
       0.12810123 -1.0809848 -1.3494604 -0.8419753
000100 4e f9 1c 3f 82 cc c4 bd 23 72 f9 be 06 6b 62 bf
       0.6131791 -0.09609319 -0.48719892 -0.88444555
000110 2a 9d 3f bf 26 7c df be e4 9d ed 3f 26 73 80 3f
       -0.7484919 -0.43649405 1.8563809 1.003514
000120 19 4e 64 3f d6 e6 22 bf a3 b9 aa be 94 50 fb be
       0.8918167 -0.6363348 -0.33344755 -0.49084914
000130 25 e6 83 be e1 f3 d9 3e 8d e7 ce 3f 94 dc a8 3f
       -0.25761524 0.42568877 1.6164414 1.3192315
000140 75 76 cb bd 8e 0f e8 bd 63 b4 ee 3e 0d ea a5 bd
       -0.09934703 -0.11331092 0.46622 -0.08101282
000150 81 f6 90 3e ea 11 99 be eb f0 e5 be 6a 23 96 bf
       0.28313068 -0.2989648 -0.44910368 -1.1729558
000160 73 de 3c be ae 0d a9 3d e0 81 67 bf e4 8b 83 bf
       -0.18444233 0.08254562 -0.9043255 -1.0277066
000170 a4 b7 43 3f 11 5d e4 3e 95 37 81 bf 3f ea 77 bf
       0.7645209 0.44602254 -1.0095087 -0.96841806
000180 fd 72 eb 3e 8e 11 a7 be 2b f5 3c bf e2 60 69 bf
       0.45986167 -0.3263058 -0.73811597 -0.91163456
000190 a3 01 28 bf 40 ee c2 3e 65 97 8a bf 56 76 ad bf
       -0.656275 0.38072395 -1.0827452 -1.3551738
0001a0 a6 bf 84 be e9 7c ef be f9 1b e2 bf 72 a1 9b bf
       -0.25927466 -0.46774986 -1.7664787 -1.2158644
0001b0 20 61 f9 be 2e 06 e1 be 72 76 a2 3f 1b ac 19 3f
       -0.48706913 -0.43950027 1.2692397 0.6002824
0001c0 64 c4 79 be 05 bb e2 be 0a 45 e6 bf 0a 59 c3 bf
       -0.24391323 -0.4428331 -1.7989819 -1.5261548
0001d0 9c 75 87 3b 33 09 ca be 5b ec d5 bf 9e 51 a1 bf
       0.004133893 -0.39460143 -1.6712755 -1.2603033
0001e0 49 9d 97 be 85 f5 23 bf ee 10 ea bf c6 34 90 bf
       -0.29612187 -0.6404651 -1.8286417 -1.1266105
0001f0 51 75 1e bf 67 2c 01 bf 57 e8 e4 bf 3a 42 bb bf
       -0.6189776 -0.5045838 -1.7883404 -1.4629586
000200 77 d0 0c 3e 16 04 b1 be 5e 50 c4 3f c1 c7 02 3f
       0.13751398 -0.3457343 1.5337026 0.5108605
000210 4d 68 2a bf 0a bf 2a be d4 dc 96 bf 70 de 82 bf
       -0.665654 -0.16674438 -1.1786141 -1.0224133
000220 31 ae 13 bf f4 c2 66 bc ac 6a 6b 3f c3 33 32 bf
       -0.5768767 -0.014084566 0.91959643 -0.6961023
000230 bb ba e7 3e 0c 51 c7 be 6f dd d1 3e e3 69 24 bf
       0.45259652 -0.3892902 0.40989253 -0.6422407
000240 88 be ea bd 45 b9 c5 be 4c da 62 3f 98 80 85 3f
       -0.11462122 -0.38617912 0.88614345 1.0429869
000250 9a cf b2 3e 33 f5 68 bf 00 24 35 3f 90 96 81 3f
       0.34924012 -0.90999144 0.70758057 1.0124073
000260 f2 db 71 3e 7f 40 f9 be 70 21 7d bf dd a3 b1 bf
       0.23619059 -0.4868202 -0.98879147 -1.3878132
000270 b2 12 02 3e a6 25 c1 3e b1 41 54 bf 5e 2c 72 bf
       0.12702444 0.37724036 -0.8291274 -0.9459895
000280 dd 7c 3f 3f d4 35 e7 3e 72 4d ae be c2 83 5e bf
       0.747999 0.45158255 -0.3404346 -0.86919796
000290 f9 11 84 3e 69 81 f6 3d 70 37 91 3f a9 99 6f 3f
       0.25794962 0.12036402 1.1345043 0.9359384
0002a0 c8 32 c6 3e 53 3c fe be 15 7f c9 be 8e f8 23 3f
       0.38710618 -0.496554 -0.39354768 0.6405114
0002b0 ba 76 98 3e ef 2f 1b bf 86 87 69 bf cc 50 12 3f
       0.2977808 -0.60620016 -0.9122242 0.57154536
0002c0 7c f1 32 bf e5 e4 35 be 04 9c e4 be 56 8a a0 bf
       -0.69899726 -0.17763098 -0.4465028 -1.2542217
0002d0 48 3b 55 be b9 da 81 3e 28 58 be 3e b2 e2 e6 3e
       -0.20823395 0.25362185 0.37176633 0.4509483
0002e0 9a e7 20 3e a4 46 1c 3f 28 e3 a0 3f cc b4 73 3f
       0.15713349 0.6104529 1.2569323 0.9519775
0002f0 48 75 0b bf c4 29 10 b9 10 ac ed bf 32 56 85 bf
       -0.5447583 -0.00013748469 -1.8568134 -1.041693
000300 c0 ac 17 3e 4e 7b d5 3e 24 b5 46 bf 3d 6f 19 bf
       0.14811993 0.41695637 -0.7762015 -0.5993536
000310 ad d1 b4 be aa d7 f3 be fd 51 87 3f 5e c4 4b 3f
       -0.3531622 -0.47625476 1.0571896 0.7959651
000320 07 59 16 bf b2 8b a5 be a3 e2 58 3f 0f 20 4f 3f
       -0.58729595 -0.32333142 0.8472082 0.8090829
000330 89 9f 1b be 62 27 12 bf ad fa fc bf 15 87 a0 bf
       -0.15197577 -0.57091343 -1.9764 -1.2541224
000340 4a 3e 80 be 46 f9 a5 3e a5 b6 aa 3e c0 6f 84 3f
       -0.25047523 0.32416743 0.33342472 1.0346603
000350 7d 54 2d bf ff de 68 be be d6 94 3f 26 b7 8d 3f
       -0.67707044 -0.22741316 1.1628034 1.1071517
000360 7f 22 09 be 50 0d 30 be 37 a0 7c 3f 91 f9 ae 3d
       -0.13392065 -0.17192578 0.9868197 0.08543695
000370 f7 53 e6 be fa 58 04 bd c1 93 3a 3f 0c bd 8f 3f
       -0.44985935 -0.032311417 0.72881705 1.1229568
000380 5c e1 0e bf 4e 30 60 3f e5 32 da 3e 4a 6c 1d 3f
       -0.5581262 0.8757371 0.42616954 0.6149336
000390 6c 90 be be 21 9f 0b bf 6f 26 40 3f a2 29 77 3f
       -0.3721956 -0.54539686 0.75058645 0.965479
0003a0 2d b7 ad 3e ba 73 f7 3e 88 f4 58 3f 22 9c 41 3f
       0.33928815 0.4833048 0.84748125 0.75628865
0003b0 ff a5 f5 be 56 02 31 be ab 10 67 bf a1 1f ba bf
       -0.47978207 -0.17286047 -0.9025981 -1.4540902
0003c0 12 ff d9 bd 86 c0 2e 3e f1 05 81 3f 5b 8a 45 bf
       -0.10644354 0.1706563 1.0079938 -0.7716424
0003d0 8d ee 95 be cc 2d 1a bf e3 eb 52 3f e1 aa 4f 3f
       -0.29283562 -0.6022613 0.82391185 0.81120116
0003e0 03 c3 15 3e 2f a5 d3 3e 5c 0d 18 bf 83 ee 55 bf
       0.14625172 0.41336963 -0.59395385 -0.83567065
0003f0 2f 63 0d be b4 55 05 bf 9c 2b de bf 89 31 a8 bf
       -0.13807367 -0.520839 -1.7357059 -1.3140117

actor_layer.0.bias f4 [64]
000000 ff 5f c9 3e 68 ed 0f bf 91 31 ae 3d 46 2f 36 3e
       0.39331052 -0.5622163 0.08505548 0.17791471
000010 92 11 d3 3e 84 f9 fc be ad 39 e2 3d 66 44 4b be
       0.41224343 -0.49409115 0.11046157 -0.1985031
000020 fd c2 bd 3e d3 09 eb bc e7 26 69 be 49 ba 85 be
       0.37062827 -0.028691208 -0.22768746 -0.26118687
000030 d2 a0 b1 be 45 68 7e be f0 4a 30 3d 65 d1 23 3e
       -0.3469301 -0.24844463 0.043040216 0.15997846
000040 08 b4 2e 3d d2 29 af 3e 3a 46 03 be 5d 80 78 3e
       0.04265216 0.34211594 -0.12819758 0.24267717
000050 1a d7 35 bf f0 65 3a 3e c8 12 fd 3d e9 a8 80 be
       -0.71031344 0.18202949 0.12357098 -0.25128868
000060 36 cb 92 be 95 72 df be a7 06 e9 3d d7 19 d9 be
       -0.28670663 -0.43642107 0.11378222 -0.42402527
000070 ef 35 97 be 00 7b 79 be 10 f1 21 bf 55 68 2a 3e
       -0.29533336 -0.24363327 -0.6325846 0.16641362
000080 d2 3b 2c 3e 4f 64 3e 3e 71 c7 af be 6b 8a 04 bf
       0.16819695 0.18592952 -0.3433185 -0.5177371
000090 4d 3e 88 be a0 1e e3 be 7d f2 07 3e bd 91 4f be
       -0.26610032 -0.44359303 0.13276096 -0.20270438
0000a0 ab 9c 82 be 35 09 ad 3e 81 c2 58 be 62 82 d8 bd
       -0.25510153 0.33796087 -0.21167947 -0.105717435
0000b0 86 d0 68 3e cd 3d 06 be 96 77 da be 66 4d 8e be
       0.22735795 -0.13109513 -0.42669362 -0.27793425
0000c0 2d 84 06 bf 23 f3 68 3e 9c 37 fd be 52 d1 69 3e
       -0.52545434 0.22749 -0.4945649 0.22833756
0000d0 20 99 24 be fb 1e 8a 3e 88 36 82 3e 99 e3 38 3e
       -0.16074038 0.2697676 0.2543223 0.18055572
0000e0 42 55 91 be 1d 6d 8c 3e f9 5f 81 be 45 e0 1e 3e
       -0.2838536 0.27426997 -0.25268534 0.1551524
0000f0 94 25 10 3d 66 c2 bb 3e 15 eb 8a 3e 9d b3 5d 3e
       0.035192087 0.36671752 0.27132478 0.21650548

actor_layer.2.weight f4 [2, 64]
000000 b0 fb 25 bf a0 53 00 bf 64 4c 2a be 18 5f 81 3e
       -0.6483717 -0.501276 -0.16630703 0.25267863
000010 d4 bb b7 be bc b8 14 3f 07 72 cd 3e a1 12 6a bf
       -0.3588549 0.5809438 0.40126058 -0.91434675
000020 cb b9 12 bf 1a b3 6a bc 80 56 94 3f 49 8c 3f 3f
       -0.5731475 -0.014324928 1.1588898 0.74823433
000030 25 07 9f 3e 6b c1 2f bf c7 ae d4 3e 48 8f 96 bf
       0.31060138 -0.6865451 0.41539595 -1.1762476
000040 cb 28 a3 3e 71 61 f6 be e4 2d 0e bf f7 9d 5c bf
       0.3186706 -0.48121217 -0.55538774 -0.86178535
000050 3f 8e 10 bd b5 af ba 3e ff 7c 6f 3e 76 9c 16 bf
       -0.035291906 0.3646218 0.23387526 -0.5883249
000060 2b 52 4e bf ae 87 8e bf 84 9c 85 3f 75 8f b0 3e
       -0.8059413 -1.1135156 1.043839 0.3448445
000070 1b 3d c1 bf f4 36 98 bf 63 e4 b2 bf 3d ab 77 3f
       -1.5096773 -1.189177 -1.3975948 0.96745664
000080 29 c0 8d be 31 91 1d 3f ac e8 1e bf 31 e0 18 bf
       -0.2768567 0.6154967 -0.6207378 -0.5971709
000090 94 08 64 3f ee 38 5e 3f d1 24 0e 3f e6 e3 13 bf
       0.8907559 0.8680562 0.5552493 -0.5776962
0000a0 09 01 01 bf 33 5c d3 be 3e fc 12 3f be d1 07 3f
       -0.50392205 -0.4128128 0.5741614 0.53054416
0000b0 a7 4b 30 3f 47 24 66 3e 81 6f 67 3f 6a d5 ba bf
       0.68865436 0.22474776 0.90404516 -1.4596379
0000c0 65 a3 6e 3f af 15 a0 be de c1 31 3f 66 b3 66 3f
       0.9321807 -0.31266543 0.6943644 0.9011749
0000d0 c6 c4 41 3f c8 ca fd be 1b 01 0d be a9 c9 f9 be
       0.7569088 -0.49568772 -0.13769953 -0.48786667
0000e0 ba 9a 48 3f c6 8f 6f be 37 73 7a 3f 4a a9 29 3f
       0.78361094 -0.23394689 0.97832054 0.6627394
0000f0 40 73 7d 3e 89 ae b9 be aa be 96 3e fd 09 71 3f
       0.24750996 -0.36265972 0.2944234 0.94155866
000100 f1 30 10 3f d9 d8 16 3f c2 07 1c 3e b7 03 72 be
       0.5632468 0.58924633 0.15237334 -0.2363423
000110 3b 90 b4 3e 4c 5a 35 bf 04 24 03 bf 93 27 3d 3f
       0.3526629 -0.7084091 -0.5122683 0.7388851
000120 4a 17 10 3f b5 32 37 3d 8b 69 84 bf 9c 2c 4c bf
       0.56285536 0.044726092 -1.0344709 -0.7975557
000130 1d d4 01 bf 26 8b 19 3f a0 e1 a1 be 90 45 83 3f
       -0.50714284 0.5997795 -0.3161745 1.0255604
000140 cc f2 bc be 01 27 20 3f 23 eb 01 3f 52 92 5a 3f
       -0.3690399 0.62559515 0.50749415 0.8537952
000150 0c 1f d0 bb 95 e4 01 bf bf 5f d4 be 50 94 d5 3e
       -0.0063513573 -0.50739413 -0.41479298 0.41714716
000160 1f 30 24 3f 7f f2 8a 3f d8 a1 75 bf 08 83 e8 be
       0.64135927 1.0855254 -0.9595008 -0.4541247
000170 dc bf c5 3f 8a aa a1 3f 09 b5 c2 3f cd a0 75 bf
       1.5449176 1.2630169 1.5211498 -0.9594849
000180 8e 41 a4 3e 2b f8 ff be 75 b7 d3 3e 79 cb 06 3f
       0.32081264 -0.49994025 0.41350904 0.52654225
000190 ee 31 52 bf 6f e2 6c bf 95 fc 38 bf 86 60 45 3f
       -0.82107437 -0.9253301 -0.7226041 0.7710041
0001a0 81 c4 0e 3f a3 4d b9 3e 56 68 35 bf 68 08 24 bf
       0.5576859 0.36192045 -0.7086233 -0.64075327
0001b0 56 c5 2d bf 35 38 29 be a0 04 52 bf 1b ad ac 3f
       -0.67879236 -0.16525348 -0.8203831 1.3490328
0001c0 3b 96 8c bf bd df c4 3e 3e 10 2e bf 9b 03 40 bf
       -1.0983347 0.3845195 -0.67993534 -0.750055
0001d0 46 d1 60 bf 90 76 f6 3e 97 d2 aa 3c 6b ac e2 3e
       -0.87819326 0.4813733 0.02085237 0.4427217
0001e0 b1 7a 4c bf 35 2b c9 3e 1e c6 60 bf 96 0f 2e bf
       -0.7987471 0.39290777 -0.878023 -0.6799253
0001f0 af 2e 33 bd eb b8 5a 3e 65 77 ad be fe 48 3c bf
       -0.043745693 0.21359603 -0.33880153 -0.7354888

actor_layer.2.bias f4 [2]
000000 69 40 b8 bd c0 63 bd 3d
       -0.0899666 0.092475414

critic_layer.0.weight f4 [64, 4]
000000 14 a0 81 3d 1b 85 ab bd df d8 0b bd e1 97 d3 bd
       0.063293606 -0.08374997 -0.03414237 -0.10331703
000010 00 54 5c bd c5 f0 5a 3d f8 d7 c7 be 9f f5 06 3e
       -0.053791046 0.053452272 -0.3903196 0.13179635
000020 79 0a 83 3d 53 fb 1a be ee 53 97 bb be be 37 bc
       0.06398482 -0.15134935 -0.0046181595 -0.01121491
000030 9d 64 ef 3d ae 9b 47 be 66 5e cb 3e 64 99 21 be
       0.11689112 -0.19492981 0.39720458 -0.1578117
000040 5e 2e 03 bd 4f be e4 3d db 0f 74 3e 84 76 05 3e
       -0.03202664 0.11169111 0.23834173 0.13033491
000050 f3 a8 18 3c 80 6d 0a bd 51 96 e2 3e 7e 59 0a bd
       0.009317624 -0.033795834 0.44255307 -0.033776753
000060 00 a3 ef bc a8 0c c1 3d 43 3b 13 bf 2a e9 eb 3d
       -0.02925253 0.09426242 -0.575123 0.11519082
000070 68 7b 2e bd ff 48 40 3d 8c 1d 87 3e 42 5e b0 bd
       -0.042598158 0.046944614 0.2638973 -0.08611728
000080 3c a4 9d 3c 73 c0 14 3a 91 0a 35 bf e6 c2 96 3b
       0.019243352 0.0005674429 -0.7071925 0.0046008704
000090 82 ed b1 bb 81 de df bb b0 ca 85 3e aa 16 9e bc
       -0.0054299245 -0.0068319445 0.261312 -0.019297916
0000a0 60 cf a1 3b 2a 81 c3 bb 50 7d 8f bc 11 9b 74 bc
       0.004938051 -0.0059663253 -0.017515808 -0.014929549
0000b0 85 c9 14 be 46 30 1a 3e 60 2e 80 3d 0e d1 81 3e
       -0.14529999 0.15057477 0.06258845 0.2535481
0000c0 25 0f 92 3d 31 1f ec bd 51 ec b3 be 49 d9 36 be
       0.07131795 -0.11529387 -0.35141233 -0.17856325
0000d0 02 b3 97 3e 2c 42 d3 3e 96 ee 2a 3f 79 ed bf 3e
       0.2962876 0.41261423 0.66770303 0.37485865
0000e0 a9 40 61 be 73 30 35 be 99 2e b4 bf 1e 73 58 be
       -0.21997322 -0.17694263 -1.407672 -0.21137664
0000f0 00 ed e4 3d 05 00 35 be 5f ff b7 3e bc 52 5a be
       0.11178017 -0.17675789 0.3593702 -0.21320623
000100 40 cc a9 3c 34 d9 82 be f3 22 b4 3f 0c c8 38 be
       0.020727277 -0.25556338 1.4073166 -0.18045062
000110 73 e9 da ba b8 11 ae bc f2 bb ef bc b8 10 0a bc
       -0.0016701653 -0.021248683 -0.029264424 -0.008426838
000120 8c 8d 46 bd 20 96 35 3c a9 af 99 3e e0 7b ee bd
       -0.048474833 0.011083156 0.3001683 -0.11644721
000130 94 e7 9a bb 3c ce 90 ba 9f eb 73 3e 19 af 6a bc
       -0.0047273133 -0.0011047791 0.23820351 -0.014323973
000140 23 f0 22 3d 04 18 ba 3c 31 04 52 3d ca 8f 1a 3c
       0.039779793 0.02271653 0.05127353 0.009433696
000150 f0 c3 2b 3e 67 7d 71 bd 28 d0 c8 be 1d 82 46 ba
       0.16773963 -0.058957484 -0.3922131 -0.0007572489
000160 a2 61 1c be 90 dd 83 3e 93 c0 99 be 67 96 13 3e
       -0.15271619 0.25754976 -0.30029735 0.14412843
000170 e2 d3 8c bd 67 51 96 3d c1 55 db 3e 48 63 32 3d
       -0.06876351 0.07339745 0.42838863 0.043551713
000180 eb a7 9a 3b fd c1 64 bd 7f af 02 3f 08 9b 67 bd
       0.0047197244 -0.055849064 0.51049036 -0.056544334
000190 64 b8 10 be cb 13 42 3e 11 41 80 be ad ea 6f 3e
       -0.1413284 0.18952863 -0.25049642 0.23429365
0001a0 88 5a c6 bd 78 c5 0a be 9a 3b ac 3d ba 06 be bd
       -0.09685236 -0.13551891 0.084098056 -0.09278627
0001b0 ba 94 24 bd d5 ae b2 3d 0b 00 94 3e 11 48 ec 3d
       -0.0401809 0.08724753 0.28906283 0.11537183
0001c0 a3 dc 03 3d 60 5a 40 bd 2f 97 0c be a0 fb 6e bd
       0.032192837 -0.04696119 -0.13729547 -0.058345437
0001d0 1c 3f 08 3e 11 33 8b bc 68 a3 06 bf 86 81 36 bd
       0.13305324 -0.016992124 -0.5259309 -0.044557117
0001e0 01 a4 89 3d e5 49 55 be 20 5f 80 be 2f 9f bc 3b
       0.067207344 -0.2082897 -0.25072575 0.005756281
0001f0 0d c2 20 3e 79 c9 13 bd 40 9a 67 be dc d2 58 3d
       0.15699024 -0.03608081 -0.22617435 0.052935466
000200 63 e4 68 bb 6c 27 46 bd 89 f0 90 bd 05 e1 a0 bd
       -0.003553652 -0.04837744 -0.070771284 -0.07855419
000210 5b ae 4e be 97 60 44 3e 9f ee f3 bc 94 66 bc 3e
       -0.20183699 0.19177471 -0.02977687 0.3679701
000220 87 d0 99 bc 9f 55 c8 3c ea d2 a6 be f1 6a 0f 3d
       -0.018776191 0.02445489 -0.3258279 0.035014097
000230 93 0a 7c bd 9d 1e ed 3d 0f 5e 83 be 0f d4 1b 3e
       -0.06153352 0.11578105 -0.256577 0.15217613
000240 b3 1e 9e 3d 26 cc bf bd 9c d1 06 3e 6d b1 03 be
       0.07720699 -0.0936511 0.13165897 -0.12860651
000250 af dd 1b ba fa 89 a8 3d 64 89 d5 bd f8 bf 80 3d
       -0.0005945814 0.08229442 -0.10426596 0.06286615
000260 55 f6 cf bd d9 eb 0f bd 3e b5 0c 3c e2 cb 0c be
       -0.10154406 -0.03513703 0.008588133 -0.1374965
000270 7d a0 1b be a4 be f7 3d d7 74 0b bd ce d2 74 3e
       -0.1519794 0.12096909 -0.034046974 0.2390854
000280 d3 11 ab 3e 21 35 4e be 02 14 23 bd 97 1a 74 be
       0.33412036 -0.20137455 -0.039814003 -0.23838268
000290 d1 b5 19 3c 01 3b 5c be e1 a6 e2 3d f3 d3 46 be
       0.009381727 -0.21506883 0.11066986 -0.1941679
0002a0 31 0d 87 bc 97 37 83 3e 4d 76 94 be bd cc 15 3e
       -0.016485782 0.2562835 -0.28996506 0.14628883
0002b0 98 5c 28 bc d6 5d 96 bb 57 81 38 3e 2f 02 0f bd
       -0.010275982 -0.004588823 0.18018089 -0.03491419
0002c0 7d fc 4d bd 44 2e 2e 3d 9a 61 04 bf 33 02 cc 3d
       -0.05028962 0.04252459 -0.5171143 0.09961357
0002d0 f0 ce 1c bd fa 51 5a 3d 09 0e 93 3d 51 60 9d 3d
       -0.03828329 0.053300835 0.07180411 0.076843865
0002e0 aa 77 9c 3d 2a 68 07 be ef 0d b1 be 22 67 fa bd
       0.076400116 -0.13223329 -0.34580943 -0.12226702
0002f0 95 0a 96 3c c6 92 e6 bd f3 02 3e 3e f3 df 1d be
       0.018315593 -0.112584636 0.18555813 -0.15417461
000300 5f 46 8e 3a 36 02 41 3c b1 4d 6b be 81 8a 49 bb
       0.0010854712 0.011780312 -0.22978856 -0.003075272
000310 90 3d ba 3d 26 09 b3 bd b4 22 42 be 27 fb 18 be
       0.09093773 -0.08741979 -0.1895855 -0.14939557
000320 17 7a c5 3d 8d 30 11 be df 79 84 3e f7 8c 42 be
       0.096424274 -0.14178677 0.2587423 -0.18999086
000330 83 a8 13 3c 12 75 4d bc 3c e4 39 3e 35 6e a1 bc
       0.009012344 -0.012540119 0.18153471 -0.019705871
000340 f7 e9 82 3c 58 c8 7a 3e d0 77 01 bf 0d 89 32 3e
       0.015980704 0.24490488 -0.50573444 0.17435093
000350 f3 e1 be 3c af 3f 5e 3e b9 2f 61 be f2 31 2f 3e
       0.0233011 0.21703981 -0.21990861 0.17108896
000360 75 6a 92 3d 95 15 11 be 4a 0b 95 3e c0 19 77 be
       0.07149211 -0.14168389 0.29110175 -0.24130917
000370 f3 22 8b bd 88 91 fc 3d 06 da a1 3e 1a 22 03 3e
       -0.067937754 0.123324454 0.3161165 0.12805977
000380 59 25 27 be c2 c6 10 3e d6 2a ef bd 69 a0 1a 3e
       -0.16322841 0.1413832 -0.11678092 0.15100254
000390 fc 48 47 be b2 af c1 3d 0d 5a 05 3e 1e af 8d 3d
       -0.19461435 0.09457339 0.13022633 0.069181666
0003a0 be 70 5c be f0 ee 76 3e fa 4a 8c be 3a f7 93 3e
       -0.21527383 0.24114585 -0.27400953 0.28899556
0003b0 11 ad 3b bd 82 58 e6 bb ba 2b 43 bf a0 29 69 3b
       -0.045819346 -0.007029594 -0.76238596 0.003557779
0003c0 72 b8 b3 bd 8d 98 be 3d c4 b2 a8 be 5b de d4 3d
       -0.087754145 0.093064405 -0.32948887 0.103939734
0003d0 cb 75 56 3d 46 92 43 3e 57 c3 be 3e 35 b1 18 3e
       0.05235843 0.19098768 0.37258407 0.14911349
0003e0 ff c9 34 be 86 b0 1a 3e bb 8b 6f 3e 07 a8 b3 3c
       -0.1765518 0.15106401 0.23393147 0.021930708
0003f0 42 ce ca 3c 38 69 7c bd 15 2a ae bd 94 0a c0 bd
       0.024756555 -0.061623782 -0.0850412 -0.093770176

critic_layer.0.bias f4 [64]
000000 75 ae 59 be 0f f5 73 be 63 bc 18 bf 98 87 94 be
       -0.21257956 -0.23823951 -0.59662455 -0.290097
000010 a5 81 bc be 45 ac 5a be 48 8d 49 be 70 aa 29 bf
       -0.3681766 -0.21354778 -0.19682801 -0.6627569
000020 39 e3 23 be 5d c1 df bd 9a 6a 9c bd 8d 59 27 bf
       -0.16004647 -0.10925553 -0.0763752 -0.6537102
000030 51 03 d4 be 01 4b 3c be d1 3f 84 be 8e d8 ab be
       -0.4140878 -0.18387987 -0.25829938 -0.33563656
000040 fb b4 4e be b4 43 84 bd d5 4a f5 be 4e a9 b1 bd
       -0.20186226 -0.06458226 -0.47908655 -0.086748704
000050 19 66 8f be a2 8b 16 bf f9 4b 29 bf 9c c5 99 be
       -0.28007582 -0.5880681 -0.6613155 -0.30033576
000060 02 3c 42 be f6 0b 10 bf 33 3c 18 bf ed 66 9b be
       -0.18968204 -0.5626825 -0.59466857 -0.30351964
000070 66 1c 77 be c9 2b d6 bd 5e c3 26 bf ca 4b 0f bf
       -0.24131927 -0.1045757 -0.65141857 -0.5597502
000080 41 df 84 be 5b 49 1f be 23 ef f1 bd 5c a3 94 be
       -0.2595158 -0.15555327 -0.1181319 -0.29030883
000090 97 96 76 be 2e 87 ec bd 4c 5d 23 bf e7 33 16 bf
       -0.24080883 -0.11549221 -0.63814235 -0.58672947
0000a0 ac 75 25 be 81 98 04 bf 3c fe 0e bf ac a2 a5 bd
       -0.1615817 -0.517952 -0.5585668 -0.08087668
0000b0 2c 58 3b be 52 da 47 be 48 db ca be 3a fd ab be
       -0.18295354 -0.19516876 -0.39620423 -0.33591634
0000c0 32 a1 26 be 4a 10 c3 be 47 8c a9 be dd fa 4d bd
       -0.16272429 -0.38098365 -0.33114836 -0.05028807
0000d0 10 a1 09 bf 10 1a c3 be 0d 26 df be 78 4f bf be
       -0.53761387 -0.38105822 -0.43583718 -0.37365317
0000e0 b7 e7 d3 be 19 ea 13 bf db 0a 2d bf 5c 75 71 be
       -0.41387722 -0.5777908 -0.6759469 -0.23579925
0000f0 e9 04 69 be 4b 10 27 bf 67 26 20 bf 2a b2 77 be
       -0.2275578 -0.65259236 -0.625586 -0.24189058

critic_layer.2.weight f4 [1, 64]
000000 b8 7a e1 bb 8d 12 c8 3c 8e 7c e1 3b 61 f3 2e 3c
       -0.0068810843 0.024422908 0.006881303 0.010678143
000010 77 71 d2 3c 7b ea 17 3c 65 c4 ea 3c 3a bf a0 b9
       0.02568887 0.009272213 0.028658101 -0.00030660053
000020 dc c1 01 bc d1 92 87 3a 86 81 2a bc 55 18 47 3c
       -0.007919755 0.0010343437 -0.010406857 0.012151797
000030 31 1b a6 3b 43 8b 71 bd de 00 a0 bd 2f 17 49 bc
       0.0050691594 -0.0589707 -0.078126654 -0.012273594
000040 a3 1d c1 bd 64 44 e2 bb 2b a4 10 bd 37 92 6b 3a
       -0.09429481 -0.0069051255 -0.035312813 0.0008986326
000050 85 af 86 3c da d3 87 3b bc 0e 2c 3c 8b 2f 2d bd
       0.016441116 0.0041451277 0.01050156 -0.04228167
000060 51 01 25 bc 15 94 b8 bc 90 b5 0e 3d 49 f9 48 3c
       -0.010071115 -0.022531549 0.03484112 0.012266465
000070 bc 01 00 bd fc 2c 1b bd e0 14 41 3c 20 cf 27 3c
       -0.031251654 -0.037884697 0.011784762 0.010242254
000080 11 85 bd bc 7c c5 1e bd 07 d0 c4 bc aa 86 96 bc
       -0.02313474 -0.038762555 -0.024024976 -0.01837476
000090 cd 7c 0b bc cf 84 02 bb fe d7 a4 bc 2f 22 35 3d
       -0.008513642 -0.0019915586 -0.020122524 0.044222053
0000a0 7a be ff bc 34 41 dc 3c 63 68 29 bb ca 7a 92 bc
       -0.031218756 0.02688656 -0.0025849573 -0.017880816
0000b0 ec 9a a0 bb ef 94 84 bc 16 32 d0 bc b0 c1 42 bc
       -0.0049012806 -0.016184298 -0.025414508 -0.011886999
0000c0 ef d5 e1 3c 94 42 fa 3c c5 4b 21 bd d0 f9 e5 ba
       0.027567832 0.030549325 -0.0393789 -0.0017545763
0000d0 9d d0 84 bc e9 cc 51 3c d9 7c c2 bc 4a 68 11 3c
       -0.016212756 0.012805202 -0.023741173 0.008874962
0000e0 21 28 87 3b 61 40 64 bc 82 f3 f9 3c 2f f8 c8 3c
       0.004124657 -0.013931365 0.030511621 0.024532406
0000f0 ae 43 5d 3c 02 23 ec bb db 50 d7 bc 6b 6d bc bb
       0.013504906 -0.0072063217 -0.026283672 -0.0057503483
