trunk/models/mappo/base_0726/actor.pt (torch, 101813 bytes, 16 tensors)

base.feature_norm.weight f4 [215]
0.52548856 0.7249189 0.7664231 0.64327264 0.7340311 0.7052437 0.7624564 0.6093686
0.6408475 1.4236279 1.5646366 1.8666655 1.383399 0.784212 1.885779 1.803323
0.90568334 1.4798925 0.69528115 1.4640685 1.3117913 1.432685 1.879138 1.4854381
1.7105056 1.9487984 1.5781232 1.8545163 0.8562205 1.3860288 2.6052582 0.8913595
0.70131314 1.5227578 1.3622212 1.9410993 2.1442237 0.27061242 0.7566197 1.302126
1.1417726 1.2545762 1.0160592 0.5408633 0.3991389 0.8714899 0.82381517 0.7764271
0.87282526 0.48578966 0.41772205 0.7583742 0.80721605 1.014894 0.6245782 0.9788912
0.8730073 0.6357246 0.8518368 1.5101794 1.2284281 0.9534671 1.301651 0.79099417
0.6578871 0.4078419 0.15585804 0.99452156 1.0269667 1.0213056 0.7074935 0.19359444
0.6479874 0.79161125 0.9101716 1.5390326 1.3032082 0.4751022 0.79432094 0.4622526
0.52907515 0.82682115 0.88751453 1.0025781 0.694914 0.4356567 0.554739 1.2376862
1.1268295 1.1508965 0.9848552 0.58087873 0.4198141 1.025082 0.56646055 0.43622828
1.1899161 0.801598 0.705954 0.28413317 0.696839 0.6728641 1.0965561 1.0804105
1.3947451 0.4662602 0.3507661 0.50608814 0.62442464 0.9951621 0.9566544 1.1207293
0.53365356 0.5023388 0.22608323 0.92917573 1.1869419 1.081492 0.69801694 0.89113325
1.1354624 1.4835284 1.3026063 0.6649506 1.4879405 1.2286627 1.1109091 0.65301174
1.2099617 1.1463464 0.32809246 0.483731 1.1290978 0.73153204 1.4438994 1.5575142
0.89346427 0.63336563 0.5809954 1.0884815 1.4048287 0.64270115 1.4026326 0.1838927
0.2390608 1.2422367 1.1670411 0.5222805 0.62339944 1.4952108 0.6444444 0.65157735
0.7049682 2.5494602 0.9024371 0.89979583 1.1479592 0.545937 0.27007413 0.96399957
1.1656218 1.0317941 0.85044587 1.2922529 0.23816864 0.40639573 0.7445677 0.45417187
1.1859453 0.97157717 0.7809369 0.25076783 0.66112703 0.89302105 0.56590325 0.94262505
1.1556308 1.2473364 0.3110172 0.3545906 0.5310131 0.4393575 1.0948952 1.0479308
1.0597879 0.38702038 0.4411427 0.9401188 0.64359087 0.7217687 0.90626174 1.1059078
0.60067344 0.5913442 0.96332175 1.0367783 0.7848166 1.4150953 0.6257823 0.44542828
0.36354968 1.0089793 0.9161762 0.4625492 0.85545045 0.8511351 0.70818806 0.4190143
1.2237291 0.8427278 1.0432543 0.8416942 1.4536313 0.52686155 0.36277688
00000000: 6b86 063f 4994 393f 4e34 443f 84ad 243f
00000010: 76e9 3b3f da8a 343f 5830 433f 95ff 1b3f
00000020: 950e 243f 7039 b63f 0346 c83f e5ee ee3f
00000030: 3813 b13f 1ec2 483f 3561 f13f 4ad3 e63f
00000040: ddda 673f 1e6d bd3f f2fd 313f 9966 bb3f
00000050: c7e8 a73f 3962 b73f 9887 f03f d622 be3f
00000060: d9f1 da3f 3a72 f93f f1ff c93f ca60 ed3f
00000070: 4431 5b3f 6469 b13f 8dbc 2640 2330 643f
00000080: 4289 333f bae9 c23f 445d ae3f f175 f83f
00000090: f63a 0940 b68d 8a3e d4b1 413f 11ac a63f
000000a0: 9b25 923f f495 a03f 3a0e 823f 0476 0a3f
000000b0: ef5b cc3e f619 5f3f 8de5 523f edc3 463f
000000c0: 7a71 5f3f 6cb9 f83e aadf d53e d024 423f
000000d0: b6a5 4e3f 0ce8 813f 5be4 1f3f 9d98 7a3f
000000e0: 687d 5f3f d9be 223f fa11 5a3f 8f4d c13f
000000f0: 223d 9d3f 6b16 743f 809c a63f 987e 4a3f
00000100: 4a6b 283f a7d0 d03e 4099 1f3e f798 7e3f
00000110: a573 833f 24ba 823f 4b1e 353f 9f3d 463e
00000120: 81e2 253f 09a7 4a3f 0201 693f 05ff c43f
00000130: 87cf a63f 9840 f33e 9e58 4b3f 5fac ec3e
00000140: 7871 073f 8daa 533f 2734 633f 7b54 803f
00000150: e2e5 313f 650e df3e 6003 0e3f 806c 9e3f
00000160: f33b 903f 9450 933f 781f 7c3f 78b4 143f
00000170: e0f1 d63e e335 833f 8f03 113f 5059 df3e
00000180: 2c4f 983f 8735 4d3f 67b9 343f e779 913e
00000190: 0a64 323f d240 2c3f f35b 8c3f e44a 8a3f
000001a0: 0287 b23f a8b9 ee3e 9d97 b33e fe8e 013f
000001b0: 4bda 1f3f f2c2 7e3f 4ee7 743f 0f74 8f3f
000001c0: 859d 083f 4799 003f 5d82 673e 76de 6d3f
000001d0: b6ed 973f 546e 8a3f 3db1 323f 4f21 643f
000001e0: d556 913f 42e4 bd3f cebb a63f 343a 2a3f
000001f0: d674 be3f d244 9d3f 4532 8e3f c72b 273f
00000200: 06e0 9a3f 7bbb 923f bcfb a73e 97ab f73e
00000210: 4786 903f af45 3b3f b2d1 b83f a05c c73f
00000220: 13ba 643f 4024 223f 1dbc 143f 5d53 8b3f
00000230: 6dd1 b33f 1088 243f 7789 b33f 5e4e 3c3e
00000240: 5bcc 743e 9d01 9f3f 9a61 953f 2db4 053f
00000250: 1b97 1f3f 1163 bf3f 4ffa 243f c6cd 263f
00000260: cc78 343f 5b2a 2340 1e06 673f 0559 663f
00000270: 54f0 923f 87c2 0b3f 2847 8a3e adc8 763f
00000280: 1833 953f d411 843f d2b6 593f 8b68 a53f
00000290: 7be2 733e 1a13 d03e fd9b 3e3f 3789 e83e
000002a0: 0ecd 973f 48b9 783f 7beb 473f a464 803e
000002b0: 9f3f 293f 079d 643f 09df 103f e04f 713f
000002c0: b6eb 933f b8a8 9f3f a53d 9f3e e68c b53e
000002d0: 79f0 073f 77f3 e03e 8725 8c3f 9922 863f
000002e0: 21a7 873f 8927 c63e 75dd e13e a0ab 703f
000002f0: 5fc2 243f d5c5 383f c500 683f 638e 8d3f
00000300: bcc5 193f 5562 173f 419c 763f 27b5 843f
00000310: bee9 483f d821 b53f 4533 203f 2d0f e43e
00000320: 2f23 ba3e 3c26 813f 868a 6a3f 40d3 ec3e
00000330: cdfe 5a3f fde3 593f d04b 353f 0b89 d63e
00000340: 28a3 9c3f 02bd 573f 5b89 853f 4579 573f
00000350: 9710 ba3f 66e0 063f e4bd b93e

base.feature_norm.bias f4 [215]
-0.5614689 -0.5259474 -0.46076536 -0.60798687 -0.53953725 -0.5952643 -0.5110511 -0.542943
-0.5584407 0.44657815 0.29002458 0.33287287 0.40757933 -0.54254353 -0.62362593 -0.64147
0.3201561 0.4889174 0.30534807 -0.05599038 0.56414545 0.1925451 -0.07853078 0.5758909
0.5121109 0.099640466 0.25292957 0.38055384 0.08612016 0.45607594 0.086182415 0.27363864
0.009718833 -0.102003984 -0.6070987 0.010680979 0.083279036 0.25086915 0.2251027 0.34948102
0.39404258 -0.2009558 -0.021810915 -0.05581326 0.69337726 0.25548157 0.10916388 0.16030107
-0.44347197 -0.5279857 -0.027734298 0.14126515 0.56060714 0.2110187 0.49972856 -0.42167634
-0.40251958 -0.084508106 0.07666468 0.34445322 0.25627106 0.42543033 -0.18527378 -0.42785248
-0.07170305 0.5726133 0.1375892 0.2098984 0.20047016 -0.3296683 -0.27427596 -0.033690266
0.34896085 0.30938005 -0.028452793 0.24385163 -0.18911867 -0.39972812 0.06997384 0.25097746
-0.006679527 -0.04751738 0.505572 -0.24345466 -0.43333134 -0.020157281 0.33315653 -0.021110458
0.10245064 0.27955043 -0.22582479 -0.6305829 -0.08574089 0.12062054 0.53692335 0.15503582
0.12003114 -0.5859976 -0.32853174 -0.07307331 -0.074166656 0.26875085 0.0504751 0.30702478
-0.45204532 -0.5288158 -0.021596016 0.20094909 0.28357154 0.49116912 0.44606847 -0.18248984
-0.27680582 0.02140268 0.3659444 0.29330367 0.2639156 0.48206922 -0.39170593 0.2549008
0.20708163 0.24726033 0.3079714 0.31451473 0.10791835 0.18510683 0.1619439 0.25211886
0.45818827 -0.34740803 -0.03450637 0.35647368 0.4744987 0.39930525 0.3373351 -0.100537226
-0.23214267 -0.0575627 -0.5734063 0.22886536 0.02966202 0.3160197 -0.14799799 -0.9439683
0.004303803 0.07528732 0.025937814 0.33033496 0.17493886 -0.30157515 -0.54106843 -0.06912194
0.07839457 0.5310605 0.1300495 0.39541766 -0.15489577 -0.6061008 -0.11523062 -0.2604043
0.014268975 0.35167015 0.1780417 -0.1599933 -0.68824995 0.010541401 -0.103142105 0.29359183
0.025219113 0.31772697 -0.3743231 -0.69721067 -0.033741333 -0.08800862 0.06459514 0.07832096
0.26504865 -0.20625576 -0.7221758 -0.046157785 -0.1528155 0.15877359 -0.074678555 0.26823315
-0.071864106 -0.6969115 -0.0076727355 0.2548353 0.03053674 0.5546345 0.38497895 -0.24380411
-0.60973775 -0.051671438 0.03644652 -0.02045831 0.2574876 0.26370698 -0.20574398 -0.6024513
0.023989927 0.44925416 0.4820741 0.39437476 0.36020955 -0.35251117 -0.4930524 0.060419124
0.47784296 0.074106246 0.11329453 0.30981788 -0.34738362 -0.47422865 0.019010205
00000000: 6dbc 0fbf 7da4 06bf 70e9 ebbe 07a5 1bbf
00000010: 1d1f 0abf 3e63 18bf 3fd4 02bf 50fe 0abf
00000020: f8f5 0ebf e4a5 e43e 1a7e 943e 506e aa3e
00000030: 3dae d03e 22e4 0abf f3a5 1fbf 6137 24bf
00000040: 80eb a33e 6253 fa3e 9556 9c3e 2b56 65bd
00000050: d66b 103f 8b2a 453e bfd4 a0bd 966d 133f
00000060: b319 033f 4d10 cc3d fc7f 813e f4d7 c23e
00000070: c45f b03d c982 e93e 6880 b03d 5d1a 8c3e
00000080: bd3b 1f3c 77e7 d0bd d26a 1bbf 46ff 2e3c
00000090: 338e aa3d ec71 803e 5281 663e 2def b23e
000000a0: f3bf c93e 5bc7 4dbe ceac b2bc 729c 64bd
000000b0: 2c81 313f 7bce 823e 5091 df3d f725 243e
000000c0: c20e e3be 122a 07bf 0a33 e3bc d0a7 103e
000000d0: f383 0f3f 4915 583e 6cdc ff3e f6e5 d7be
000000e0: 0c17 cebe 9612 adbd 5f02 9d3d 2c5c b03e
000000f0: f635 833e 01d2 d93e 69b8 3dbe 7b0f dbbe
00000100: 0cd9 92bd c996 123f 2fe4 0c3e 9bef 563e
00000110: 0d48 4d3e 49ca a8be e66d 8cbe cefe 09bd
00000120: ffaa b23e 1067 9e3e d515 e9bc 3eb4 793e
00000130: 53a8 41be 2aa9 ccbe 724e 8f3d 1e80 803e
00000140: efdf dabb 96a1 42bd 2b6d 013f 2e4c 79be
00000150: 9bdd ddbe e220 a5bc 7e93 aa3e d7ef acbc
00000160: a4d1 d13d 3c21 8f3e 9d3e 67be e26d 21bf
00000170: eb98 afbd e707 f73d cf73 093f b6c1 1e3e
00000180: e3d2 f53d f003 16bf 5035 a8be 76a7 95bd
00000190: b0e4 97bd b699 893e fabe 4e3d 5a32 9d3e
000001a0: 7c72 e7be 7960 07bf 21ea b0bc 99c5 4d3e
000001b0: 4a30 913e 857a fb3e 1663 e43e 9ede 3abe
000001c0: 7eb9 8dbe ac54 af3c 105d bb3e e62b 963e
000001d0: f21f 873e c7d1 f63e ae8d c8be 5c82 823e
000001e0: 350d 543e d031 7d3e 6dae 9d3e 1308 a13e
000001f0: 4c04 dd3d a58c 3d3e 9fd4 253e b915 813e
00000200: a797 ea3e 77df b1be 8d56 0dbd b883 b63e
00000210: 7ef1 f23e bd71 cc3e 30b7 ac3e 76e6 cdbd
00000220: cfb6 6dbe dec6 6bbd c1ca 12bf ae5b 6a3e
00000230: c4fd f23c 56cd a13e c98c 17be e8a7 71bf
00000240: eb06 8d3b 3d30 9a3d 8a7b d43c aa21 a93e
00000250: 2c23 333e 0f68 9abe 7683 0abf ce8f 8dbd
00000260: 558d a03d 95f3 073f b22b 053e 2f74 ca3e
00000270: ff9c 1ebe 6c29 1bbf 08fe ebbd b653 85be
00000280: 6bc8 693c 1c0e b43e 9050 363e 49d5 23be
00000290: 2631 30bf d7b5 2c3c 2b3c d3bd ab51 963e
000002a0: 5098 ce3c 1cad a23e 47a7 bfbe 667c 32bf
000002b0: 5a34 0abd dd3d b4bd 754a 843d bd66 a03d
000002c0: 75b4 873e b634 53be 83e0 38bf f20f 3dbd
000002d0: ab7b 1cbe 8b95 223e 12f1 98bd db55 893e
000002e0: 7d2d 93bd cb68 32bf 926b fbbb c679 823e
000002f0: 2f28 fa3c 87fc 0d3f f61b c53e c9a7 79be
00000300: c617 1cbf 6ea5 53bd f248 153d 3098 a7bc
00000310: 6ad5 833e 9a04 873e 8dae 52be 403a 1abf
00000320: 8686 c43c a404 e63e 6bd2 f63e 7deb c93e
00000330: 636d b83e 587c b4be 5d71 fcbe 0b7a 773d
00000340: d5a7 f43e 04c5 973d f606 e83d 73a0 9e3e
00000350: 44dc b1be 19ce f2be 4abb 9b3c

base.mlp.fc1.0.weight f4 [64, 215]
-0.13926348 0.15882924 0.10924385 0.39136112 0.25188124 0.32890418 0.19256458 0.15968119
0.087553985 -0.6999271 -0.6533575 -0.80796874 -0.21538763 0.20477988 1.5446371 -0.4294917
-0.25906268 -0.5028686 0.16958785 -0.05707211 -0.2357422 0.3313657 -0.59484243 0.8703865
1.1764816 -0.69880044 0.08760168 -0.9064288 0.12902611 0.2359727 0.3878343 0.0977875
0.39174747 -0.77875185 -0.7643984 1.1636208 -0.043307718 -0.092580356 -0.44606715 0.17812759
-0.09390599 -0.3687167 0.5454618 0.020251255 -0.090782166 -0.16399655 -0.45450452 0.0029961723
-0.20970446 -0.13001944 0.29493737 0.041198198 -0.34926394 -0.3564545 -0.20694636 -0.045048203
-0.11117241 -0.04313562 0.12657245 -0.18009023 0.1057871 0.03958609 0.62300366 0.13766293
0.19575544 -0.3298617 0.1857835 -0.31514385 -0.17092155 -0.5096649 -0.19028057 -0.0056422353
-0.014065364 0.0137651125 -0.20198295 -0.45359534 -0.051168248 0.2238089 0.24904184 0.23656158
-0.50738734 0.25125068 -0.21061571 0.22404298 0.10454297 0.09564842 -0.15459274 -0.17156138
0.021675313 0.06195538 -0.33142883 -0.07956365 -0.23595427 0.043288123 0.19969523 -0.03620861
-0.049749404 -0.14929149 0.119786665 -0.01502556 0.2825138 -0.4941088 0.19746147 -0.043042716
-0.14097221 0.1574115 0.11389472 -0.20678674 -0.13753647 0.052415498 -0.22772087 -0.52914053
-0.0032961085 0.21015207 0.2499996 -0.22081302 0.111541025 -0.22897442 -0.11741583 -0.4043485
-0.20248953 -0.14432304 0.14238565 -0.090918496 0.2077071 -0.5439218 0.073301904 -0.13664341
0.31115228 0.24202447 0.14228474 0.15273963 -0.21078181 -0.063547686 -0.0984563 0.052169956
0.42447075 -0.2885993 -0.046230737 -0.26127914 -0.22242203 -0.104183815 -0.4160622 0.039881505
-0.03452147 0.41456917 -0.21077402 -0.09034424 0.1345254 0.20867562 0.061873883 0.06683447
0.32235345 0.104422785 -0.027477007 -0.25228968 0.38111117 0.4768018 0.11751 0.19301336
-0.21880946 -0.30569324 -0.07199835 0.0060710986 0.195677 0.014673841 0.26379344 -0.017373625
-0.266144 -0.46874094 -0.37575638 0.13617226 0.07546411 0.2155446 -0.38046625 -0.45729837
0.4099887 -0.21165422 0.28024036 0.10241009 -0.4733734 -0.3290876 -0.5627673 0.024623366
-0.19539098 0.27702078 -0.049510017 0.19854748 -0.2383911 0.15825911 0.5740535 0.107960895
-0.044907782 -0.124455675 0.06866229 -0.21398541 -0.3731613 0.16127524 0.38194454 0.11798083
0.04733359 0.27147165 -0.4900578 -0.16082382 0.18137172 -0.20824125 -0.103322856 0.10009826
0.61439234 -0.1989368 0.2820999 -0.37052324 -0.11901901 -0.13033298 -0.07244805 -0.11850573
0.17785294 0.23365352 -0.14193001 0.16712537 -0.012811306 0.0032563775 0.13370575 0.0018216319
-0.13118815 -0.15097049 -0.043232277 0.45846862 0.01851313 -1.0742959 0.8325002 -0.3741255
0.23980506 0.23496814 -0.22463678 0.045232743 0.528612 -0.20126846 0.75513065 0.4635159
-0.70966077 -0.16887201 -0.14708048 -0.019490007 -0.01510277 -0.19663757 -0.29652855 0.522098
-0.19298843 0.075777106 0.61927885 0.44452655 0.014977387 0.04345283 0.28661048 0.48893535
00000000: 169b 0ebe 22a4 223e 3dbb df3d 7c60 c83e
00000010: 94f6 803e 2166 a83e a62f 453e 7783 233e
00000020: 814f b33d 6c2e 33bf 7042 27bf 0ad7 4ebf
00000030: 938e 5cbe d1b1 513e abb6 c53f 56e6 dbbe
00000040: dda3 84be ffbb 00bf 70a8 2d3e 72c4 69bd
00000050: 6766 71be c4a8 a93e 9847 18bf a6d1 5e3f
00000060: f396 963f 96e4 32bf 8268 b33d b80b 68bf
00000070: 6c1f 043e d4a2 713e 3892 c63e d044 c83d
00000080: 2093 c83e 485c 47bf 9daf 43bf 87f1 943f
00000090: 6f63 31bd c59a bdbd ea62 e4be 1467 363e
000000a0: c951 c0bd 6fc8 bcbe 62a3 0b3f f6e5 a53c
000000b0: 00ec b9bd b6ee 27be d1b4 e8be 6e5b 443b
000000c0: c4bc 56be d123 05be 0802 973e 71bf 283d
000000d0: b9d2 b2be 3481 b6be bfe9 53be 7784 38bd
000000e0: 5cae e3bd faae 30bd 359c 013e 9369 38be
000000f0: e8a6 d83d 0625 223d 2b7d 1f3f 83f7 0c3e
00000100: 1d74 483e a2e3 a8be 083e 3e3e 895a a1be
00000110: 0f06 2fbe 6679 02bf e9d8 42be 80e2 b8bb
00000120: 6a72 66bc 1187 613c 9ed4 4ebe a63d e8be
00000130: cc95 51bd 292e 653e d304 7f3e 333d 723e
00000140: 23e4 01bf eea3 803e a5ab 57be 866b 653e
00000150: a01a d63d 52e3 c33d 8f4d 1ebe c9ad 2fbe
00000160: 6d90 b13c edc4 7d3d 0ab1 a9be 44f2 a2bd
00000170: ff9d 71be e34e 313d e87c 4c3e 7b4f 14bd
00000180: 08c6 4bbd dedf 18be b652 f53d c42d 76bc
00000190: a6a5 903e d4fb fcbe 5733 4a3e 8f4d 30bd
000001a0: 055b 10be 7b30 213e a341 e93d e7bf 53be
000001b0: 5cd6 0cbe a2b1 563d a92f 69be c175 07bf
000001c0: 8603 58bb 1b32 573e e5ff 7f3e cf1c 62be
000001d0: 9f6f e43d 4578 6abe b677 f0bd c406 cfbe
000001e0: 6a59 4fbe 6bc9 13be 8bcd 113e 7a33 babd
000001f0: 2cb1 543e 763e 0bbf 4f1f 963d 40ec 0bbe
00000200: 5a4f 9f3e 43d5 773e 17b3 113e c767 1c3e
00000210: 30d7 57be 4a25 82bd 75a3 c9bd 2ab0 553d
00000220: 3b54 d93e 4ac3 93be 715c 3dbd 61c6 85be
00000230: 9ac2 63be 535e d5bd 1b06 d5be ca5a 233d
00000240: 6366 0dbd 6942 d43e 25d5 57be 6706 b9bd
00000250: 07c1 093e 10af 553e 786f 7d3d 83e0 883d
00000260: 830b a53e 9ddb d53d 7617 e1bc 1d2c 81be
00000270: 0121 c33e 5e1f f43e 15a9 f03d 4ba5 453e
00000280: 960f 60be d383 9cbe df73 93bd 11f0 c63b
00000290: 8d5f 483e 8d6a 703c ef0f 873e 2253 8ebc
000002a0: 0744 88be d0fe efbe 2463 c0be be70 0b3e
000002b0: ed8c 9a3d b9b7 5c3e 79cc c2be 0323 eabe
000002c0: 0aea d13e e2bb 58be aa7b 8f3e 62bc d13d
000002d0: 005e f2be 2b7e a8be 8511 10bf f1b6 c93c
000002e0: 9314 48be abd5 8d3e 04cb 4abd 0850 4b3e
000002f0: cc1c 74be ad0e 223e 2cf5 123f 9a1a dd3d
00000300: 39f1 37bd 9ee2 febd d19e 8c3d fe1e 5bbe
00000310: ff0e bfbe 5625 253e 3c8e c33e ef9f f13d
00000320: dee0 413d 55fe 8a3e dbe8 fabe 00af 24be
00000330: 82b9 393e 323d 55be ef9a d3bd 5100 cd3d
00000340: d148 1d3f 17b6 4bbe 666f 903e 39b5 bdbe
00000350: 3dc0 f3bd 0276 05be a55f 94bd 22b3 f2bd
00000360: 151f 363e de42 6f3e 1a56 11be ea22 2b3e
00000370: 83e6 51bc f368 553b 29ea 083e d3c3 ee3a
00000380: 3056 06be 0298 1abe 5414 31bd 66bc ea3e
00000390: d9a8 973c 8782 89bf bc1e 553f 618d bfbe
000003a0: 758f 753e 7d9b 703e 2f07 66be f845 393d
000003b0: 1e53 073f 5219 4ebe 3e50 413f f551 ed3e
000003c0: 54ac 35bf c9ec 2cbe 449c 16be 82a9 9fbc
000003d0: 9c71 77bc 5c5b 49be 97d2 97be 37a8 053f
000003e0: c29e 45be 0731 9b3d 0f89 1e3f fc98 e33e
000003f0: b763 753c 98fb 313d 9cbe 923e bc55 fa3e

base.mlp.fc1.0.bias f4 [64]
0.14460531 0.17795365 -0.15856287 -0.22772948 0.17686212 -0.22620331 0.001154035 -0.28457093
0.12764858 0.3809488 0.024389047 -0.23963669 -0.25605577 -0.21082616 -0.026245188 -0.20363262
-0.50398713 -0.15357785 0.009230209 -0.017381804 0.23517244 -0.22232145 -0.11905339 0.23136131
-0.28589562 -0.041550513 -0.36867732 -0.13737202 -0.18067752 -0.17488869 0.11069162 -0.15902111
-0.26035142 -0.23584399 0.04274499 0.22090387 0.03741823 -0.18625374 -0.13848439 0.24486277
-0.40645856 0.18152772 -0.05478658 -0.0484375 0.18017802 -0.02700179 0.17145316 -0.106858104
-0.21847218 -0.13158 -0.09442686 -0.067466944 -0.19059347 -0.094024494 -0.28139478 -0.047013298
-0.41808653 0.08477315 -0.2723333 -0.09657734 -0.0069571747 -0.0027507206 -0.025914954 -0.092682846
00000000: 6a13 143e 7b39 363e 4e5e 22be eb31 69be
00000010: 581b 353e d7a1 67be fd42 973a 48b3 91be
00000020: 4fb6 023e b90b c33e 8acb c73c 5263 75be
00000030: be19 83be d0e2 57be 2600 d7bc 1285 50be
00000040: 4d05 01bf 8343 1dbe 4d3a 173c 4964 8ebc
00000050: 0bd1 703e 3ca8 63be 44d2 f3bd fbe9 6c3e
00000060: e960 92be df30 2abd 46c3 bcbe 40ab 0cbe
00000070: 8703 39be 0516 33be 4ab2 e23d 6ed6 22be
00000080: c84c 85be 1681 71be 5f15 2f3d a034 623e
00000090: dc43 193d 4db9 3ebe dace 0dbe 4ebd 7a3e
000000a0: 561b d0be 67e2 393e e567 60bd 6666 46bd
000000b0: 9680 383e dc32 ddbc 6b91 2f3e 6cd8 dabd
000000c0: 2cb7 5fbe e8bc 06be df62 c1bd 1c2c 8abd
000000d0: ef2a 43be ea8f c0bd fa12 90be 0491 40bd
000000e0: 700f d6be 8c9d ad3d 456f 8bbe 57ca c5bd
000000f0: 03f9 e3bb 6f45 34bb 994b d4bc 81d0 bdbd

base.mlp.fc1.2.weight f4 [64]
1.5396829 1.2148883 0.95651263 0.9856548 0.93297565 1.0103778 1.071907 0.9943898
1.4113516 1.1859988 1.0862215 1.4656793 1.2722677 1.1022165 1.1445504 1.1994487
1.0124089 1.3000671 1.193989 1.1810669 1.1218274 1.4364011 1.1992385 1.1907319
1.0828868 1.5082611 1.6749678 1.3482013 1.2936616 1.2790656 1.315357 1.2023765
0.96720505 1.4034765 1.0891958 0.79322714 1.5157983 1.6439756 1.3152947 0.93412274
1.8918163 1.0354121 0.61355394 1.4368557 1.3077407 1.0250813 0.6200752 1.1113236
0.76576024 1.3964716 1.5078231 1.2694467 0.9642079 1.1089659 1.3759346 1.0920235
1.0586445 1.3375883 1.0979277 0.9404148 1.257036 1.0871713 1.1044588 1.3551829
00000000: 5414 c53f 7681 9b3f 03de 743f df53 7c3f
00000010: 7ed7 6e3f 0f54 813f 4034 893f 5490 7e3f
00000020: 2ba7 b43f cfce 973f 4e09 8b3f 619b bb3f
00000030: abd9 a23f 6e15 8d3f a180 923f 8987 993f
00000040: 9d96 813f 9968 a63f a2d4 983f 332d 973f
00000050: 0a98 8f3f fedb b73f a680 993f e769 983f
00000060: 099c 8a3f b30e c13f 5865 d63f dc91 ac3f
00000070: b496 a53f 6cb8 a33f 9e5d a83f 79e7 993f
00000080: c09a 773f 1ea5 b33f c56a 8b3f ef10 4b3f
00000090: ae05 c23f cb6d d23f 945b a83f ab22 6f3f
000000a0: 0927 f23f 6288 843f df11 1d3f e3ea b73f
000000b0: 0c64 a73f dd35 833f 40bd 1e3f da3f 8e3f
000000c0: dd08 443f 95bf b23f 5900 c13f 3b7d a23f
000000d0: 54d6 763f 98f2 8d3f a01e b03f 6dc7 8b3f
000000e0: aa81 873f 1836 ab3f e588 8c3f 06bf 703f
000000f0: 8ee6 a03f 6e28 8b3f e85e 8d3f a276 ad3f

base.mlp.fc1.2.bias f4 [64]
0.7579471 0.16772687 -0.1380894 -0.40976617 0.017686184 -0.3944861 0.17134851 0.08369182
0.5616387 0.39750683 0.11054843 -0.4091931 -0.22423235 -0.004540233 -0.011577964 0.33204395
0.08339361 -0.18497178 0.08977202 -0.019274538 -0.16374072 -0.63496274 -0.35325736 0.25758916
0.23171303 -0.43636143 -0.54646474 -0.39068064 -0.13994853 -0.23457113 0.09770464 -0.5713972
-0.18742844 0.45663533 -0.012770464 0.13002275 -0.34743863 0.1986973 -0.29018292 0.11509951
-0.44598514 0.2429443 0.20817348 -0.047297616 0.44118416 0.071176164 0.08697504 0.24672636
0.29411137 -0.13250649 -0.4070498 0.18422103 -0.4038894 -0.15909639 0.089157656 -0.01549916
0.46318504 -0.30613092 -0.25187454 -0.10381321 0.057565853 0.4481544 0.26230326 -0.47893634
00000000: d208 423f 98c0 2b3e 4f67 0dbe dfcc d1be
00000010: 9ee2 903c 15fa c9be fc75 2f3e 9e66 ab3d
00000020: 8ec7 0f3f 0486 cb3e 3767 e23d c281 d1be
00000030: 2a9d 65be 3cc6 94bb 80b1 3dbc aa01 aa3e
00000040: 45ca aa3d 3e69 3dbe 65da b73d a3e5 9dbc
00000050: a6ab 27be eb8c 22bf 26de b4be bae2 833e
00000060: 2e46 6d3e c46a dfbe 1de5 0bbf 4b07 c8be
00000070: ab4e 0fbe 6a33 70be 5f19 c83d 1647 12bf
00000080: 3eed 3fbe 1bcc e93e 353b 51bc af24 053e
00000090: 7ae3 b1be 4e77 4b3e db92 94be 4bb9 eb3d
000000a0: 2a58 e4be 64c6 783e 6e2b 553e 25bb 41bd
000000b0: e4e2 e13e cfc4 913d f81f b23d d6a5 7c3e
000000c0: c495 963e c8af 07be d568 d0be 70a4 3c3e
000000d0: 97ca cebe 2aea 22be 4a98 b63d 30f0 7dbc
000000e0: 9726 ed3e 31bd 9cbe b3f5 80be 059c d4bd
000000f0: 2cca 6b3d 7e74 e53e 9d4c 863e 2537 f5be

base.mlp.fc_h.0.weight f4 [64, 64]
-0.0015417316 0.18678156 -0.00056470453 -0.04047322 0.25910527 -0.22007109 0.25011823 -0.2730849
-0.03634839 -0.17470016 -0.024097908 -0.088774644 0.18487383 0.10032787 -0.1706975 -0.31429118
0.23838548 -0.23134053 -0.00490346 0.13668954 0.2034693 -0.05494526 -0.14527632 -0.17455272
-0.24112423 0.15013427 0.034279007 -0.11418477 -0.11267355 -0.022621207 -0.13685785 0.18310478
-0.011089657 -0.23057333 0.10210822 -0.06103523 0.214482 0.30826738 0.15664914 0.16202676
-0.37627095 0.043598235 0.29564488 -0.13814624 -0.10563611 -0.038695715 -0.42214355 0.19353674
-0.39236957 -0.03846883 -0.073449746 0.15669987 -0.17527251 -0.01646128 0.0019399067 0.09760706
-0.030516153 0.0044575273 -0.26363438 0.006796906 -0.12151411 0.03370544 -0.07932668 0.23822325
-0.008247411 -0.015145386 -0.11131665 -0.1100793 0.16421749 -0.07089733 0.2519484 0.2271081
0.4315689 0.1753864 -0.122546315 0.05114914 0.3600657 0.07088807 0.033387385 0.036177117
0.09491771 -0.14231396 -0.06437817 0.19508205 -0.015593317 0.28881392 -0.06312469 0.31296006
-0.010717427 -0.043686092 -0.042551767 -0.39216208 0.013171515 -0.14163339 -0.119649425 -0.024575647
0.15678114 0.34062397 0.08826156 0.2320705 -0.11823001 0.12665771 -0.2674491 0.017629394
-0.09220973 0.080807954 -0.12837724 -0.051650763 0.19586493 0.27034053 0.17487761 0.41200617
0.08690419 -0.15211272 -0.029405275 0.15401706 0.011218284 0.018833019 -0.27042738 -0.01716286
0.2675236 -0.055160224 -0.030341353 -0.25372705 -0.22113322 0.017267052 -0.10569984 -0.16443925
-0.14741202 0.17101668 0.23492855 -0.060840875 0.057162818 0.17871161 -0.21120828 -0.33317232
0.096668504 0.07266342 0.2613162 0.19484068 0.15451513 -0.09408045 0.13962558 -0.06597994
0.16316962 0.1419344 -0.013520237 -0.38226655 0.04989363 -0.10010246 -0.103589036 0.15231769
-0.018106874 -0.030931143 0.0029738285 0.050282042 -0.18200429 -0.13718963 0.07863502 -0.18479648
-0.03128252 0.026933394 0.20393041 0.36962247 -0.058020677 0.0004120763 0.13770235 -0.19949412
-0.0843349 0.111421905 -0.11896884 0.08170721 0.020880235 -0.28452268 -0.1055624 0.116635546
-0.1658531 -0.17537841 0.21469618 -0.1670368 0.21373232 -0.11190166 0.2814675 0.4159577
0.28030998 0.17816637 -0.035478696 -0.35998103 0.030510388 -0.30100673 -0.12026361 -0.088534005
-0.06684436 -0.42334586 -0.21670653 -0.0032596372 0.17995358 -0.025970208 0.18741156 -0.21973924
-0.13249038 0.07745492 -0.1033507 -0.1483498 -0.396287 -0.019953553 -0.14453945 -0.07468375
-0.021686442 -0.13783328 0.056666486 0.05212788 -0.17790963 0.019310448 0.0071993917 -0.25731748
0.07551896 0.3583074 0.20913376 0.06599344 0.263361 0.03725645 -0.10324608 -0.11217308
0.41097957 -0.029566541 0.31153482 0.19916826 0.026135277 -0.062122766 0.2741967 0.091789216
0.1759749 -0.114433594 0.23448622 0.066752516 -0.03366069 -0.17395514 0.20646268 0.21824928
0.13005048 -0.013516749 -0.17862055 0.0010013881 0.3691936 -0.038318817 -0.052133515 -0.051687468
0.20660943 -0.06448937 0.011327921 -0.306138 0.008593753 -0.24025264 0.025304778 0.041990463
00000000: ee13 caba aa43 3f3e ae08 14ba 3fc7 25bd
00000010: 72a9 843e 515a 61be 7f0f 803e c9d1 8bbe
00000020: 0de2 14bd 99e4 32be fa68 c5bc 7bcf b5bd
00000030: 914f 3d3e b378 cd3d 53cb 2ebe c6ea a0be
00000040: 531b 743e 88e4 6cbe 34ad a0bb 58f8 0b3e
00000050: 425a 503e 480e 61bd 51c3 14be f3bd 32be
00000060: 45e9 76be ccbc 193e 2568 0c3d b4d9 e9bd
00000070: 64c1 e6bd 1c50 b9bc 7724 0cbe d27f 3b3e
00000080: 65b1 35bc 6a1b 6cbe 1d1e d13d 1400 7abd
00000090: 2ba1 5b3e 39d5 9d3e a268 203e 58ea 253e
000000a0: 96a6 c0be 1094 323d c45e 973e 3576 0dbe
000000b0: bf57 d8bd 667f 1ebd 3323 d8be 7f2e 463e
000000c0: aae4 c8be 7e91 1dbd d26c 96bd ee75 203e
000000d0: a37a 33be ced9 86bc 7844 fe3a 36e6 c73d
000000e0: 03fd f9bc 7310 923b 16fb 86be 94b8 de3b
000000f0: 64dc f8bd b70e 0a3d 0776 a2bd ccf0 733e
00000100: 2620 07bc 5a24 78bc fcf9 e3bd 4271 e1bd
00000110: a128 283e 9f32 91bd 61ff 803e 078f 683e
00000120: 99f6 dc3e 7e98 333e 90f9 fabd c381 513d
00000130: 885a b83e c42d 913d 36c1 083d 752e 143d
00000140: 3764 c23d c0ba 11be b4d8 83bd 97c3 473e
00000150: 1d7b 7fbc 6bdf 933e 8447 81bd 4d3c a03e
00000160: 2698 2fbc 30f0 32bd c34a 2ebd 78c9 c8be
00000170: 57cd 573c 5808 11be c20a f5bd de52 c9bc
00000180: 3c8b 203e 4466 ae3e 7ac2 b43d e4a3 6d3e
00000190: 9322 f2bd 8fb2 013e 17ef 88be 856b 903c
000001a0: 74d8 bcbd a47e a53d 5375 03be c08f 53bd
000001b0: d190 483e 136a 8a3e 1e13 333e 79f2 d23e
000001c0: d3fa b13d 70c3 1bbe 55e3 f0bc a6b6 1d3e
000001d0: e5cc 373c b447 9a3c 7575 8abe 2099 8cbc
000001e0: daf8 883e b0ef 61bd 6e8e f8bc 83e8 81be
000001f0: bf70 62be a273 8d3c 2879 d8bd c362 28be
00000200: 2df3 16be ff1e 2f3e 1c91 703e 4834 79bd
00000210: 8f23 6a3d 2d00 373e fc46 58be 9095 aabe
00000220: 23fa c53d 8fd0 943d 3dcb 853e 5184 473e
00000230: 3739 1e3e 40ad c0bd 02fa 0e3e 7e20 87bd
00000240: f015 273e 4057 113e fc83 5dbc 71b8 c3be
00000250: 435d 4c3d 8502 cdbd 7d26 d4bd 2bf9 1b3e
00000260: de54 94bc 4f63 fdbc 90e4 423b 8bf4 4d3d
00000270: 555f 3abe 707b 0cbe 660b a13d 4a3b 3dbe
00000280: 1a22 00bd 6ca3 dc3c 22d3 503e 283f bd3e
00000290: 17a7 6dbd f20b d839 d801 0d3e 3048 4cbe
000002a0: c7b7 acbd 2b31 e43d efa5 f3bd 1c56 a73d
000002b0: 070d ab3c f5ac 91be 1931 d8bd 9ede ee3d
000002c0: 65d5 29be 6696 33be 51d9 5b3e b20b 2bbe
000002d0: a5dc 5a3e b32c e5bd 821c 903e 68f8 d43e
000002e0: ca84 8f3e 3f71 363e 1c52 11bd 6f4f b8be
000002f0: ecf0 f93c 8e1d 9abe c44c f6bd 5151 b5bd
00000300: b2e5 88bd cac0 d8be 51e8 5dbe a39f 55bb
00000310: c045 383e 79bf d4bc d1e8 3f3e 5303 61be
00000320: 8fab 07be afa0 9e3d 88a9 d3bd 03e9 17be
00000330: 21e6 cabe a275 a3bc 2602 14be cbf3 98bd
00000340: c4a7 b1bc 2b24 0dbe 1e1b 683d 0b84 553d
00000350: f12d 36be f230 9e3c e0e8 eb3b 1ebf 83be
00000360: afa9 9a3d 1174 b73e 2927 563e 9227 873d
00000370: 41d7 863e 389a 183d ae72 d3bd 00bb e5bd
00000380: ea6b d23e 8835 f2bc 7e81 9f3e c4f2 4b3e
00000390: a619 d63c 7174 7ebd 8363 8c3e fcfb bb3d
000003a0: c432 343e 295c eabd 281d 703e 8bb5 883d
000003b0: cbdf 09bd 4c21 32be f46a 533e bd7c 5f3e
000003c0: f42b 053e 5b75 5dbc 4ee8 36be 0241 833a
000003d0: f206 bd3e 31f4 1cbd f489 55bd 3db6 53bd
000003e0: 6c91 533e 0113 84bd bf98 393c 1fbe 9cbe
000003f0: d0cc 0c3c ca04 76be f74b cf3c 31fe 2b3d

base.mlp.fc_h.0.bias f4 [64]
0.0 0.0 0.0 0.0 0.0 0.0 0.0 0.0
0.0 0.0 0.0 0.0 0.0 0.0 0.0 0.0
0.0 0.0 0.0 0.0 0.0 0.0 0.0 0.0
0.0 0.0 0.0 0.0 0.0 0.0 0.0 0.0
0.0 0.0 0.0 0.0 0.0 0.0 0.0 0.0
0.0 0.0 0.0 0.0 0.0 0.0 0.0 0.0
0.0 0.0 0.0 0.0 0.0 0.0 0.0 0.0
0.0 0.0 0.0 0.0 0.0 0.0 0.0 0.0
00000000: 0000 0000 0000 0000 0000 0000 0000 0000
00000010: 0000 0000 0000 0000 0000 0000 0000 0000
00000020: 0000 0000 0000 0000 0000 0000 0000 0000
00000030: 0000 0000 0000 0000 0000 0000 0000 0000
00000040: 0000 0000 0000 0000 0000 0000 0000 0000
00000050: 0000 0000 0000 0000 0000 0000 0000 0000
00000060: 0000 0000 0000 0000 0000 0000 0000 0000
00000070: 0000 0000 0000 0000 0000 0000 0000 0000
00000080: 0000 0000 0000 0000 0000 0000 0000 0000
00000090: 0000 0000 0000 0000 0000 0000 0000 0000
000000a0: 0000 0000 0000 0000 0000 0000 0000 0000
000000b0: 0000 0000 0000 0000 0000 0000 0000 0000
000000c0: 0000 0000 0000 0000 0000 0000 0000 0000
000000d0: 0000 0000 0000 0000 0000 0000 0000 0000
000000e0: 0000 0000 0000 0000 0000 0000 0000 0000
000000f0: 0000 0000 0000 0000 0000 0000 0000 0000

base.mlp.fc_h.2.weight f4 [64]
1.0 1.0 1.0 1.0 1.0 1.0 1.0 1.0
1.0 1.0 1.0 1.0 1.0 1.0 1.0 1.0
1.0 1.0 1.0 1.0 1.0 1.0 1.0 1.0
1.0 1.0 1.0 1.0 1.0 1.0 1.0 1.0
1.0 1.0 1.0 1.0 1.0 1.0 1.0 1.0
1.0 1.0 1.0 1.0 1.0 1.0 1.0 1.0
1.0 1.0 1.0 1.0 1.0 1.0 1.0 1.0
1.0 1.0 1.0 1.0 1.0 1.0 1.0 1.0
00000000: 0000 803f 0000 803f 0000 803f 0000 803f
00000010: 0000 803f 0000 803f 0000 803f 0000 803f
00000020: 0000 803f 0000 803f 0000 803f 0000 803f
00000030: 0000 803f 0000 803f 0000 803f 0000 803f
00000040: 0000 803f 0000 803f 0000 803f 0000 803f
00000050: 0000 803f 0000 803f 0000 803f 0000 803f
00000060: 0000 803f 0000 803f 0000 803f 0000 803f
00000070: 0000 803f 0000 803f 0000 803f 0000 803f
00000080: 0000 803f 0000 803f 0000 803f 0000 803f
00000090: 0000 803f 0000 803f 0000 803f 0000 803f
000000a0: 0000 803f 0000 803f 0000 803f 0000 803f
000000b0: 0000 803f 0000 803f 0000 803f 0000 803f
000000c0: 0000 803f 0000 803f 0000 803f 0000 803f
000000d0: 0000 803f 0000 803f 0000 803f 0000 803f
000000e0: 0000 803f 0000 803f 0000 803f 0000 803f
000000f0: 0000 803f 0000 803f 0000 803f 0000 803f

base.mlp.fc_h.2.bias f4 [64]
0.0 0.0 0.0 0.0 0.0 0.0 0.0 0.0
0.0 0.0 0.0 0.0 0.0 0.0 0.0 0.0
0.0 0.0 0.0 0.0 0.0 0.0 0.0 0.0
0.0 0.0 0.0 0.0 0.0 0.0 0.0 0.0
0.0 0.0 0.0 0.0 0.0 0.0 0.0 0.0
0.0 0.0 0.0 0.0 0.0 0.0 0.0 0.0
0.0 0.0 0.0 0.0 0.0 0.0 0.0 0.0
0.0 0.0 0.0 0.0 0.0 0.0 0.0 0.0
00000000: 0000 0000 0000 0000 0000 0000 0000 0000
00000010: 0000 0000 0000 0000 0000 0000 0000 0000
00000020: 0000 0000 0000 0000 0000 0000 0000 0000
00000030: 0000 0000 0000 0000 0000 0000 0000 0000
00000040: 0000 0000 0000 0000 0000 0000 0000 0000
00000050: 0000 0000 0000 0000 0000 0000 0000 0000
00000060: 0000 0000 0000 0000 0000 0000 0000 0000
00000070: 0000 0000 0000 0000 0000 0000 0000 0000
00000080: 0000 0000 0000 0000 0000 0000 0000 0000
00000090: 0000 0000 0000 0000 0000 0000 0000 0000
000000a0: 0000 0000 0000 0000 0000 0000 0000 0000
000000b0: 0000 0000 0000 0000 0000 0000 0000 0000
000000c0: 0000 0000 0000 0000 0000 0000 0000 0000
000000d0: 0000 0000 0000 0000 0000 0000 0000 0000
000000e0: 0000 0000 0000 0000 0000 0000 0000 0000
000000f0: 0000 0000 0000 0000 0000 0000 0000 0000

base.mlp.fc2.0.0.weight f4 [64, 64]
-0.7962381 0.23291175 0.37003624 0.78536475 0.5437329 -0.34315452 0.23438907 -0.31981134
-0.6762159 -0.5649384 -0.005022431 0.17618911 0.44303325 0.69853365 0.21147634 -0.94607246
0.21679541 -0.18913563 0.77036315 0.2327141 0.22502908 -0.15434633 0.026684018 -0.028615871
-0.33643514 0.23863076 0.41704205 -0.044189658 -0.12784354 0.59201723 -0.2185512 0.32175165
0.3085477 -0.84866005 0.52881694 -0.15363504 0.50636005 0.3455126 0.11896316 -0.21885921
-0.035107076 -0.12506498 0.006093642 -0.3719304 0.14925939 0.026265325 -0.48206475 0.1907493
-0.18317023 -0.20497748 0.008001658 0.23228596 -0.025554487 0.13051705 -0.25527242 -0.088269986
0.007863934 -0.042702045 -0.17450164 -0.02772605 -0.4993353 -0.32301745 -0.21414353 0.43509766
1.532331 0.2954692 0.36748263 -0.4890419 1.2976961 -1.1662719 -1.5601702 0.1851295
2.4409134 1.0244853 0.14261977 -1.355958 -0.5139448 -0.50555813 -0.48665047 0.83247495
1.2068558 -0.7806661 0.4157927 -0.031552635 0.051393807 -1.3736331 -2.1138659 -0.48944992
-0.13002767 -1.6086271 -0.42667517 -1.9167076 0.006215945 -0.85822994 -0.5003115 -0.9107733
-0.6052229 1.805429 -1.4092404 0.36454228 -2.3202047 1.3921503 -0.74786305 1.3189721
-0.5215597 1.5337632 0.3633992 -1.1570625 1.8977119 0.9224831 0.9462226 1.2620271
0.6475154 -0.9340567 -0.96751785 0.22402783 -0.30213815 -1.0882263 -0.16638266 -0.54714376
1.6442512 -0.8885925 -0.81173694 0.26658833 -0.7360055 0.8254682 -0.33045197 -0.4857581
-0.23314959 0.16117148 0.36131075 0.30919677 0.0946047 -0.22240397 -0.27474946 -0.5810278
-0.19655515 -0.20703596 0.18452364 0.037899878 0.08939612 0.14630972 0.12138482 0.30503207
0.3349515 -0.06959626 0.13480508 -0.63070124 0.28413194 -0.11879721 -0.076994464 0.24910425
-0.3522041 0.20973048 -0.30309227 -0.20819099 0.47164714 -0.1800686 -0.32235467 0.5658078
-0.08658053 0.17236139 0.2739293 0.3436238 0.13878508 -0.22861476 -0.31263927 -0.36577442
-0.1725739 -0.22023599 -0.58703727 0.42835364 0.36693835 -0.009722495 0.19803277 -0.042340428
-0.4234407 -0.4537275 0.9927142 -0.42017856 0.7381343 0.28109875 0.87834865 0.17922203
0.23753434 0.05782872 -0.27503422 -0.7483742 0.6912101 -0.0653035 0.15468384 0.11337835
-0.25830936 -0.55551034 -0.23551446 0.047234174 -0.02248689 0.18552428 0.5231694 -0.13909668
-0.6696437 -0.23208483 -0.07858038 -0.04984801 -0.50247747 -0.19470692 -0.186827 0.39329815
0.22904788 -0.23697473 0.41862172 0.055370953 0.023777224 0.5332086 0.48434517 -0.189663
0.083963364 0.2883302 0.06928026 -0.0070033064 0.45893472 -0.54842055 0.0556511 0.112333596
0.31244388 -0.059369996 0.10524292 0.403605 0.45362505 -0.16900413 0.11512702 0.20879687
-0.008265788 -0.040078472 0.9803472 0.065498814 0.1796423 0.23545651 0.1525615 0.14210875
0.24614942 -0.16727899 -0.091604546 0.58476484 0.7092148 -0.35999605 -0.47809416 -0.095246375
0.17295161 -0.38994324 -0.09582804 -0.37431768 -0.02992117 -0.2584057 -0.5371318 0.39818355
00000000: 43d6 4bbf 6b80 6e3e 6475 bd3e aa0d 493f
00000010: 1432 0b3f f3b1 afbe b003 703e 50be a3be
00000020: 7c1c 2dbf ce9f 10bf 3493 a4bb eb6a 343e
00000030: 41d5 e23e 1ad3 323f 418d 583e ce31 72bf
00000040: 9eff 5d3e c5ac 41be 8536 453f 9b4c 6e3e
00000050: 066e 663e f70c 1ebe 7198 da3c d56b eabc
00000060: 3a41 acbe 9f5b 743e 8986 d53e 3700 35bd
00000070: 6be9 02be 718e 173f e3cb 5fbe a2bc a43e
00000080: f7f9 9d3e c941 59bf 8c60 073f 8152 1dbe
00000090: d0a0 013f 07e7 b03e f5a2 f33d a11c 60be
000000a0: 70cc 0fbd 0911 00be 2dad c73b a96d bebe
000000b0: 74d7 183e 612a d73c 31d1 f6be c953 433e
000000c0: fa90 3bbe 9ee5 51be 6319 033c 5fdc 6d3e
000000d0: a557 d1bc 43a6 053e 11b3 82be e5c6 b4bd
000000e0: bbd7 003c 57e8 2ebd 8fb0 32be be21 e3bc
000000f0: e0a8 ffbe 8b62 a5be 7148 5bbe 1fc5 de3e
00000100: 6c23 c43f bd47 973e af26 bc3e b363 fabe
00000110: e81a a63f 6648 95bf a8b3 c7bf 9692 3d3e
00000120: ed37 1c40 5622 833f eb0a 123e 0890 adbf
00000130: e391 03bf 426c 01bf 402a f9be 141d 553f
00000140: 407a 9a3f bcd9 47bf c8e2 d43e 563d 01bd
00000150: 5082 523d 36d3 afbf 9449 07c0 2e99 fabe
00000160: f925 05be 7ee7 cdbf 2b75 dabe ad56 f5bf
00000170: 20af cb3b f5b4 5bbf 6a14 00bf 7028 69bf
00000180: e3ef 1abf 4c18 e73f fd61 b4bf 49a5 ba3e
00000190: 3c7e 14c0 fb31 b23f f473 3fbf 14d4 a83f
000001a0: f084 05bf 5a52 c43f 760f ba3e a01a 94bf
000001b0: 39e8 f23f da27 6c3f a53b 723f 1b8a a13f
000001c0: 92c3 253f 571e 6fbf 40af 77bf 8d67 653e
000001d0: dab1 9abe 004b 8bbf 3760 2abe 9d11 0cbf
000001e0: d376 d23f cc7a 63bf fecd 4fbf 447e 883e
000001f0: db6a 3cbf e251 533f 0031 a9be 49b5 f8be
00000200: c4be 6ebe 230a 253e b9fd b83e 0a4f 9e3e
00000210: 1cc0 c13d debd 63be f6ab 8cbe 3dbe 14bf
00000220: c145 49be 3c01 54be c4f3 3c3e e73c 1b3d
00000230: 5015 b73d 37d2 153e 9b98 f83d 2a2d 9c3e
00000240: c37e ab3e 7c88 8ebd 580a 0a3e a375 21bf
00000250: be79 913e f44b f3bd 46af 9dbd 2f15 7f3e
00000260: 1954 b4be 96c3 563e e92e 9bbe 0530 55be
00000270: bc7b f13e e763 38be ac0b a5be c8d8 103f
00000280: 2251 b1bd 817f 303e 7640 8c3e 75ef af3e
00000290: ad1d 0e3e fd19 6abe 4112 a0be c946 bbbe
000002a0: 36b7 30be 8b85 61be 1348 16bf 2b51 db3e
000002b0: 58df bb3e 1a4b 1fbc 1ac9 4a3e 286d 2dbd
000002c0: 38cd d8be f94e e8be 8522 7e3f a521 d7be
000002d0: 5ff6 3c3f 2dec 8f3e 75db 603f fb85 373e
000002e0: 343c 733e cfdd 6c3d 49d1 8cbe 7495 3fbf
000002f0: 25f3 303f d7bd 85bd 7165 1e3e e932 e83d
00000300: 2041 84be ed35 0ebf b42a 71be 9f78 413d
00000310: 6d36 b8bc 14fa 3d3e 6eee 053f 5c6f 0ebe
00000320: c56d 2bbf a5a7 6dbe c0ee a0bd 6d2d 4cbd
00000330: 5da2 00bf 4061 47be 944f 3fbe 605e c93e
00000340: 878b 6a3e 81a9 72be 9655 d63e a7cc 623d
00000350: 74c8 c23c 5c80 083f 17fc f73e 0437 42be
00000360: fcf4 ab3d 04a0 933e cfe2 8d3d fe7b e5bb
00000370: 7ef9 ea3e 4a65 0cbf 68f2 633d 280f e63d
00000380: a5f8 9f3e f42d 73bd 9a89 d73d 51a5 ce3e
00000390: 8b41 e83e 6b0f 2dbe b7c7 eb3d d9ce 553e
000003a0: 3a6d 07bc 5329 24bd 09f8 7a3f 3e24 863d
000003b0: 27f4 373e 831b 713e 1539 1c3e f584 113e
000003c0: 980e 7c3e 2f4b 2bbe 2a9b bbbd 26b3 153f
000003d0: 1a8f 353f 6751 b8be c2c8 f4be 8810 c3bd
000003e0: 3a1a 313e a4a6 c7be 7e41 c4bd 91a6 bfbe
000003f0: 3e1d f5bc c04d 84be 7881 09bf b7de cb3e

base.mlp.fc2.0.0.bias f4 [64]
-0.3355357 0.8504245 0.08102633 -0.06054285 -0.09763238 -0.20384039 -0.51561606 0.03246746
-0.15659659 0.25680405 -0.25187176 -0.5605805 -0.38095757 0.045299966 -0.3309686 -0.37256655
-0.22182985 -0.33499274 0.0152960885 -0.013034153 -0.16007625 -0.04992889 -0.49151403 -0.28401828
-0.40643498 -0.16480511 -0.45609757 -0.036069565 -0.33296537 -0.2693098 -0.62531215 -0.28443998
0.07395612 -0.42871246 -0.12828062 -0.12213647 -0.27627876 -0.06990864 -0.64720404 -0.04850072
-0.22703022 -0.26129937 -0.46303046 -0.29177028 -0.48294964 -0.30259752 -0.20724761 -0.37344325
-0.3430232 -0.035415992 -0.18706363 0.0034916205 0.12456981 -0.03175668 -0.09010693 -0.21880999
-0.018181035 0.044420317 -0.20321767 -0.067951 -0.1809113 -0.35536298 -0.28965685 -0.34412757
00000000: 56cb abbe 6cb5 593f 22f1 a53d c8fb 77bd
00000010: 7cf3 c7bd 89bb 50be 6aff 03bf 99fc 043d
00000020: db5a 20be d27b 833e 56f5 80be 3482 0fbf
00000030: df0c c3be 758c 393d b774 a9be 0bc1 bebe
00000040: 5d27 63be 2b84 abbe 729c 7a3c 338d 55bc
00000050: 07eb 23be 3c82 4cbd baa7 fbbe d86a 91be
00000060: 3f18 d0be acc2 28be 9f85 e9be aebd 13bd
00000070: 707a aabe f9e2 89be 7514 20bf 1ea2 91be
00000080: 4e76 973d 3380 dbbe ff5b 03be b022 fabd
00000090: 6974 8dbe 432c 8fbd 2aaf 25bf b1a8 46bd
000000a0: 9c7a 68be 08c9 85be 5412 edbe ea62 95be
000000b0: 2d45 f7be 10ee 9abe b838 54be f433 bfbe
000000c0: bda0 afbe 5c10 11bd 9c8d 3fbe acd3 643b
000000d0: 751e ff3d 4b13 02bd fb89 b8bd ba0f 60be
000000e0: 65f0 94bc 14f2 353d 4b18 50be e529 8bbd
000000f0: d040 39be 23f2 b5be e74d 94be 7d31 b0be

base.mlp.fc2.0.2.weight f4 [64]
1.3925362 0.1011257 1.2639203 1.2709221 0.6513136 1.0653172 1.2764233 1.6279086
1.2339551 0.9226915 1.5844305 0.9701675 1.4307554 1.2965266 1.2195809 0.81700355
1.151445 0.950839 0.9800184 1.1988324 1.2947671 1.0226848 0.63824487 1.3002164
0.7882593 1.0249159 1.0371646 1.3853927 1.0753629 1.1874653 0.7909499 1.4162276
1.0409768 1.0336018 1.1597774 0.87965655 1.32457 1.4378037 0.7085189 1.5709591
1.5047605 1.4731803 0.5585973 1.0036141 1.386543 1.2384608 0.75218356 0.8438651
1.474965 1.2108186 1.239433 0.5204842 1.4019493 1.4432423 1.5226071 1.6328864
0.86770535 1.0560675 1.8244025 1.0628775 1.5015428 1.2706058 0.8598274 1.7082754
00000000: a03e b23f fe1a cf3d 24c8 a13f 93ad a23f
00000010: 7dbc 263f 505c 883f d761 a33f 4f5f d03f
00000020: 3ef2 9d3f 8335 6c3f 9ece ca3f e65c 783f
00000030: fe22 b73f 95f4 a53f 3a1b 9c3f 2527 513f
00000040: 8d62 933f 2f6a 733f 7ce2 7a3f 5773 993f
00000050: eeba a53f 56e7 823f 0464 233f 7e6d a63f
00000060: 5dcb 493f 7230 833f cfc1 843f 8c54 b13f
00000070: 7ea5 893f ddfe 973f b17b 4a3f f246 b53f
00000080: ba3e 853f 104d 843f 9673 943f 2c31 613f
00000090: 828b a93f f409 b83f 7f61 353f 3015 c93f
000000a0: fe9b c03f 2c91 bc3f 3c00 0f3f 6d76 803f
000000b0: 3e7a b13f e285 9e3f 1a8f 403f 8b07 583f
000000c0: a7cb bc3f 1bfc 9a3f bea5 9e3f 743e 053f
000000d0: 1373 b33f 2abc b83f cae4 c23f 6c02 d13f
000000e0: f021 5e3f 382d 873f 0586 e93f 5f0c 883f
000000f0: 8e32 c03f 36a3 a23f a61d 5c3f c5a8 da3f

base.mlp.fc2.0.2.bias f4 [64]
-0.07021447 -0.6775968 0.14566658 0.12752417 0.029116867 0.116592474 0.2572491 0.3988963
0.17190331 -0.013050411 0.27220735 0.17088303 0.051989384 0.1264057 0.08571198 0.041474592
0.17836356 0.17435394 0.19576478 0.039217383 0.1372994 0.34544596 0.1784706 0.33824235
0.14928493 0.27498105 0.20259646 0.34067076 0.23834807 -0.013838879 -0.01100832 0.05237479
-0.017632034 0.1692557 0.11147895 0.1454711 0.1546258 0.20632625 0.1591509 0.22390912
0.2877669 0.20045011 0.03675532 0.0017208403 0.21159436 0.24349533 -0.09942906 0.23762274
0.32836226 0.25753284 0.21461199 0.007913457 0.3397131 0.21052529 0.19214599 0.22725062
-0.014352693 0.09226684 0.36722535 0.18977797 0.25761333 0.21104978 0.17362168 0.16712938
00000000: 9bcc 8fbd fc76 2dbf 9f29 153e b295 023e
00000010: 7f86 ee3c 09c8 ee3d 27b6 833e 233c cc3e
00000020: 6c07 303e 64d1 55bc c35e 8b3e f6fb 2e3e
00000030: d2f2 543d 7f70 013e c389 af3d 43e1 293d
00000040: f0a4 363e d789 323e 9076 483e 68a2 203d
00000050: 3798 0c3e 4bde b03e ffc0 363e 1a2e ad3e
00000060: 26de 183e 51ca 8c3e 7275 4f3e 666c ae3e
00000070: 8411 743e 77bc 62bc 3e5c 34bc f386 563d
00000080: 0e71 90bc 5e51 2d3e 134f e43d 60f6 143e
00000090: 3a56 1e3e 3047 533e 74f8 223e 6f48 653e
000000a0: 2f56 933e cb42 4d3e bf8c 163d d28d e13a
000000b0: 31ac 583e d756 793e 77a1 cbbd 6053 733e
000000c0: 191f a83e 58db 833e 3fc3 5b3e 72a7 013c
000000d0: e0ee ad3e f193 573e ebc1 443e 63b4 683e
000000e0: 8f27 6bbc 66f6 bc3d f604 bc3e 2855 423e
000000f0: e5e5 833e 6f1d 583e e2c9 313e f723 2b3e

act.action_out.linear.weight f4 [19, 64]
-0.516025 -0.056851808 0.87252295 0.59384793 0.26751554 0.35443848 -0.32462922 0.47741714
-0.31068704 0.34570742 -0.29101798 -0.4060159 0.18092601 0.0001937867 0.10171303 -0.0706898
-0.48729247 0.15162791 0.16621009 0.022721874 -0.39480752 -0.030363055 0.034569602 -0.16155645
-0.14392833 0.07849521 -0.2529124 0.3603796 -0.35381386 0.53756404 -0.23704137 0.17071477
0.34414577 -0.28831378 -0.23355645 0.35493135 0.1169992 0.24606484 -0.049201876 -0.3162273
0.65376365 0.29469475 -0.2535194 -0.46073592 -0.04449156 0.5188533 -0.21159533 -0.16505454
-0.8564276 -0.39885193 -0.24456766 0.33180758 0.2226151 0.024910474 -0.75601435 -0.6629961
-0.20015532 0.28919014 0.46087995 -0.20472306 -0.6998778 -0.6517937 -0.62620986 -0.050470803
-0.53637606 0.010086554 -0.35917473 -0.20233908 -0.25146133 -0.3141551 0.041088074 0.178214
0.21487162 -0.28074315 -0.2532531 0.10385287 -0.96565837 0.6454603 -0.39753395 -0.12086063
0.40774179 0.13709837 0.15033288 -0.3379813 -0.064292684 0.71832037 -0.08079528 -0.0775182
0.12617251 0.013764994 -0.053325288 -0.6806629 -0.11036849 -0.2497092 -0.16602454 -0.53018427
0.44748932 -0.24181788 -0.5949052 -0.20442507 0.5531849 0.5222242 -0.027660381 0.40055925
-0.64570755 -0.12471622 -0.040365554 0.29286236 0.23936139 -0.43682855 -0.54321384 -0.1226591
0.29521957 0.22417946 0.025510062 -0.23197757 -0.16683209 0.9104139 -0.2779311 0.048986003
0.4689667 -0.5624863 -0.7244807 0.23775855 -0.15439591 0.5328066 0.119744085 0.02443356
-0.1084629 -0.10913621 0.20270368 -0.3924554 0.2865856 0.026426742 -0.11894036 0.52452385
-0.056779105 -0.32700405 -0.27444333 0.14167345 0.013780768 0.023474481 -0.6309702 -0.30242833
0.18048902 -0.37843373 0.18918686 0.049457923 0.65022904 0.048110005 -0.0919018 -0.02298971
-0.053201627 0.36725944 -0.2583563 -0.3149096 -0.23227331 -0.16694291 -0.31777012 -0.41720015
0.40301585 0.23696446 0.58158875 -0.118147455 0.48568553 0.3651059 0.050895993 0.09235271
-0.5541758 -0.24779494 -0.050006807 -0.6982548 -0.43731785 -0.7126285 -0.12949215 0.0141360685
-0.43886417 -0.2638961 -0.46558562 -0.09651921 0.40243223 -0.0021150385 0.073554255 0.53936595
-0.09924651 -0.25824383 0.56086665 -0.018027838 0.0848426 -0.09061709 -0.37143224 0.72394085
0.21274251 0.13502601 0.2624225 -0.67355394 0.23090303 0.3952447 -0.07933443 0.45170745
-0.35278013 0.18289138 -0.34608498 -0.38213524 0.25401163 -0.8757277 -0.45882365 -0.3407267
-0.4030836 -0.059455402 0.09566634 -0.08755182 0.11954761 0.21871333 0.035875518 -0.23195888
-0.036321394 0.23428863 0.25635892 -0.25880492 0.38052955 0.4451338 -0.22870144 0.29108182
0.07795527 0.007846563 -0.19784027 -0.5596778 -0.31206372 -0.09640709 0.031222686 -0.82133853
-0.13878554 -0.1595019 -0.08993437 -0.27687576 -0.027229259 0.030484017 -0.3113879 0.06249893
0.4632887 -0.2706475 0.018439237 0.65171623 -0.07474114 -0.06358613 0.001245625 0.048694387
0.2090317 -0.44725138 -0.45015997 0.7329092 -0.36490786 -0.07424241 0.26300114 -0.36997172
00000000: 371a 04bf 71dd 68bd aa5d 5f3f 6b06 183f
00000010: ccf7 883e f678 b53e cd35 a6be 0570 f43e
00000020: 5f12 9fbe 9000 b13e 4f00 95be 51e1 cfbe
00000030: ab44 393e 3933 4b39 ec4e d03d d0c5 90bd
00000040: 667e f9be 5944 1b3e fa32 2a3e 3923 ba3c
00000050: 3624 cabe f1bb f8bc db98 0d3d 0e6f 25be
00000060: f361 13be 19c2 a03d bc7d 81be ad83 b83e
00000070: 1727 b5be cc9d 093f f9ba 72be dacf 2e3e
00000080: e033 b03e dd9d 93be 6c29 6fbe 90b9 b53e
00000090: 479d ef3d 6cf8 7b3e e887 49bd 8be8 a1be
000000a0: 0e5d 273f 3be2 963e 4bcd 81be 94e5 ebbe
000000b0: c83c 36bd 92d3 043f 72ac 58be 0f04 29be
000000c0: d73e 5bbf 5236 ccbe f26f 7abe afe2 a93e
000000d0: 36f5 633e 0d11 cc3c 288a 41bf 1dba 29bf
000000e0: 84f5 4cbe bb10 943e 75f8 eb3e eca2 51be
000000f0: 312b 33bf f4db 26bf 4a4f 20bf 79ba 4ebd
00000100: f14f 09bf 1342 253c c0e5 b7be fa31 4fbe
00000110: 8abf 80be f0d8 a0be f84b 283d bb7d 363e
00000120: 4e07 5c3e 91bd 8fbe 64aa 81be d0b0 d43d
00000130: 6335 77bf e33c 253f 9289 cbbe c785 f7bd
00000140: 88c3 d03e 8463 0c3e ddf0 193e e30b adbe
00000150: e2ab 83bd d8e3 373f ff77 a5bd ddc1 9ebd
00000160: 5e33 013e 9286 613c 9e6b 5abd ec3f 2ebf
00000170: e008 e2bd c5b3 7fbe 5602 2abe 28ba 07bf
00000180: 521d e53e 1b9f 77be b54b 18bf ce54 51be
00000190: 879d 0d3f 7cb0 053f 0698 e2bc 1a16 cd3e
000001a0: 174d 25bf 386b ffbd 5a56 25bd 0ef2 953e
000001b0: 271b 753e fea7 dfbe 1010 0bbf b234 fbbd
000001c0: 0527 973e 4d8f 653e 7afa d03c 878b 6dbe
000001d0: 08d6 2abe e310 693f fc4c 8ebe 8ca5 483d
000001e0: 671c f03e 1aff 0fbf 9177 39bf fa76 733e
000001f0: f619 1ebe 0366 083f 633c f53d e428 c83c
00000200: cc21 debd ce82 dfbd 8e91 4f3e eaef c8be
00000210: 59bb 923e e57c d83c 0197 f3bd 3247 063f
00000220: 3591 68bd 136d a7be d683 8cbe d812 113e
00000230: bbc8 613c 8e4d c03c 4387 21bf e3d7 9abe
00000240: 1dd2 383e 11c2 c1be 33ba 413e 6494 4a3d
00000250: 6975 263f ff0e 453d 0337 bcbd eb54 bcbc
00000260: f3e9 59bd 6e09 bc3e 4747 84be d53b a1be
00000270: 0ed9 6dbe 15f3 2abe c4b2 a2be 429b d5be
00000280: 1858 ce3e d0a6 723e 00e3 143f 4bf7 f1bd
00000290: c6ab f83e 29ef ba3e 5178 503d 6b23 bd3d
000002a0: 77de 0dbf f5bd 7dbe f0d3 4cbd d4c0 32bf
000002b0: 20e8 dfbe d26e 36bf 9799 04be f89a 673c
000002c0: ceb2 e0be 641d 87be 3d61 eebe ddab c5bd
000002d0: 990b ce3e 759c 0abb 9da3 963d e313 0a3f
000002e0: c141 cbbd 8938 84be f594 0f3f 1eaf 93bc
000002f0: f5c1 ad3d 7495 b9bd 5e2c bebe 3054 393f
00000300: 2cd9 593e 4244 0a3e 3e5c 863e 086e 2cbf
00000310: d871 6c3e 835d ca3e 177a a2bd 3346 e73e
00000320: 999f b4be e147 3b3e 0d32 b1be 3ba7 c3be
00000330: d00d 823e b12f 60bf efea eabe bb73 aebe
00000340: f960 cebe 8287 73bd b7ec c33d 5e4e b3bd
00000350: 61d5 f43d 63f6 5f3e 35f2 123d a186 6dbe
00000360: bec5 14bd 5ce9 6f3e 7a41 833e 1482 84be
00000370: c5d4 c23e 94e8 e33e b630 6abe ad08 953e
00000380: 03a7 9f3d df8e 003c a496 4abe 0b47 0fbf
00000390: d1c6 9fbe 1571 c5bd b8c6 ff3c 3e43 52bf
000003a0: cc1d 0ebe 7754 23be 832f b8bd a9c2 8dbe
000003b0: e50f dfbc 9eb9 f93c 3c6e 9fbe e1fe 7f3d
000003c0: 2d34 ed3e 4f92 8abe e20d 973c e0d6 263f
000003d0: e211 99bd 7239 82bd 3d44 a33a c473 473d
000003e0: 680c 563e 22fe e4be 5e7b e6be f09f 3b3f
000003f0: 34d5 babe 680c 98bd 16a8 863e ef6c bdbe

act.action_out.linear.bias f4 [19]
0.27540827 0.28096375 0.1434372 0.31949097 0.31012082 0.3256113 0.1296261 0.31665418
0.45162717 -0.10787907 -0.17933315 -0.234634 -0.07483914 0.43240196 -0.0626011 -0.2542744
-0.09133499 -0.33079535 -0.09254858
00000000: 5002 8d3e 7bda 8f3e 34e1 123e 5294 a33e
00000010: 28c8 9e3e 86b6 a63e b4bc 043e 7f20 a23e
00000020: ad3b e73e b4ef dcbd 1ca3 37be e543 70be
00000030: 4345 99bd ca63 dd3e 0135 80bd 4130 82be
00000040: d70d bbbd 025e a9be 1c8a bdbd
