trunk/models/mappo/base_0726/critic.pt (torch, 97077 bytes, 15 tensors)

base.feature_norm.weight f4 [215]
0.62418926 0.61950463 0.5919181 0.57025886 0.49745867 0.5314465 0.47159982 0.5393576
0.54004717 1.3658465 1.2584832 1.4471012 1.0169544 0.55019474 0.4625768 0.24585366
1.7091184 1.2461209 1.5128789 2.3774836 6.1423373 2.0464036 1.7558838 1.4920386
1.7143589 1.7109812 1.2894453 2.3586438 1.3573812 2.9135573 2.4915519 1.7636436
0.22229455 2.4119563 1.6768031 1.8900295 2.5887504 0.1000295 0.65538824 0.17829973
0.18535428 0.061193626 1.8906116 0.9059857 0.448708 0.9961982 0.35149315 0.30305767
0.5754076 0.37278476 0.6452333 0.13958402 1.2396147 0.23705854 0.70094526 0.6814624
0.58315015 1.4504576 0.3667973 0.9641242 -0.13747777 0.35603377 0.42206898 0.6401115
0.9261497 0.2533432 0.08995669 0.15182878 0.3282114 0.4193485 0.5211701 1.2069143
0.2789735 0.03826262 0.2688899 0.36247084 0.2891142 0.6829436 0.97810566 0.27356488
0.47215122 0.18348588 0.3304474 0.52373284 0.85235655 0.7021603 0.39578477 0.46438283
-0.04415347 0.22014752 0.52819407 0.40337914 1.1080892 0.2574551 0.5623562 0.22726347
0.34975436 0.40636405 0.38357222 1.1653193 0.658276 0.78110474 -0.063470446 0.38533604
0.5788738 0.55068946 0.9098252 0.51713735 -0.12559777 0.07292554 0.23817131 0.5428387
0.341878 0.46024388 0.6954025 2.0201647 0.38408634 0.24898769 0.90523857 1.8794513
2.0475645 1.8769975 1.8589884 1.3710276 2.289382 1.8993809 1.7885542 1.551218
1.75421 0.9986998 1.2928144 0.67831737 0.9213356 0.22470307 0.44817194 0.67979616
1.2343402 0.99198407 0.62733126 1.4080554 0.97531825 0.8053351 0.83790886 0.3034644
0.17057595 0.9839042 1.346905 0.375561 0.73768157 0.6023022 0.31262818 1.2738146
0.94209796 2.080944 0.08271831 0.4623339 0.3528063 0.364998 1.0968328 0.76769096
1.2691877 0.3685682 0.3708681 0.38871664 0.31092718 1.0449035 0.86105746 1.285528
0.1889909 0.34844348 0.5744439 0.3284497 0.43230203 0.28015542 0.66490096 0.28681433
0.57865494 0.376043 0.23413774 1.099747 0.9645615 0.1683224 0.18044288 0.3404324
0.4610546 0.32342517 0.67679346 0.88906103 0.9570947 0.3409343 0.32587072 0.25225934
0.38881445 0.52476573 0.3038393 1.0239065 0.23636469 0.050909948 0.3274919 0.45162123
0.36261493 0.40152177 0.7185219 0.26362237 0.016466074 0.46752632 0.6235788 0.8345076
0.79923946 0.4864928 0.1303719 0.37687886 0.32677162 0.3605504 0.47615424
00000000: deca 1f3f db97 1e3f f287 173f 7cfc 113f
00000010: e7b2 fe3e e10c 083f 8875 f13e 5713 0a3f
00000020: 8840 0a3f 0fd4 ae3f fa15 a13f 9d3a b93f
00000030: 902b 823f 90d9 0c3f ded6 ec3e 10c1 7b3e
00000040: 64c4 da3f e480 9f3f 04a6 c13f b128 1840
00000050: 078e c440 47f8 0240 cdc0 e03f 1ffb be3f
00000060: 1d70 db3f 6f01 db3f 8b0c a53f 05f4 1640
00000070: abbe ad3f b977 3a40 9675 1f40 13bf e13f
00000080: 2fa1 633e 7e5d 1a40 7ca1 d63f 7dec f13f
00000090: 16ae 2540 44dc cc3d 86c7 273f 3494 363e
000000a0: 83cd 3d3e 2ba6 7a3d 90ff f13f aeee 673f
000000b0: 0ebd e53e d806 7f3f e9f6 b33e 602a 9b3e
000000c0: ea4d 133f a5dd be3e 022e 253f 1def 0e3e
000000d0: b2ab 9e3f 79bf 723e 2671 333f 5274 2e3f
000000e0: 5449 153f 98a8 b93f dbcc bb3e d8d0 763f
000000f0: f9c6 0cbe 0f4a b63e 6d19 d83e 59de 233f
00000100: 2618 6d3f 33b6 813e 373b b83d 0179 1b3e
00000110: 530b a83e d9b4 d63e 676b 053f 2b7c 9a3f
00000120: 9dd5 8e3e 44b9 1c3d f0ab 893e c795 b93e
00000130: c706 943e 64d5 2e3f 2265 7a3f b210 8c3e
00000140: cebd f13e b9e3 3b3e 6730 a93e 5b13 063f
00000150: 0a34 5a3f c7c0 333f 4da4 ca3e 96c3 ed3e
00000160: 45da 34bd 5a6e 613e ba37 073f b687 ce3e
00000170: ded5 8d3f 28d1 833e 93f6 0f3f c1b7 683e
00000180: 0113 b33e f30e d03e 9463 c43e 2f29 953f
00000190: c784 283f 7bf6 473f cbfc 81bd c44a c53e
000001a0: 1331 143f fcf9 0c3f 4eea 683f 1d63 043f
000001b0: b49c 00be fc59 953d 2ee3 733e 7af7 0a3f
000001c0: a20a af3e 16a5 eb3e e605 323f 614a 0140
000001d0: f7a6 c43e a1f6 7e3e b7bd 673f dc91 f03f
000001e0: 4c0b 0340 7441 f03f 55f3 ed3f d57d af3f
000001f0: 3c85 1240 ea1e f33f 58ef e43f 508e c63f
00000200: f489 e03f caaa 7f3f f17a a53f 35a6 2d3f
00000210: a6dc 6b3f 9018 663e cb76 e53e 1f07 2e3f
00000220: dcfe 9d3f abf2 7d3f c898 203f 293b b43f
00000230: 75ae 793f 712a 4e3f 3281 563f b05f 9b3e
00000240: 76ab 2e3e 25e1 7b3f 6267 ac3f 8849 c03e
00000250: b3d8 3c3f 7a30 1a3f cd10 a03e 5b0c a33f
00000260: 552d 713f 302e 0540 3868 a93d 07b7 ec3e
00000270: 07a3 b43e 05e1 ba3e 0465 8c3f 6587 443f
00000280: be74 a23f f9b4 bc3e 6ce2 bd3e de05 c73e
00000290: d931 9f3e 66bf 853f 436e 5c3f 2e8c a43f
000002a0: d586 413e 2f67 b23e c10e 133f 8f2a a83e
000002b0: b156 dd3e 8870 8f3e f336 2a3f 54d9 923e
000002c0: bb22 143f b588 c03e cec1 6f3e 82c4 8c3f
000002d0: 81ed 763f b55c 2c3e 05c6 383e 284d ae3e
000002e0: 590f ec3e fc97 a53e 5642 2d3f 8199 633f
000002f0: 2904 753f f18e ae3e 87d8 a63e 2328 813e
00000300: b012 c73e 0c57 063f d390 9b3e 5e0f 833f
00000310: 9609 723e f386 503d 05ad a73e e63a e73e
00000320: aaa8 b93e 4394 cd3e 0df1 373f 83f9 863e
00000330: dce3 863c 9c5f ef3e dca2 1f3f 4aa2 553f
00000340: f59a 4c3f 9615 f93e 3680 053e 44f6 c03e
00000350: 9c4e a73e 109a b83e 7dca f33e

base.feature_norm.bias f4 [215]
-0.45361438 -0.48897415 -0.53619003 -0.3649029 -0.41281763 -0.43761578 -0.42438996 -0.46592095
-0.52412164 0.5691839 0.54295117 0.56301653 0.16460173 -0.48241758 -0.45741358 -0.28969693
0.22126849 0.22074838 0.24740636 -0.31480867 0.39313114 0.55825436 -0.6210533 0.31123805
0.7501405 -0.27692306 0.45771256 0.26608628 -0.16890764 0.33403775 0.10192882 0.22399257
0.14686476 -0.41766778 -1.6856346 -0.31249365 0.25815186 0.093095064 0.36598486 0.13530251
0.05019722 -0.07897227 -0.2536811 0.0837482 0.35207087 -0.14635366 0.18511252 0.14168563
-0.12296002 -0.40641063 0.052405182 -0.049267802 0.56121194 0.06459988 0.3801653 -0.54694134
-0.8721474 -0.021744795 0.16193691 0.21965434 0.13741858 0.11917723 -0.18996714 -0.6909078
0.097227156 0.42616567 0.14408383 0.12943676 0.09946323 -0.14628935 -0.7314453 0.11562831
0.37054476 -0.03367827 0.046252597 0.17153795 -0.13102229 -0.6759856 0.1739378 0.38359222
0.26194987 0.13980415 0.15243126 -0.25456882 -0.7416353 0.072896585 0.18442443 0.23886052
0.27024207 0.114048846 -0.26692903 -0.5873603 0.16671842 -0.20026994 0.4570929 0.09816705
0.2365918 -0.19633739 -0.6202291 0.18905526 -0.16746858 0.51779944 0.026829816 0.11350098
-0.282866 -0.601965 0.11549846 0.13951553 -0.11819236 -0.06745788 0.045452006 -0.32151455
-0.59069985 0.027271856 0.356174 0.33328456 0.21426481 0.07019466 -0.42191178 0.050378308
0.05228678 0.17304255 0.1534741 0.15098542 -0.18172602 0.1432561 0.26206374 0.27060327
0.22033209 -0.21123272 0.1415496 0.5960907 0.48044473 0.085568145 0.16065553 -0.39030704
-0.27332193 0.08511584 -0.49282706 0.12233543 0.2891114 0.38746792 -0.2754553 -0.45606488
0.027653225 0.6426541 0.24261366 0.18946145 0.36746967 -0.2689717 -0.325581 0.11906313
0.16692935 0.1675 0.016521918 0.1597651 -0.10604604 -0.35176536 0.12954086 -0.5279714
0.00080904434 0.09178909 0.1593155 -0.09243665 -0.6422976 0.1425444 0.14996357 0.12734914
0.08457324 0.18072353 -0.26468334 -0.7127074 0.14117104 0.035121277 0.115272164 0.12276429
0.2150179 -0.15506576 -0.49646366 0.105671026 0.019470165 0.121743 0.09718354 0.16612083
-0.24750966 -0.69385993 0.09391128 0.43559158 0.13614477 0.20877913 0.17554085 -0.15144289
-0.6370329 0.07336704 0.048363566 -0.053527296 0.07781077 -0.035525616 -0.1802976 -0.73636407
0.018158201 0.41250002 0.2580412 0.09639206 0.0048294403 -0.3188594 -0.6137321 0.099422246
0.38848898 0.057658806 0.10640473 0.1500171 -0.2605373 -0.31083483 0.08045518
00000000: 2540 e8be d25a fabe c043 09bf 8ed4 babe
00000010: d55c d3be 2d0f e0be a449 d9be 318d eebe
00000020: d62c 06bf 09b6 113f d9fe 0a3f da21 103f
00000030: 5b8d 283e 70ff f6be 1d32 eabe 2853 94be
00000040: 3594 623e dd0b 623e 1858 7d3e 9a2e a1be
00000050: 7c48 c93e c2e9 0e3f 59fd 1ebf 985a 9f3e
00000060: 3509 403f dcc8 8dbe 4d59 ea3e 763c 883e
00000070: 20f6 2cbe ff06 ab3e 0fc0 d03d 4f5e 653e
00000080: b763 163e 8dd8 d5be e0c2 d7bf 2bff 9fbe
00000090: 7b2c 843e a0a8 be3d 5e62 bb3e be8c 0a3e
000000a0: 9a9b 4d3d 37bc a1bd 7de2 81be 2d84 ab3d
000000b0: a242 b43e bcdd 15be 238e 3d3e 0a16 113e
000000c0: 77d2 fbbd 0e15 d0be d1a6 563d 09cd 49bd
000000d0: 96ab 0f3f f14c 843d 07a5 c23e 5904 0cbf
000000e0: 0d45 5fbf 2422 b2bc cad2 253e 11ed 603e
000000f0: 75b7 0c3e 3113 f43d bf86 42be 55df 30bf
00000100: 081f c73d 6332 da3e b68a 133e 128b 043e
00000110: 61b3 cb3d e0cc 15be 0040 3bbf 89ce ec3d
00000120: 0bb8 bd3e 3af2 09bd 5d73 3d3d a5a7 2f3e
00000130: b52a 06be 640d 2dbf c01c 323e 3366 c43e
00000140: 4b1e 863e d228 0f3e f116 1c3e d856 82be
00000150: d0db 3dbf ce4a 953d c2d9 3c3e da97 743e
00000160: 2b5d 8a3e 7192 e93d ecaa 88be 3f5d 16bf
00000170: 3cb8 2a3e 9013 4dbe 1508 ea3e ce0b c93d
00000180: 1f45 723e ab0c 49be 56c7 1ebf b497 413e
00000190: e27c 2bbe 818e 043f 34ca db3c 3473 e83d
000001a0: d0d3 90be 611a 1abf 758a ec3d 29dd 0e3e
000001b0: d60e f2bd 5b27 8abd e22b 3a3d 8e9d a4be
000001c0: 1b38 17bf 3a69 df3c 705c b63e 46a4 aa3e
000001d0: 3c68 5b3e 38c2 8f3d d204 d8be 7c59 4e3d
000001e0: aa2a 563d 1132 313e 5128 1d3e ec9b 1a3e
000001f0: 6316 3abe bab1 123e 382d 863e 838c 8a3e
00000200: bc9e 613e 644d 58be 61f2 103e 6699 183f
00000210: dafc f53e 5a3e af3d e282 243e 53d6 c7be
00000220: daf0 8bbe 3751 ae3d d453 fcbe ff8a fa3d
00000230: 6906 943e 3262 c63e 7a08 8dbe 5681 e9be
00000240: 0489 e23c fb84 243f b76f 783e 2f02 423e
00000250: fc24 bc3e a9b6 89be 8eb2 a6be 5fd7 f33d
00000260: 87ef 2a3e 1f85 2b3e f958 873c 7699 233e
00000270: ab2e d9bd 971a b4be 5ca6 043e 2229 07bf
00000280: 0c16 543a ebfb bb3d 9a23 233e 6d4f bdbd
00000290: 9e6d 24bf 29f7 113e 0d90 193e d067 023e
000002a0: bc34 ad3d 970f 393e 9384 87be fe73 36bf
000002b0: 248f 103e 54db 0f3d d013 ec3d d86b fb3d
000002c0: a72d 5c3e 8fc9 1ebe 7c30 febe 0d6a d83d
000002d0: e57f 9f3c 6554 f93d 2a08 c73d 941b 2a3e
000002e0: 2c73 7dbe cea0 31bf 8f54 c03d dc05 df3e
000002f0: 8969 0b3e 32ca 553e fbc0 333e d813 1bbe
00000300: 9714 23bf 7541 963d e018 463d 703f 5bbd
00000310: 415b 9f3d 4f83 11bd ef9f 38be 5b82 3cbf
00000320: 82c0 943c 3433 d33e fa1d 843e 3369 c53d
00000330: 4840 9e3b 8a41 a3be 8c1d 1dbf e49d cb3d
00000340: 07e8 c63e a42b 6c3d b9ea d93d 159e 193e
00000350: 2565 85be be25 9fbe afc5 a43d

base.mlp.fc1.0.weight f4 [64, 215]
-0.45604023 -0.43469852 -0.41833323 -0.21625604 -0.4100088 -0.3287929 -0.33251378 -0.31371242
-0.44918975 -0.041783594 -0.30431685 -0.13751523 -0.051709067 -0.43130967 -0.15572426 -0.19902173
0.06700142 -0.077284455 -0.036218844 1.1922672 0.3320057 -0.6165362 0.10994134 -0.21368755
-0.74962395 -0.86079884 -1.3309311 2.0202737 0.59266037 0.16027294 1.4512337 -0.9622362
0.5182457 0.95023644 0.8209712 -1.0105134 -1.7956998 0.15148199 0.048795126 -0.13779981
0.13066697 -0.00814091 -0.2820072 -0.19428569 0.5340863 0.5225396 -0.07686818 -0.18152915
-0.24056247 0.17323644 -0.080964014 0.21600816 0.1314638 0.25404713 0.107090645 0.56413347
0.08579513 -0.4697361 0.18130755 0.12948076 0.12640874 -0.055552088 -0.2338992 0.16563527
-0.217084 0.31702474 0.52158904 0.102800645 -0.3692552 -0.35827667 0.54018384 -0.27383247
0.66276884 0.45811543 0.3685849 -0.12699318 0.025464209 0.5676354 -0.26211447 0.19277622
0.019733755 -0.38172814 0.29470932 -0.19634281 0.09523064 -0.051301647 0.24472842 0.15472275
-0.5239758 0.16608363 0.027552808 0.3188741 -0.20450431 0.07300481 -0.1597198 -0.40683624
0.21511668 -0.05323439 0.13051559 -0.3667516 0.37605405 -0.20746408 -0.41941798 0.13581157
-0.23869999 0.014837986 -0.03466453 0.26440987 -0.022827117 0.075645484 0.106792524 0.30968437
0.08961079 0.09580963 0.42874205 0.45962778 -0.2611847 0.06086221 -0.17179812 -0.3726664
-0.22622892 -0.15044388 -0.25322837 -0.11841646 -0.19427894 -0.2503182 -0.3065972 -0.120506786
-0.2374028 -0.38329667 -0.34062755 0.40194073 0.049887303 0.056419738 -0.14529732 0.5086326
-0.34523636 -0.321762 -0.5874556 0.022750663 2.1633644 -0.3355981 0.6242323 -0.42964643
0.22537784 0.66051126 0.13849169 0.21200752 0.07147277 -0.03959752 -0.20714724 -0.33006176
0.13395104 0.064577706 0.15314294 -0.35326788 -0.2676494 -0.17631432 -0.33413014 -0.2712582
0.18164037 -0.45536724 -0.2696989 -0.12653166 -0.50778115 -0.045052484 0.025062803 -0.06932437
-0.1507278 -0.57971257 0.59372115 0.010205272 -0.12750702 0.06204134 0.19884613 -0.113456026
-0.6979845 -0.16561887 -0.21139248 -0.17098615 -0.33095962 0.47746155 0.3005651 -0.34354952
-0.034268882 -0.22784643 -0.05882971 -0.18408859 -0.09446453 -0.056061164 -0.27575135 -0.12664734
-0.020758895 -0.2581803 -0.0969881 0.48844573 0.517678 0.22163463 0.06673306 -0.39940986
-0.021902801 -0.18350776 0.3463727 0.10715987 0.06512438 0.7716421 -0.005449046 -0.08802691
0.03075928 -0.3407238 0.18795587 -0.2483335 0.1726727 0.0032179481 -0.11349556 -0.053602953
0.14577554 0.14119391 0.094215594 0.05030999 0.15339743 0.0061534056 0.1466545 0.07763492
0.10547912 0.10743821 -0.30883837 0.17307802 0.17430975 -0.19783759 -0.17152284 0.59700245
-0.27946678 0.6896382 -0.2747294 -3.9516146 -0.23283063 0.6161659 0.40518242 0.1528099
0.45998472 0.6789046 -0.19786696 -0.26768446 -1.2235439 -0.21046403 0.8352628 -0.012000553
0.39871418 0.32533193 0.40647435 -0.095120646 -0.0372389 -0.43047458 0.15097938 -0.14293668
00000000: 1b7e e9be ce90 debe c62f d6be 3972 5dbe
00000010: acec d1be 8b57 a8be 3f3f aabe ea9e a0be
00000020: 33fc e5be 4625 2bbd 6bcf 9bbe cbd0 0cbe
00000030: e3cc 53bd 9fd4 dcbe 2e76 1fbe 5acc 4bbe
00000040: 0a38 893d 5047 9ebd 365a 14bd 369c 983f
00000050: a7fc a93e 51d5 1dbf ed28 e13d e9d0 5abe
00000060: 5be7 3fbf 505d 5cbf f35b aabf 2a4c 0140
00000070: 97b8 173f 971e 243e 07c2 b93f 1d55 76bf
00000080: c0ab 043f b242 733f 2b2b 523f 8158 81bf
00000090: 7ed9 e5bf 181e 1b3e 66dd 473d 651b 0dbe
000000a0: 90cd 053e 7461 05bc 3f63 90be d4f2 46be
000000b0: e1b9 083f 28c5 053f 106d 9dbd c7e2 39be
000000c0: 0256 76be e564 313e 76d0 a5bd 3e31 5d3e
000000d0: 729e 063e 7712 823e 5752 db3d 0d6b 103f
000000e0: 5bb5 af3d 4081 f0be b0a8 393e 9b96 043e
000000f0: 4b71 013e 968a 63bd 4683 6fbe 4b9c 293e
00000100: 454b 5ebe 1151 a23e dc86 053f 2589 d23d
00000110: 040f bdbe 0a70 b7be 7d49 0a3f c533 8cbe
00000120: 38ab 293f 1b8e ea3e 29b7 bc3e 800a 02be
00000130: 519a d03c 8e50 113f de33 86be 2167 453e
00000140: afa8 a13c df71 c3be 24e4 963e 170e 49be
00000150: 4808 c33d ad21 52bd 169a 7a3e a46f 1e3e
00000160: 4723 06bf d411 2a3e 6db6 e13c 7743 a33e
00000170: 9469 51be 8c83 953d 968d 23be d74c d0be
00000180: 8c47 5c3e 4e0c 5abd e1a5 053e dec6 bbbe
00000190: 288a c03e 7771 54be f4bd d6be 3012 0b3e
000001a0: c56d 74be 061b 733c 65fc 0dbd bb60 873e
000001b0: efff babc 05ec 9a3d 0ab6 da3d f38e 9e3e
000001c0: dd85 b73d d737 c43d 1484 db3e 5554 eb3e
000001d0: 00ba 85be a74a 793d d9eb 2fbe 21ce bebe
000001e0: 8ea8 67be f60d 1abe 26a7 81be 5484 f2bd
000001f0: 0ff1 46be b529 80be 4ffa 9cbe 43cc f6bd
00000200: b819 73be 763f c4be bc66 aebe 2dcb cd3e
00000210: a156 4c3d 6218 673d d2c8 14be bf35 023f
00000220: d2c2 b0be fdbd a4be 7d63 16bf 995f ba3c
00000230: 9074 0a40 84d3 abbe b0cd 1f3f 9efa dbbe
00000240: 73c9 663e 4417 293f c4d0 0d3e 8018 593e
00000250: 5160 923d 0231 22bd 681e 54be dbfd a8be
00000260: 762a 093e 5141 843d 81d1 1c3e 87df b4be
00000270: 5809 89be be8b 34be 1b13 abbe 5be2 8abe
00000280: efff 393e e525 e9be f915 8abe 8491 01be
00000290: f2fd 01bf f488 38bd 8250 cd3c eff9 8dbd
000002a0: 6358 1abe 0b68 14bf 1cfe 173f 0334 273c
000002b0: 3391 02be 0f1f 7e3d 529e 4b3e a25b e8bd
000002c0: 1daf 32bf fe97 29be 4577 58be fe16 2fbe
000002d0: 8a73 a9be d775 f43e abe3 993e b9e5 afbe
000002e0: 875d 0cbd 9350 69be 6cf7 70bd b881 3cbe
000002f0: 9f76 c1bd 64a0 65bd 482f 8dbe d7af 01be
00000300: 8f0e aabc 3530 84be b2a1 c6bd 8f15 fa3e
00000310: 8c86 043f 30f4 623e 58ab 883d 737f ccbe
00000320: 816d b3bc 75e9 3bbe c357 b13e a276 db3d
00000330: ee5f 853d 568a 453f e98d b2bb 7447 b4bd
00000340: e3fa fb3c 5a73 aebe 8177 403e 234b 7ebe
00000350: 1dd1 303e 36e4 523b 5c70 e8bd c58e 5bbd
00000360: 2f46 153e 2395 103e 1bf4 c03d d911 4e3d
00000370: 3714 1d3e 82a2 c93b 992c 163e 0fff 9e3d
00000380: 7005 d83d 9008 dc3d 1020 9ebe 5d3b 313e
00000390: 417e 323e f095 4abe afa3 2fbe 27d5 183f
000003a0: 4516 8fbe 218c 303f 55a9 8cbe 41e7 7cc0
000003b0: 276b 6ebe 0cbd 1d3f 1274 cf3e 337a 1c3e
000003c0: 1e83 eb3e b1cc 2d3f a39d 4abe f00d 89be
000003d0: 169d 9cbf e283 57be c8d3 553f f89d 44bc
000003e0: 4424 cc3e e891 a63e 681d d03e 9dce c2bd
000003f0: d187 18bd 2a67 dcbe 579a 1a3e fe5d 12be

base.mlp.fc1.0.bias f4 [64]
-0.27866107 0.03182285 0.5295728 0.30962524 0.24952462 -0.0068598506 0.32470807 0.24062458
0.28124315 -0.26052496 -0.13416441 0.31042352 -0.22833765 -0.30456483 0.49546885 0.36147285
-0.075777754 -0.6437374 0.16207045 -0.11059877 -0.07191199 -0.043702886 -0.39658472 -0.083562106
-0.2866629 -0.71301657 -0.13487309 -0.21214224 -0.17425472 -0.45806983 -0.09318647 -0.14343375
0.22049703 -0.42328894 -0.28903118 0.18041521 -0.73297596 0.08337483 0.019176783 -0.4727076
-0.17954746 -0.47786358 -0.37198374 -0.06079475 -0.018263167 -0.24118336 -0.08535783 0.5086004
0.42636445 0.10825731 -0.16247787 0.22055492 -0.11810314 -0.2006664 0.0575242 -0.2604166
0.10492548 -0.13439077 -0.21193352 -0.31747755 0.7846019 0.56531745 -0.25119424 0.22665204
00000000: aaac 8ebe ad58 023d 1592 073f 3387 9e3e
00000010: 6283 7f3e 99c8 e0bb 2340 a63e 4a66 763e
00000020: 1aff 8f3e 8763 85be 6562 09be d5ef 9e3e
00000030: 58d1 69be ecef 9bbe 18ae fd3e f812 b93e
00000040: 5e31 9bbd f9cb 24bf ccf5 253e 9c81 e2bd
00000050: 9846 93bd cc01 33bd 270d cbbe 9c22 abbd
00000060: 7bc5 92be 4188 36bf 2c1c 0abe d13b 59be
00000070: d46f 32be 2188 eabe 8cd8 bebd 4ce0 12be
00000080: f9c9 613e 54b9 d8be e5fb 93be c4be 383e
00000090: 50a4 3bbf 6cc0 aa3d a118 9d3c bb06 f2be
000000a0: 4adb 37be 89aa f4be a774 bebe ea03 79bd
000000b0: a39c 95bc c5f8 76be 16d0 aebd a333 023f
000000c0: 714c da3e 02b6 dd3d 9960 26be 26d9 613e
000000d0: 0fe0 f1bd 7e7b 4dbe 7f9e 6b3d 5355 85be
000000e0: 2ce3 d63d bc9d 09be 1a05 59be 6b8c a2be
000000f0: acdb 483f a5b8 103f 889c 80be 7917 683e

base.mlp.fc1.2.weight f4 [64]
1.6172165 2.40882 2.0767584 -0.121874854 0.69197124 1.3318248 1.1077406 1.0758092
0.9972696 1.8653557 1.2759616 1.1842035 1.2302145 1.1246456 0.8475276 2.074969
0.632044 1.4142966 1.2262222 1.3601735 0.7225585 1.0686173 1.6025932 1.1059744
1.1871151 1.3871574 1.474826 1.7114195 1.6751397 1.9207343 0.9038611 0.47101584
0.80267394 0.70539385 0.7918471 1.2887318 1.939691 1.651816 0.9313229 1.6477549
1.0930499 1.7253238 1.3707482 1.3304075 0.6850511 0.935837 1.050051 1.2642645
1.1053873 1.0542277 1.4475663 1.5589095 1.0404133 1.2336028 1.8304305 1.3340404
1.1443484 1.0105946 0.98722017 1.3589789 2.0308223 0.9764055 1.08506 0.3359986
00000000: f300 cf3f 1b2a 1a40 9ce9 0440 8699 f9bd
00000010: 0725 313f 3c79 aa3f 72ca 8d3f 1eb4 893f
00000020: 0f4d 7f3f fac3 ee3f b652 a33f fb93 973f
00000030: ab77 9d3f 63f4 8f3f 92f7 583f 4bcc 0440
00000040: a3cd 213f ac07 b53f d9f4 9c3f 2a1a ae3f
00000050: 98f9 383f 74c8 883f c621 cd3f 9290 8d3f
00000060: 63f3 973f 608e b13f 19c7 bc3f cb0f db3f
00000070: fa6a d63f 9fda f53f 7163 673f fd28 f13e
00000080: 0a7c 4d3f b194 343f 7eb6 4a3f 2af5 a43f
00000090: cb47 f83f b56e d33f 2d6b 6e3f a2e9 d23f
000000a0: 0fe9 8b3f 69d7 dc3f ad74 af3f cb4a aa3f
000000b0: 825f 2f3f 0393 6f3f 1268 863f 6bd3 a13f
000000c0: 557d 8d3f eff0 863f da49 b93f 598a c73f
000000d0: 432c 853f b2e6 9d3f 8c4b ea3f d6c1 aa3f
000000e0: 027a 923f 2a5b 813f 76ba 7c3f 05f3 ad3f
000000f0: fef8 0140 b6f5 793f 3fe3 8a3f 0208 ac3e

base.mlp.fc1.2.bias f4 [64]
-0.3418098 -0.09173533 0.1815975 0.015030582 0.38644996 -0.5313904 0.7011515 0.51102877
0.9671239 -0.41569337 -0.3055003 -0.1515579 -0.28040642 -0.15844469 0.70399445 -0.10444572
0.1399742 -0.39016506 0.6436033 -0.53234625 0.10746037 0.51255953 -0.31935388 -0.15970573
-0.41898406 0.3268651 -0.51256907 -0.82655746 -0.4034253 -1.0071015 0.08514145 0.2387863
-0.052847285 0.011572752 0.13588257 -0.102574736 -0.89033365 0.5543255 0.07934432 -0.0828094
-0.15174758 -0.18830074 -0.02436575 -0.05377942 0.1066698 0.18349832 -0.2888615 0.6801694
0.7628763 0.11882159 -0.477752 0.7911732 -0.3159421 -0.36991265 -0.11925969 -0.17719314
0.26618028 -0.16459462 -0.51146287 -0.4319252 0.29165274 -0.34192523 0.23269938 0.08971475
00000000: b201 afbe bcdf bbbd b2f4 393e d542 763c
00000010: c5dc c53e 3409 08bf aa7e 333f c8d2 023f
00000020: 6f95 773f c3d5 d4be 896a 9cbe fe31 1bbe
00000030: 6e91 8fbe 533f 22be fb38 343f a3e7 d5bd
00000040: 6655 0f3e b7c3 c7be 30c3 243f d847 08bf
00000050: 2f14 dc3d 1a37 033f 5a82 a3be e689 23be
00000060: 1485 d6be dd5a a73e ba37 03bf 4599 53bf
00000070: c38d cebe b4e8 80bf a45e ae3d 6584 743e
00000080: 6576 58bd a49b 3d3c cd24 0b3e b412 d2bd
00000090: e8ec 63bf 47e8 0d3f 467f a23d fa97 a9bd
000000a0: b863 1bbe e9d1 40be ae9a c7bc cf47 5cbd
000000b0: b275 da3d fce6 3b3e a8e5 93be 951f 2e3f
000000c0: dc4b 433f bc58 f33d e99b f4be 548a 4a3f
000000d0: 2ac3 a1be 3165 bdbe 6d3e f4bd 1e72 35be
000000e0: c848 883e 7e8b 28be 3bef 02bf 4d25 ddbe
000000f0: 8253 953e d310 afbe bf48 6e3e 5ebc b73d

base.mlp.fc_h.0.weight f4 [64, 64]
-0.14593886 -0.03587857 -0.24195 0.1430477 -0.12452596 -0.19262315 0.04069369 0.1781201
-0.12078361 -0.34715572 0.00080744934 -0.14414935 -0.07483321 0.2840904 0.13364919 -0.052208398
-0.41764298 0.0071989777 0.111447856 0.11477726 -0.26005676 -0.07947549 -0.0020348928 -0.36087185
0.12878482 0.06538504 0.16462715 0.063387595 -0.08172521 0.36691082 -0.17241566 0.23773399
0.11132593 0.017349944 -0.26178524 0.06300453 0.30715513 -0.2830313 -0.26208147 -0.033581212
0.015222417 0.03259794 0.045451086 -0.108191535 -0.06812802 0.23128742 0.008606605 0.04754401
-0.19864616 -0.06848304 -0.085612245 0.4783334 0.20883794 0.10550869 -0.16957037 -0.12989901
-0.016195068 -0.13932675 -0.13683365 0.053473722 0.13850108 -0.0075760223 0.11206542 0.08457116
0.14422296 -0.10511238 0.10759478 -0.086372085 -0.08454196 0.019492496 -0.14818695 0.19253343
-0.032080267 -0.14945424 0.014015597 -0.062132195 -0.038902268 -0.22630605 0.029762449 -0.13523257
-0.23737557 0.030166274 -0.15232034 0.28298405 0.009615685 -0.0147181135 -0.08350529 0.022415861
0.13148898 0.0868761 0.15698937 -0.26089218 0.2456995 -0.21715713 -0.07180783 0.3619207
0.31484634 0.0928632 0.26055467 -0.076314904 -0.13037445 -0.12299761 -0.08086123 0.054538626
0.06334128 0.05039195 0.15807591 -0.03872173 -0.20330612 -0.1561212 0.18161574 -0.12032035
-0.035270732 -0.031320296 -0.18322076 -0.3647721 -0.27645457 -0.23219883 -0.6533176 -0.17796153
0.0046826554 -0.122931145 0.15436591 0.18801582 -0.019164596 -0.22709163 -0.02105277 -1.5874873e-05
-0.24391137 0.09682008 0.116458654 -0.06192081 -0.00057895284 -0.021202553 0.022576464 0.0071559143
0.20672368 0.035699733 -0.16327196 0.12944412 0.049383897 0.40188277 -0.30932346 -0.025143623
0.06282072 -0.061802156 -0.1264479 -0.1000123 -0.050806977 0.07605191 -0.16501959 0.34334198
-0.17752838 0.24090123 -0.055471677 0.22868778 0.22941403 -0.23316064 0.26231697 0.056773037
-0.0073066014 -0.16537924 -0.027223462 -0.09965468 0.27462596 -0.4742048 -0.12830392 0.0472165
-0.18962649 -0.11531912 -0.20193331 -0.16684003 0.025281833 0.17633642 0.48887706 0.085442126
0.09717407 0.21098036 -0.03735119 -0.12623921 0.13141884 0.043169968 -0.071700454 -0.30896366
0.11401168 0.07742724 -0.11356186 0.030272977 -0.14399754 -0.07451527 -0.035290316 0.22255036
0.2684693 -0.065789394 -0.008107482 0.10501764 0.17785583 0.037779327 -0.11228829 -0.10103003
-0.20213152 -0.3170077 -0.060244784 -0.0016243553 0.23602812 -0.16309348 -0.32370123 -0.30503348
-0.032233883 0.040486306 -0.13075946 -0.06680687 0.070323914 -0.18488823 0.19675188 0.23040946
0.08128359 -0.043669935 0.2493804 -0.017829856 0.32048723 0.110822126 0.16105609 0.09906651
-0.13801852 -0.06591615 -0.14519837 0.09780647 0.007158215 0.21037805 -0.187666 0.060844675
0.09402764 -0.084974535 0.22154985 0.08243497 -0.12304086 0.15795879 -0.01684526 0.2267494
0.11948903 0.041908845 -0.15211648 -0.19338232 0.10359071 0.15700795 0.007922646 0.32068682
0.31385654 -0.15188049 -0.26403436 -0.3224908 0.13536242 0.1825666 0.15592606 0.40921196
00000000: ff70 15be 68f5 12bd bec1 77be 197b 123e
00000010: 7707 ffbd 013f 45be 6dae 263d 1e65 363e
00000020: 665d f7bd 65be b1be 02ab 533a e39b 13be
00000030: 2742 99bd 4c74 913e 55db 083e 79d8 55bd
00000040: 4dd5 d5be 67e5 eb3b c63e e43d 5710 eb3d
00000050: 2926 85be 0cc4 a2bd d65b 05bb 32c4 b8be
00000060: 2be0 033e 98e8 853d 0594 283e 5bd1 813d
00000070: 8c5f a7bd bcdb bb3e bb8d 30be 8a70 733e
00000080: d9fe e33d 7821 8e3c b708 86be 8508 813d
00000090: 7043 9d3e 7be9 90be 8b2f 86be 748c 09bd
000000a0: 7267 793c 6b85 053d eb2a 3a3d 8693 ddbd
000000b0: b486 8bbd 9cd6 6c3e b802 0d3c 82bd 423d
000000c0: e669 4bbe d640 8cbd 7955 afbd 1ee8 f43e
000000d0: 9dd9 553e f114 d83d dba3 2dbe 3f04 05be
000000e0: 85ab 84bc acab 0ebe 1f1e 0cbe 4307 5b3d
000000f0: 3ad3 0d3e 4840 f8bb 8e82 e53d a533 ad3d
00000100: 2faf 133e 2945 d7bd a75a dc3d d9e3 b0bd
00000110: 5624 adbd baae 9f3c 52be 17be 7c27 453e
00000120: 9966 03bd 880a 19be ada1 653c 547e 7ebd
00000130: fc57 1fbd c6bc 67be 61d0 f33c 687a 0abe
00000140: 9512 73be 431f f73c ddf9 1bbe 49e3 903e
00000150: 1b8b 1d3c 3e24 71bc d204 abbd 78a1 b73c
00000160: 0ca5 063e 19ec b13d d2c1 203e a993 85be
00000170: a698 7b3e 705e 5ebe fc0f 93bd ac4d b93e
00000180: 8a33 a13e 102f be3d 6c67 853e fd4a 9cbd
00000190: e180 05be 2ce6 fbbd 939a a5bd e563 5f3d
000001a0: 13b9 813d ca67 4e3d a7de 213e ad9a 1ebd
000001b0: 7b2f 50be 3cde 1fbe 7af9 393e 846a f6bd
000001c0: 0b78 10bd b649 00bd 399e 3bbe 69c3 babe
000001d0: 748b 8dbe 88c5 6dbe d23f 27bf 8c3b 36be
000001e0: f670 993b 53c3 fbbd 1912 1e3e 3887 403e
000001f0: 12ff 9cbc b58a 68be dc76 acbc 082b 85b7
00000200: e7c3 79be 9b49 c63d e081 ee3d ada0 7dbd
00000210: dec4 17ba fab0 adbc 47f2 b83c 297c ea3b
00000220: 5faf 533e e239 123d c430 27be 008d 043e
00000230: c546 4a3d 94c3 cd3e a55f 9ebe 00fa cdbc
00000240: 26a8 803d 4224 7dbd 8f7b 01be 40d3 ccbd
00000250: fa1a 50bd 1bc1 9b3d e5fa 28be 85ca af3e
00000260: 00ca 35be d0ae 763e 4536 63bd 212d 6a3e
00000270: 83eb 6a3e aac1 6ebe 694e 863e d88a 683d
00000280: 376c efbb 2d59 29be bd03 dfbc c117 ccbd
00000290: c69b 8c3e f9ca f2be 1a62 03be 1766 413d
000002a0: 722d 42be 6e2c ecbd 9bc7 4ebe 1dd8 2abe
000002b0: d91b cf3c 8991 343e 184e fa3e 48fc ae3d
000002c0: 3303 c73d 3c0b 583e 90fd 18bd da44 01be
000002d0: a992 063e fed2 303d b0d7 92bd 7c30 9ebe
000002e0: f57e e93d 2c92 9e3d 1f93 e8bd 09ff f73c
000002f0: 1774 13be 769b 98bd 948c 10bd 3ee4 633e
00000300: cf74 893e 97bc 86bd 3fd5 04bc 7d13 d73d
00000310: d71f 363e 7fbe 1a3d 67f7 e5bd d5e8 cebd
00000320: 91fb 4ebe d54e a2be 3cc3 76bd 52e8 d4ba
00000330: 5bb1 713e fa01 27be 2bbc a5be 592d 9cbe
00000340: ad07 04bd f8d4 253d cfe5 05be 0ad2 88bd
00000350: fc05 903d 5753 3dbe 5379 493e 75f0 6b3e
00000360: 0378 a63d 3fdf 32bd 935d 7f3e eb0f 92bc
00000370: e716 a43e b6f6 e23d e3eb 243e 62e3 ca3d
00000380: ba54 0dbe 0cff 86bd e2ae 14be c24e c83d
00000390: 768f ea3b 586d 573e 842b 40be 4438 793d
000003a0: 9091 c03d 2107 aebd f7dd 623e aad3 a83d
000003b0: d9fc fbbd f3bf 213e 12ff 89bc ff30 683e
000003c0: aab6 f43d 9ca8 2b3d 6cc4 1bbe 0406 46be
000003d0: 5e27 d43d b1c6 203e fccd 013c 1031 a43e
000003e0: ceb1 a03e 8f86 1bbe 832f 87be 841d a5be
000003f0: 729c 0a3e bdf2 3a3e 15ab 1f3e 3b84 d13e

base.mlp.fc_h.0.bias f4 [64]
0.0 0.0 0.0 0.0 0.0 0.0 0.0 0.0
0.0 0.0 0.0 0.0 0.0 0.0 0.0 0.0
0.0 0.0 0.0 0.0 0.0 0.0 0.0 0.0
0.0 0.0 0.0 0.0 0.0 0.0 0.0 0.0
0.0 0.0 0.0 0.0 0.0 0.0 0.0 0.0
0.0 0.0 0.0 0.0 0.0 0.0 0.0 0.0
0.0 0.0 0.0 0.0 0.0 0.0 0.0 0.0
0.0 0.0 0.0 0.0 0.0 0.0 0.0 0.0
00000000: 0000 0000 0000 0000 0000 0000 0000 0000
00000010: 0000 0000 0000 0000 0000 0000 0000 0000
00000020: 0000 0000 0000 0000 0000 0000 0000 0000
00000030: 0000 0000 0000 0000 0000 0000 0000 0000
00000040: 0000 0000 0000 0000 0000 0000 0000 0000
00000050: 0000 0000 0000 0000 0000 0000 0000 0000
00000060: 0000 0000 0000 0000 0000 0000 0000 0000
00000070: 0000 0000 0000 0000 0000 0000 0000 0000
00000080: 0000 0000 0000 0000 0000 0000 0000 0000
00000090: 0000 0000 0000 0000 0000 0000 0000 0000
000000a0: 0000 0000 0000 0000 0000 0000 0000 0000
000000b0: 0000 0000 0000 0000 0000 0000 0000 0000
000000c0: 0000 0000 0000 0000 0000 0000 0000 0000
000000d0: 0000 0000 0000 0000 0000 0000 0000 0000
000000e0: 0000 0000 0000 0000 0000 0000 0000 0000
000000f0: 0000 0000 0000 0000 0000 0000 0000 0000

base.mlp.fc_h.2.weight f4 [64]
1.0 1.0 1.0 1.0 1.0 1.0 1.0 1.0
1.0 1.0 1.0 1.0 1.0 1.0 1.0 1.0
1.0 1.0 1.0 1.0 1.0 1.0 1.0 1.0
1.0 1.0 1.0 1.0 1.0 1.0 1.0 1.0
1.0 1.0 1.0 1.0 1.0 1.0 1.0 1.0
1.0 1.0 1.0 1.0 1.0 1.0 1.0 1.0
1.0 1.0 1.0 1.0 1.0 1.0 1.0 1.0
1.0 1.0 1.0 1.0 1.0 1.0 1.0 1.0
00000000: 0000 803f 0000 803f 0000 803f 0000 803f
00000010: 0000 803f 0000 803f 0000 803f 0000 803f
00000020: 0000 803f 0000 803f 0000 803f 0000 803f
00000030: 0000 803f 0000 803f 0000 803f 0000 803f
00000040: 0000 803f 0000 803f 0000 803f 0000 803f
00000050: 0000 803f 0000 803f 0000 803f 0000 803f
00000060: 0000 803f 0000 803f 0000 803f 0000 803f
00000070: 0000 803f 0000 803f 0000 803f 0000 803f
00000080: 0000 803f 0000 803f 0000 803f 0000 803f
00000090: 0000 803f 0000 803f 0000 803f 0000 803f
000000a0: 0000 803f 0000 803f 0000 803f 0000 803f
000000b0: 0000 803f 0000 803f 0000 803f 0000 803f
000000c0: 0000 803f 0000 803f 0000 803f 0000 803f
000000d0: 0000 803f 0000 803f 0000 803f 0000 803f
000000e0: 0000 803f 0000 803f 0000 803f 0000 803f
000000f0: 0000 803f 0000 803f 0000 803f 0000 803f

base.mlp.fc_h.2.bias f4 [64]
0.0 0.0 0.0 0.0 0.0 0.0 0.0 0.0
0.0 0.0 0.0 0.0 0.0 0.0 0.0 0.0
0.0 0.0 0.0 0.0 0.0 0.0 0.0 0.0
0.0 0.0 0.0 0.0 0.0 0.0 0.0 0.0
0.0 0.0 0.0 0.0 0.0 0.0 0.0 0.0
0.0 0.0 0.0 0.0 0.0 0.0 0.0 0.0
0.0 0.0 0.0 0.0 0.0 0.0 0.0 0.0
0.0 0.0 0.0 0.0 0.0 0.0 0.0 0.0
00000000: 0000 0000 0000 0000 0000 0000 0000 0000
00000010: 0000 0000 0000 0000 0000 0000 0000 0000
00000020: 0000 0000 0000 0000 0000 0000 0000 0000
00000030: 0000 0000 0000 0000 0000 0000 0000 0000
00000040: 0000 0000 0000 0000 0000 0000 0000 0000
00000050: 0000 0000 0000 0000 0000 0000 0000 0000
00000060: 0000 0000 0000 0000 0000 0000 0000 0000
00000070: 0000 0000 0000 0000 0000 0000 0000 0000
00000080: 0000 0000 0000 0000 0000 0000 0000 0000
00000090: 0000 0000 0000 0000 0000 0000 0000 0000
000000a0: 0000 0000 0000 0000 0000 0000 0000 0000
000000b0: 0000 0000 0000 0000 0000 0000 0000 0000
000000c0: 0000 0000 0000 0000 0000 0000 0000 0000
000000d0: 0000 0000 0000 0000 0000 0000 0000 0000
000000e0: 0000 0000 0000 0000 0000 0000 0000 0000
000000f0: 0000 0000 0000 0000 0000 0000 0000 0000

base.mlp.fc2.0.0.weight f4 [64, 64]
-0.104554966 -0.07983564 -0.40016252 0.10982053 -0.08105323 -0.08320619 -0.10815939 -0.022160137
-0.21746875 -0.19955042 0.096839644 -0.016923431 0.023083905 0.35578147 -0.030906605 0.010208393
-0.33521375 0.007940251 0.016180731 0.24271145 -0.16231206 -0.11691059 -0.017122388 -0.27240872
0.25457838 0.08622069 0.27278024 0.18321468 -0.012207991 0.37578157 -0.10198378 0.2928234
-0.03699765 0.17566289 -0.15761773 -0.00035606543 0.37509757 -0.3481453 -0.19337016 0.08632338
0.07288263 0.016568946 0.12715183 0.0011259 -0.11078744 0.32046226 0.12698112 0.054323804
-0.42475364 0.003594079 0.036563843 0.26418152 0.38548303 0.179838 -0.072694294 -0.044735335
0.038193773 -0.060283717 -0.07269501 0.13411137 0.06357055 -0.043610305 0.13723189 0.039300554
0.24160345 -0.19411585 -0.008893508 -0.08963056 -0.07545869 0.053251397 -0.24459407 0.13456975
-0.11735033 -0.14926088 0.06902912 -0.054456364 0.046869583 -0.14388072 -0.044864226 -0.0761077
-0.2006119 -0.03553961 -0.13939543 0.35514894 0.013564415 -0.015870849 -0.023463158 0.074160844
0.16778241 0.08232196 0.22406855 -0.17584375 0.25057167 -0.15601978 -0.006058992 0.38629386
0.24132736 0.13005571 0.3049239 -0.13514736 -0.047159996 -0.13346134 -0.043372415 0.09894532
0.11273214 0.13017614 0.21532528 -0.026893629 -0.2293756 -0.16449817 0.2188142 -0.14691947
-0.15222606 -0.008570033 -0.08898423 -0.4339117 -0.21151215 -0.15070467 -0.6051266 -0.077954955
-0.025210904 -0.06962332 0.13045986 0.2561948 -0.031766545 -0.27561203 0.022197178 -0.043957688
-0.13706978 -0.124934554 0.07209026 -0.055935625 -0.025646836 0.0446062 -0.06525782 -0.11186119
0.09301283 0.14165439 -0.08936777 0.1576252 0.12082266 0.3377283 -0.37595195 0.03456149
0.12195407 -0.021516329 -0.11742358 -0.037027176 0.12468059 0.11735691 -0.038444247 0.41769868
-0.12430435 0.18520184 0.06696935 0.2716288 0.44180992 -0.41109067 0.24913125 0.053284053
0.016580349 -0.08798835 0.029665358 -0.13736388 0.39845303 -0.47769237 -0.06165231 0.060247704
-0.123202555 -0.1260292 -0.14634834 -0.08880176 -0.007034869 0.10269261 0.4968842 0.08855471
0.03981953 0.29302773 0.08979007 -0.2761645 0.10623773 0.078756556 0.0054313987 -0.2554798
0.048922557 0.13165714 -0.10707554 0.07051103 -0.22604696 -0.0883091 0.004635262 0.16986649
0.33727223 0.024464125 0.0105589945 -0.039295137 0.11310847 0.09947992 -0.1393207 -0.12032155
-0.13806863 -0.25086573 0.045638036 0.19813071 0.31044653 -0.13461505 -0.3615857 -0.25798562
0.06713317 0.09373087 -0.023029538 -0.0069464995 0.09954217 -0.24381573 0.2902251 0.24747084
0.24999933 -0.1585727 0.3374309 0.08139404 0.41308892 0.1590617 0.18029009 0.15275317
-0.19338283 0.21855421 -0.05349842 0.118238166 0.10530963 0.12921204 -0.13036506 0.202023
0.14045705 -0.06714355 0.3331972 0.12068761 -0.07971172 0.078735 0.05626769 0.18555367
-0.06742637 0.0287816 -0.05425063 -0.26872256 0.22135566 0.23994751 -0.05436435 0.30556607
0.28031608 -0.07244381 -0.3591891 -0.23084605 -0.011028394 -0.033189643 0.21089447 0.30110866
00000000: ea20 d6bd de80 a3bd 1ae2 ccbe 96e9 e03d
00000010: 3cff a5bd 0268 aabd ac82 ddbd 2d89 b5bc
00000020: 21b0 5ebe f256 4cbe dd53 c63d 02a3 8abc
00000030: 751a bd3c fd28 b63e d92f fdbc 1b41 273c
00000040: 23a1 abbe d417 023c 748d 843c 5a89 783e
00000050: 2235 26be d26e efbd 4044 8cbc 2879 8bbe
00000060: 1958 823e 7994 b03d daa9 8b3e a19c 3b3e
00000070: 0704 48bc 7166 c03e dfdc d0bd f3ec 953e
00000080: d98a 17bd f9e0 333e 8b66 21be 4bae bab9
00000090: ca0c c03e 1a40 b2be d402 46be 50ca b03d
000000a0: 7d43 953d 99bb 873c 1734 023e ef92 933a
000000b0: 86e4 e2bd a113 a43e 5707 023e a382 5e3d
000000c0: 4f79 d9be a48a 6b3b f8c3 153d cd42 873e
000000d0: 085e c53e 7427 383e bfe0 94bd 663c 37bd
000000e0: 1371 1c3d 0fec 76bd 1fe1 94bd 7e54 093e
000000f0: 4731 823d b8a0 32bd 8486 0c3e 9ef9 203d
00000100: e566 773e 4ec6 46be 14b6 11bc 3a90 b7bd
00000110: 168a 9abd 231e 5a3d de76 7abe a7cc 093e
00000120: 5f55 f0bd d8d7 18be 245f 8d3d a30d 5fbd
00000130: 52fa 3f3d 7855 13be 8dc3 37bd 5bde 9bbd
00000140: 356d 4dbe fb91 11bd adbd 0ebe 15d6 b53e
00000150: 483d 5e3c 9503 82bc cf35 c0bc a4e1 973d
00000160: 27cf 2b3e 6a98 a83d 3a72 653e 6210 34be
00000170: ee4a 803e a6c3 1fbe 828a c6bb 4fc8 c53e
00000180: 851e 773e 532d 053e fc1e 9c3e 1264 0abe
00000190: d72a 41bd 17aa 08be 46a7 31bd d8a3 ca3d
000001a0: 1ce0 e63d e54c 053e 3b7e 5c3e 0750 dcbc
000001b0: 70e1 6abe 3572 28be d410 603e 0f72 16be
000001c0: 26e1 1bbe 5369 0cbc 5d3d b6bd ad29 debe
000001d0: a496 58be 5352 1abe 94e9 1abf d9a6 9fbd
000001e0: 1987 cebc ac96 8ebd 4597 053e f72b 833e
000001f0: a31d 02bd 051d 8dbe dbd6 b53c fa0c 34bd
00000200: 055c 0cbe b0dd ffbd 0fa4 933d c11c 65bd
00000210: 5019 d2bc feb4 363d e4a5 85bd 7b17 e5bd
00000220: 837d be3d d90d 113e 7306 b7bd 8068 213e
00000230: df71 f73d b9ea ac3e c67c c0be 5990 0d3d
00000240: 0ec3 f93d 0343 b0bc c67b f0bd cfa9 17bd
00000250: 8a58 ff3d d258 f03d b777 1dbd 9adc d53e
00000260: 4793 febd 8da5 3d3e 3a27 893d ee12 8b3e
00000270: e934 e23e 7a7a d2be 431c 7f3e 6140 5a3d
00000280: 83d3 873c 3c33 b4bd c404 f33c 1ea9 0cbe
00000290: 0902 cc3e 1894 f4be 2287 7cbd 4cc6 763d
000002a0: 9f51 fcbd cc0d 01be 57dc 15be b2dd b5bd
000002b0: c284 e6bb 8150 d23d 9b67 fe3e 2c5c b53d
000002c0: ce19 233d bb07 963e dbe3 b73d 6f65 8dbe
000002d0: 2b93 d93d 1e4b a13d e0f9 b13b 40ce 82be
000002e0: 0563 483d 21d1 063e 6c4a dbbd 1668 903d
000002f0: db78 67be 67db b4bd 65e3 973b 7bf1 2d3e
00000300: f2ae ac3e fd68 c83c a2ff 2c3c f0f3 20bd
00000310: 6aa5 e73d 21bc cb3d 16aa 0ebe 256b f6bd
00000320: dd61 0dbe 7971 80be f3ee 3a3d c7e2 4a3e
00000330: d9f2 9e3e 87d8 09be c321 b9be b116 84be
00000340: 1e7d 893d f8f5 bf3d 71a8 bcbc 769f e3bb
00000350: c4dc cb3d d5aa 79be 6298 943e ff68 7d3e
00000360: d3ff 7f3e e260 22be bec3 ac3e ebb1 a63d
00000370: 6480 d33e 12e1 223e f79d 383e 546b 1c3e
00000380: 2606 46be adcc 5f3e 2921 5bbd da26 f23d
00000390: 93ac d73d 2950 043e 6b7e 05be 1edf 4e3e
000003a0: f9d3 0f3e 8f82 89bd d398 aa3e 112b f73d
000003b0: e63f a3bd d13f a13d f378 663d c801 3e3e
000003c0: d616 8abd 64c7 eb3c e935 5ebd 0196 89be
000003d0: 0fab 623e cdb4 753e 27ad 5ebd 2873 9c3e
000003e0: 9785 8f3e 6c5d 94bd a2e7 b7be e862 6cbe
000003f0: 70b0 34bc ddf1 07bd b8f4 573e ea2a 9a3e

base.mlp.fc2.0.0.bias f4 [64]
-0.12062994 -0.08178519 -0.08186587 -0.09655881 -0.067255296 -0.2009872 -0.022920325 -0.23006335
-0.056014985 -0.045134053 -0.138707 -0.063565865 -0.10810016 0.107341535 -0.09875491 -0.07831846
-0.115132965 -0.16602223 0.26871312 -0.047967877 -0.10916131 -0.020989332 -0.11890229 -0.110364124
0.19672382 -0.21617244 -0.06841202 -0.0723181 -0.043914944 -0.062261727 -0.13025106 -0.16604385
-0.06536425 -0.081879854 -0.041810084 0.04761867 -0.1595176 1.478396 1.4636712 1.2440351
-0.09361109 -0.1617313 0.08587749 -0.22790608 -0.061593678 -0.13626608 -0.11114559 -0.22970782
-0.035826057 0.026140545 -0.05226396 0.020434402 -0.18812856 -0.09526414 -0.058589946 -0.074566156
0.21519847 -0.092652336 -0.09959097 -0.07594275 -0.08174969 -0.06614044 -0.06432921 -0.10895976
00000000: d40c f7bd fe7e a7bd 4ba9 a7bd a0c0 c5bd
00000010: 25bd 89bd 97cf 4dbe 68c3 bbbc ba95 6bbe
00000020: f86f 65bd 7cde 38bd 3509 0ebe d22e 82bd
00000030: 9e63 ddbd e1d5 db3d 0440 cabd 6e65 a0bd
00000040: d5ca ebbd bb01 2abe c494 893e f779 44bd
00000050: f78f dfbd d2f1 abbc 0b83 f3bd 9606 e2bd
00000060: f871 493e 4f5c 5dbe 9a1b 8cbd 831b 94bd
00000070: 28e0 33bd 2706 7fbd 8960 05be 6607 2abe
00000080: b1dd 85bd a0b0 a7bd 0d41 2bbd cb0b 433d
00000090: 9558 23be 153c bd3f 9459 bb3f 8b3c 9f3f
000000a0: 2cb7 bfbd e49c 25be 8ae0 af3d 3660 69be
000000b0: a749 7cbd 5689 0bbe 4da0 e3bd 8738 6bbe
000000c0: 58be 12bd b224 d63c bc12 56bd 0c66 a73c
000000d0: c6a4 40be d819 c3bd 03fc 6fbd 24b6 98bd
000000e0: fd5c 5c3e 82c0 bdbd 5af6 cbbd df87 9bbd
000000f0: 626c a7bd a474 87bd 08bf 83bd 4b26 dfbd

base.mlp.fc2.0.2.weight f4 [64]
0.36385643 0.6285547 0.51354134 0.4759124 0.37891752 0.5249459 0.5427336 0.63151675
0.61459756 0.6340059 0.61332005 0.5527139 0.53316516 0.9474571 0.531306 0.6486794
0.40297422 0.20766574 -0.0033753098 0.1769055 0.46499115 0.61720246 0.62562895 0.5462441
0.8009053 0.49589562 0.56435674 0.64208555 0.538036 0.63168865 0.6696242 0.58034873
0.4279084 0.37214112 0.5322429 -0.0048689167 0.18274201 0.14716716 0.10959159 0.1615122
0.35690954 0.3173785 0.0040116734 0.5867335 0.3517541 0.5728633 0.40903306 0.47823453
0.5238645 0.7028966 0.62922144 -0.06200028 0.5216858 0.58760905 0.5854153 0.45288777
0.84159255 0.60079294 0.4132085 0.6528648 0.641915 0.3800707 0.5375211 0.5691438
00000000: 644b ba3e f6e8 203f 7277 033f caaa f33e
00000010: 7a01 c23e db62 063f 97f0 0a3f 15ab 213f
00000020: 4456 1d3f 364e 223f 8b02 1d3f a87e 0d3f
00000030: 837d 083f 8c8c 723f ac03 083f da0f 263f
00000040: a352 ce3e 54a6 543e 4d34 5dbb b726 353e
00000050: 5213 ee3e fb00 1e3f 3829 203f a7d6 0b3f
00000060: 2108 4d3f 08e6 fd3e af79 103f b85f 243f
00000070: babc 093f 59b6 213f 7e6c 2b3f bc91 143f
00000080: cf16 db3e 4889 be3e 1241 083f 6f8b 9fbb
00000090: b920 3b3e fdb2 163e 8e71 e03d 7463 253e
000000a0: d9bc b63e 6f7f a23e 5b74 833b 2b34 163f
000000b0: 1d19 b43e 2ba7 123f c86c d13e 28db f43e
000000c0: fc1b 063f 08f1 333f a814 213f 01f4 7dbd
000000d0: 338d 053f 8c6d 163f c7dd 153f e8e0 e73e
000000e0: 9c72 573f 91cd 193f 1190 d33e 2622 273f
000000f0: 8b54 243f a098 c23e fc9a 093f 68b3 113f

base.mlp.fc2.0.2.bias f4 [64]
0.0958153 0.17683592 0.14698696 0.12954785 0.1018162 0.14812005 0.14574488 0.18494655
0.17256394 0.17900068 0.17303036 0.15375851 0.14724956 -0.21952522 0.14678426 0.18012589
0.10981672 0.05119678 0.0023824547 0.043214805 0.14123541 0.17337172 0.17517696 0.1543695
-0.14294009 0.13569956 0.15654208 0.17544927 0.1489055 0.17790766 0.18965836 0.17448838
0.11550102 0.098715894 -0.13442723 0.009111108 0.044642024 -0.63864034 -0.59762603 -0.68052983
0.09363867 0.08008356 0.0011982697 0.16510338 0.09196346 0.15876149 0.1358879 0.13611585
0.08882929 0.17808263 0.17705475 0.017655294 0.14345632 0.16419138 0.16351321 0.1379142
-0.1880785 0.16825576 0.11082463 0.18445212 0.18104346 0.09799416 0.14774615 0.1584845
00000000: d03a c43d 7a14 353e c083 163e 31a8 043e
00000010: 0385 d03d c8ac 173e 253e 153e a162 3d3e
00000020: 9ab4 303e f44b 373e df2e 313e df72 1d3e
00000030: 97c8 163e 38cb 60be 9d4e 163e ec72 383e
00000040: 97e7 e03d b7b3 513d f522 1c3b 0202 313d
00000050: 04a0 103e 5b88 313e 9761 333e 0a13 1e3e
00000060: e35e 12be d3f4 0a3e 914c 203e f9a8 333e
00000070: af7a 183e 6d2d 363e cd35 423e 15ad 323e
00000080: cc8b ec3d 8f2b ca3d 4ba7 09be c246 153c
00000090: 8eda 363d ef7d 23bf 05fe 18bf 3437 2ebf
000000a0: a2c5 bf3d d902 a43d 420f 9d3a dc10 293e
000000b0: 5757 bc3d 5f92 223e 3326 0b3e f461 0b3e
000000c0: 21ec b53d 4b5b 363e d74d 353e d6a1 903c
000000d0: 37e6 123e c921 283e 0270 273e 6139 0d3e
000000e0: a697 40be 3d4b 2c3e 06f8 e23d 04e1 3c3e
000000f0: 7563 393e 2ab1 c83d c44a 173e c349 223e

v_out.weight f4 [1, 64]
0.00885282 0.016326865 0.017267002 0.012777667 -0.0026344233 0.0042398944 0.03255892 0.0031330755
0.01597788 0.015227258 0.014817054 0.01349663 0.0019773522 0.340796 0.014356335 0.019429196
0.016863238 0.0023400167 -0.0012528008 0.0017174009 -0.08160893 0.016024215 0.015468533 0.011292501
-0.29078984 0.013069921 0.01420129 0.02867731 0.014493832 0.017308159 0.016785976 -0.018808132
0.01301878 0.0089298375 0.16380058 -0.004329566 0.0018977651 -0.0038870857 0.009771628 0.014842102
0.008392506 -0.007851793 -0.00259655 0.013499692 0.008708775 0.006310571 -0.013701014 0.034310564
-0.15645212 0.13797863 0.016259028 -0.020144964 0.012379566 0.015512305 0.015475104 0.00765337
-0.26691335 0.01580473 0.009942436 0.016565382 0.016397206 0.0070539396 0.015078221 0.015160984
00000000: 6b0b 113c ebbf 853c 8773 8d3c 6b59 513c
00000010: 4aa6 2cbb d0ee 8a3b 815c 053d 4954 4d3b
00000020: 0be4 823c c07b 793c 3bc3 723c f820 5d3c
00000030: 7796 013b d07c ae3e d536 6b3c fa29 9f3c
00000040: c624 8a3c f75a 193b 0535 a4ba 691a e13a
00000050: 9522 a7bd 3745 833c bb6f 7d3c 2f04 393c
00000060: 68e2 94be 3923 563c 87ac 683c aeec ea3c
00000070: 8a77 6d3c d7c9 8d3c be82 893c 8313 9abc
00000080: b94c 553c 744e 123c 57bb 273e 08df 8dbb
00000090: 6ebe f83a 7abe 7ebb 2e19 203c 4a2c 733c
000000a0: b980 093c cfa4 00bc e12a 2abb d02d 5d3c
000000b0: 40af 0e3c e8c8 ce3b 387a 60bc 3c89 0c3d
000000c0: fc34 20be 454a 0d3e a731 853c 0d07 a5bc
000000d0: aad3 4a3c 5327 7e3c 4a8b 7d3c 1fc9 fa3b
000000e0: dea8 88be ec78 813c 99e5 223c 20b4 873c
000000f0: 6f53 863c bc24 e73b a50a 773c c765 783c
