trunk/models/mappo/2022-07-20-01-01-28/default/transfomer.pt (torch, 454288 bytes, 70 tensors)

encoder.obs_encoder.0.weight f4 [215]
000000 be dc 16 3f ef 60 f1 3e 28 f2 ec 3e 5e 5a 02 3f
       0.58930576 0.47144267 0.462785 0.5091914
000010 75 17 14 3f 18 c8 06 3f 84 e6 03 3f a9 eb f4 3e
       0.5784829 0.5264907 0.51523614 0.47836044
000020 e5 80 dd 3e ad 6b af 3f 06 d5 b3 3f 2d 30 c6 3f
       0.432624 1.3704735 1.4049385 1.5483452
000030 46 15 28 3f cb 7c 1a 3f f7 63 1c 40 cf ea 1a 40
       0.6565746 0.6034667 2.4436014 2.4205816
000040 c9 53 30 3f 20 03 a2 3f af e5 9f 3f e8 51 fe 3e
       0.68877846 1.2657204 1.2491969 0.49671865
000050 3a 81 e6 3e 06 fb 4c 3f 2e 0b 1f 3f 18 89 1c 3f
       0.45020467 0.8007053 0.62126434 0.6114669
000060 1e 17 75 3f 4e a2 51 3f 34 98 23 3f de 2c 61 3f
       0.957384 0.8188828 0.6390412 0.87959087
000070 f9 70 2c 3f ed c4 5c 3f ce a8 8b 3f 30 ea 43 3f
       0.6735988 0.86237985 1.091089 0.76529217
000080 98 fe 20 3f d8 04 66 3f ba 77 9d 3f 76 06 9a 3f
       0.6288848 0.8985114 1.2302163 1.2033222
000090 bc d9 a2 3f 34 8b 4b 3e a6 54 8c 3f 44 ab dc 3f
       1.2722697 0.1987732 1.0963333 1.7239766
0000a0 4f 12 a6 3f 98 06 e0 3f 70 2a 86 3f 2b 68 17 3f
       1.2974337 1.7502012 1.0481701 0.5914332
0000b0 88 90 c1 3e c1 ad 22 3f 00 de b1 3f f7 19 91 3f
       0.3780558 0.6354638 1.3895874 1.1336049
0000c0 ed 07 9a 3f 68 33 03 3f fb ad df 3e 15 57 cc 3e
       1.2033669 0.51250315 0.43687424 0.39910188
0000d0 d6 75 19 3f 1e 73 d1 3f 5f 66 5d 3f e2 63 aa 3f
       0.5994543 1.6363256 0.8648433 1.3311732
0000e0 34 31 3a 3f c3 ea c8 3e 34 64 c6 3e 58 dc 0c 3f
       0.7273133 0.3924161 0.38748324 0.5502372
0000f0 64 cf a3 3f 92 bc 9f 3f 97 3a b4 3f 18 6a 18 3f
       1.2797666 1.2479422 1.408038 0.59536886
000100 38 fb cc 3e 0a 8d 8c 3e 6a 99 24 3f af e1 c2 3f
       0.40035415 0.27451354 0.6429659 1.5225123
000110 61 a4 a2 3f c4 9d ca 3f 36 ee 1e 3f 40 14 ce 3e
       1.2706414 1.5829396 0.6208223 0.40249825
000120 51 6a d4 3e 4d 9d 12 3f 1e 01 ac 3f f1 bb 94 3f
       0.41487363 0.5727127 1.3437841 1.1619855
000130 54 99 c7 3f 0e ba 55 3f 28 6c e5 3e 91 f6 98 3e
       1.5593667 0.8348702 0.4480908 0.29875615
000140 82 23 c1 3e 73 26 9d 3f d6 6e ba 3f 1f f4 dc 3f
       0.37722403 1.2277359 1.4565074 1.7262
000150 4c dc 4c 3f 8b 36 d7 3e 0f f1 fb 3e 5c 76 44 3f
       0.80023646 0.420338 0.4920735 0.767431
000160 05 a2 69 3f 33 2e a9 3f 32 5d a6 3f a0 e6 45 3f
       0.9126285 1.3217224 1.2997191 0.7730503
000170 44 ae 42 3e 5c dd 91 3e 6b 67 48 3f a9 dc 83 3f
       0.1901179 0.28489196 0.78282803 1.0301715
000180 86 3f a3 3f d4 9b 97 3f 0f b3 0f 3f 3b a8 97 3e
       1.2753761 1.184443 0.56132597 0.29620537
000190 67 a9 eb 3e c0 ff 8b 3f f7 3f e9 3f 61 10 b3 3f
       0.4602768 1.0937424 1.8222646 1.3989373
0001a0 89 e2 80 3f 82 7a e4 3e e1 76 e7 3e 3f c4 e1 3e
       1.0069133 0.44624716 0.45207885 0.44095036
0001b0 90 3c 51 3f 90 20 b8 3f 32 55 6b 3f f0 43 95 3f
       0.81733036 1.4384937 0.9192687 1.1661358
0001c0 ff 4c 1f 3f 36 cb cd 3e f2 51 f8 3e 01 5e 40 3f
       0.6222686 0.401941 0.4850002 0.7514344
0001d0 0a 91 dd 3f fa e4 cb 3f 15 26 0d 40 ae d4 92 3f
       1.7309887 1.5929253 2.2054493 1.1471155
0001e0 08 42 e3 3f c1 d4 bb 3f 83 68 b3 3f 42 76 18 3f
       1.7754526 1.4674302 1.401627 0.5955545
0001f0 ba 86 d8 3f 23 11 88 3f 4b 12 ab 3f d5 1b 1d 3f
       1.6916115 1.063023 1.3364958 0.61370593
000200 16 81 d3 3f 39 24 53 3f b9 69 b4 3e 89 c1 03 3f
       1.6523769 0.82477146 0.3523691 0.51467186
000210 10 35 4d 3f 1b 6d a0 3f a9 5c 87 3f b2 d2 bf 3f
       0.8015909 1.2533296 1.0575153 1.4986174
000220 43 43 73 3f 0d 49 d5 3e 7a a4 ed 3e 49 0e fa 3e
       0.9502451 0.41657296 0.46414548 0.48839024
000230 2a 77 95 3f e0 14 39 3f 88 02 8c 3f b3 87 e4 3e
       1.1676991 0.7229748 1.0938272 0.4463478
000240 a8 60 ad 3e e2 ec 97 3e 6f a4 e9 3e d6 bb 73 3f
       0.33862805 0.29672915 0.45633265 0.9520849
000250 ec 7d 88 3f d0 6f df 3f b4 9f 2c 3f 08 8c 66 3e
       1.0663428 1.7455997 0.6743119 0.22514355
000260 c5 d2 0e 3f fd 3e e1 3e 40 07 9a 3f cc 84 77 3f
       0.5579036 0.4399337 1.2033463 0.96687007
000270 d1 f4 a4 3f 90 36 0b 3f 11 25 9a 3e e7 a8 fa 3e
       1.2887212 0.5438013 0.30106404 0.48956987
000280 87 2d 28 3f b7 56 a5 3f 54 3b 80 3f a1 b7 94 3f
       0.6569447 1.2917088 1.0018106 1.1618539
000290 c1 cd 13 3f 7a df 8b 3e a9 cc ef 3e 22 04 09 3f
       0.5773583 0.27318937 0.4683583 0.5352193
0002a0 34 29 7f 3f 9e 30 84 3f 6c b6 aa 3f 5a e7 28 3f
       0.99672246 1.0327337 1.3336921 0.65978014
0002b0 2b 4d 88 3e d4 0d 98 3e 4a f5 0a 3f fe ab a9 3f
       0.26621374 0.2969805 0.5428053 1.3255613
0002c0 5a 94 94 3f 20 18 b0 3f 4a 88 15 3f ad 14 db 3e
       1.1607773 1.3757362 0.58411086 0.42789212
0002d0 06 6b a1 3e b5 13 fd 3e 7a e4 8d 3f e6 66 a2 3f
       0.31526965 0.49429098 1.108535 1.2687652
0002e0 7f 15 9e 3f 5d 26 34 3f 82 fc ae 3e 7c 0c 38 3e
       1.235031 0.7037104 0.34177023 0.17973512
0002f0 88 a9 06 3f 0b 19 9b 3f 55 bd 87 3f 70 bb ae 3f
       0.52602434 1.2117018 1.0604655 1.3650951
000300 62 fd 24 3f 25 da ec 3e 5a c4 a2 3e ad 2c 88 3e
       0.6444913 0.4626018 0.3179043 0.26596585
000310 5b 5d 7e 3f 7e 0b 81 3f 77 54 a0 3f b1 7c 55 3f
       0.993612 1.0081632 1.2525777 0.8339339
000320 e2 de ec 3e f3 41 b9 3e 38 36 28 3f 08 d4 88 3f
       0.46263796 0.36183128 0.6570773 1.0689707
000330 b7 6c 5b 3f 4f 19 52 3f 27 48 18 3f 27 08 1a 3e
       0.8571276 0.8206987 0.59485096 0.15042172
000340 1b 7f ba 3e 47 eb 0f 3f 4c 65 85 3f aa b8 3f 3f
       0.364251 0.5621838 1.0421538 0.7489115
000350 ff 06 b3 3f 7d 6e 52 3f 63 46 01 3f
       1.398651 0.8219984 0.50498027

encoder.obs_encoder.0.bias f4 [215]
000000 58 b9 ad be 84 03 0a bf 32 88 04 bf 68 ab 0b bf
       -0.3393047 -0.53911614 -0.5177032 -0.5455842
000010 28 8f b2 be e2 68 fc be d3 bd f6 be 39 d6 f9 be
       -0.34874845 -0.4929877 -0.481917 -0.4879625
000020 3e 66 f2 be ae f3 70 3e 88 38 5e 3e 04 aa 82 3e
       -0.4734363 0.23530456 0.21701252 0.25520337
000030 72 10 82 3e ea bd d2 be f1 56 b0 be f8 78 97 bd
       0.25403172 -0.41160518 -0.3444133 -0.0739612
000040 e0 5b 69 3e 72 50 59 3e ad 10 3c 3e 8c d6 79 3e
       0.22788954 0.21222094 0.18365736 0.2439825
000050 a4 50 e7 3d da 01 d2 bd d0 ea f1 bc c4 cc de bc
       0.11294678 -0.102542594 -0.029530913 -0.02719725
000060 ba 04 f8 bd 75 ff 34 3e 12 a3 13 3d 5b 8f 3e 3e
       -0.121102765 0.17675574 0.036044188 0.18609373
000070 d3 1a c5 3d b5 9c e8 3d 4a 8c ff 3d a3 f6 65 3e
       0.09624257 0.113580145 0.1247793 0.22457366
000080 13 66 28 3e 48 a1 a8 bd a3 bb 74 be 9e 8f 82 3d
       0.16445188 -0.08233887 -0.23899703 0.06375049
000090 ee 22 a1 3c d5 4c 5b 3e 48 80 8c 3c cf f7 56 3d
       0.019669976 0.21416028 0.017151013 0.052482422
0000a0 5c ca 64 3e 5e 61 0a be 21 b4 22 be 00 17 2c bc
       0.22342819 -0.13513705 -0.15889026 -0.0105035305
0000b0 8a cb 1d 3f 2f 82 81 3e 0b 2b c4 3d 95 94 15 3e
       0.616387 0.25294635 0.09578522 0.14607461
0000c0 b5 d2 d3 bd af bf a8 be cd c9 29 bd c4 c6 b4 3e
       -0.103429236 -0.32958743 -0.041452218 0.35307896
0000d0 16 3b d1 3e c1 30 76 3d eb 20 10 3e 1c 3d e9 bd
       0.40865391 0.06010509 0.14075057 -0.11388609
0000e0 ee 1d c3 be 66 8d 8a bd f8 a6 d4 3e da 16 30 3e
       -0.38108772 -0.06765251 0.41533637 0.17196217
0000f0 62 3d 32 3e 63 23 65 3e df 54 69 be 70 e9 ab be
       0.17406228 0.2237678 -0.22786282 -0.33576536
000100 c0 91 8d bd cc 4a d5 3e 2e 5f d8 3d de 00 0f 3e
       -0.06912565 0.41658628 0.10565029 0.13965175
000110 f4 90 0f 3e 70 23 2b 3a f2 e9 9f be c5 7d 22 bd
       0.14020139 0.0006528413 -0.31233174 -0.039670724
000120 04 0f b0 3e f2 fa c0 3c 3a ad 36 3e e3 93 51 3e
       0.34386456 0.02355716 0.17839518 0.2046657
000130 47 1b 3a bd 7e 97 c2 be 68 cb 6c bd 9e 28 92 3e
       -0.04543617 -0.38006204 -0.05781117 0.28546613
000140 5f 97 0a 3e 23 41 6b 3e b7 5b b2 3d 52 8c de bd
       0.13534306 0.22974066 0.087088995 -0.10866608
000150 92 58 26 be 9d 37 40 bd 8f a7 e3 3d 53 06 f3 3d
       -0.16244724 -0.046928037 0.11115944 0.118664406
000160 d8 59 19 3e b8 06 4c 3e e4 de 2f be 39 3a 39 be
       0.14975679 0.19924438 -0.1717487 -0.18088616
000170 66 93 07 bd b5 46 67 3e ad 06 61 3e 44 97 af 3d
       -0.033099554 0.22585566 0.21975203 0.085737735
000180 b0 14 57 3e 42 4b 54 be ad 03 89 be 3a 91 53 bd
       0.21003985 -0.20731834 -0.26760617 -0.05165217
000190 d5 e1 79 3d 3f 74 34 3d 88 9b 94 3d b9 95 cb 3d
       0.061006386 0.044056173 0.07256228 0.09940667
0001a0 70 d8 b7 bd 16 5a 96 be fa c5 9c bd c4 62 24 3e
       -0.08976829 -0.29365605 -0.076549485 0.16053301
0001b0 82 cd c1 bd 1c b7 01 3e c9 ea 5e 3e 44 0e 16 be
       -0.09463026 0.12667507 0.21769251 -0.1465388
0001c0 d4 a3 98 be 6b 0e 8f bc d4 f4 67 3e 9a 93 97 3d
       -0.2981249 -0.01746293 0.22651988 0.074012
0001d0 bf f9 e2 3d a2 77 80 3e 5e f6 15 be c8 35 28 3e
       0.110827915 0.25091273 -0.14644763 0.16426766
0001e0 d7 3b 17 3c 66 8b 1e 3e 54 58 e1 3d e8 44 73 3e
       0.0092305755 0.15482864 0.110031754 0.23756754
0001f0 37 7d cc bc 94 d1 25 3e 92 1b e7 3d 57 37 53 3e
       -0.02496205 0.16193229 0.112845555 0.20626579
000200 f7 e4 f4 3d 67 f8 c2 be 5a 34 41 bd 40 e0 c9 3d
       0.11957734 -0.3808014 -0.047169067 0.098572254
000210 d4 d9 ee 3d 0a e1 11 3e 12 c8 de 3d f2 40 85 bd
       0.11662641 0.14246002 0.10878004 -0.06506528
000220 47 fc b2 bd 93 03 90 bd 96 30 00 bf 34 a3 03 3e
       -0.08739524 -0.07031932 -0.50074136 0.12855226
000230 fe e8 e7 3d 2e 9c 8c 3e e7 7c 44 bd 32 09 fa be
       0.113237366 0.27462906 -0.04797068 -0.4883514
000240 fc de d4 bc 5d c8 86 bc 67 3d d2 bd e2 ef 84 3e
       -0.025985233 -0.016452963 -0.10265618 0.25964266
000250 11 6b 57 3e 13 d5 8b be f2 c0 8c be 85 44 4e bd
       0.21036936 -0.27311 -0.27490956 -0.050358314
000260 39 d7 5d 3c d4 be e6 3c 86 88 1f 3e a6 c6 64 3e
       0.013540083 0.028167166 0.15579423 0.22341403
000270 fc ce 1d be 64 71 b1 be 4e 61 36 bd 45 62 91 bd
       -0.1541099 -0.34656823 -0.04452639 -0.070988216
000280 62 be 08 3e 88 ba 0f 3e 4f 8b 25 3e a7 62 34 bd
       0.13353875 0.14036 0.16166423 -0.044039395
000290 32 cb a4 be e2 73 79 bd ce 37 aa 3c 2a 6f a1 3e
       -0.32186276 -0.06090153 0.020778563 0.31530124
0002a0 dd d0 7d 3e 00 40 14 3e 07 4f 51 bd c9 8e bd be
       0.24786706 0.14477539 -0.051100757 -0.37023
0002b0 76 12 6d bd 1f 39 9a 3d 58 44 d2 3d 78 fd 17 3e
       -0.057878934 0.07530426 0.10266942 0.14842784
0002c0 bb 77 05 3e f4 8a 8d bd b0 a7 88 be fc e8 8e bd
       0.13033955 -0.06911269 -0.26690435 -0.06978032
0002d0 8d 56 ce 3d 55 91 3d 3e fe e1 94 3e 36 fd ec 3d
       0.10075102 0.18512471 0.29078668 0.11571734
0002e0 de ad bd bd 8a 33 4f be 31 e7 98 bd 82 f7 18 3e
       -0.09261678 -0.20234504 -0.07465971 0.14938167
0002f0 7d 0d 83 3e 32 3b 6d 3e 3c c3 15 3e 9c f1 1f bd
       0.25596228 0.23167112 0.14625257 -0.039048776
000300 ea fa 9f be f0 e0 c1 bd db 50 19 3e f8 ea ca bd
       -0.3124612 -0.094667315 0.1497225 -0.09908098
000310 e5 88 39 3e 37 c0 86 3e c6 a4 db bd 3e 8c 3e be
       0.18118627 0.26318523 -0.107247874 -0.18608186
000320 96 87 8d bd ea 5c 89 3e 86 14 32 3e 5c d0 4c 3d
       -0.069106266 0.268287 0.17390642 0.050003394
000330 7a 5c a6 3d 8c 67 06 be 5c 45 79 be 44 d1 12 bd
       0.08123107 -0.13125437 -0.24342865 -0.035844103
000340 3e d7 8f 3e d8 c9 82 3e 67 bf 2a 3e 76 ca 40 3e
       0.28093904 0.2554462 0.16674577 0.18827233
000350 7d 09 23 be 90 a0 9a be 22 ba ba bc
       -0.15921588 -0.30200624 -0.022793833

encoder.obs_encoder.1.weight f4 [64, 215]
000000 62 43 10 be 5a 8e 8d 3d 1b 19 9b be 0f 15 d9 bc
       -0.14088205 0.06911917 -0.3029259 -0.0264993
000010 56 d7 08 be 09 7c 85 bd bf 74 3b be 27 f4 56 be
       -0.13363394 -0.065177985 -0.18306254 -0.20991574
000020 f3 c8 be bd 4d 4a 27 be 59 54 6d bd 37 69 24 be
       -0.09315672 -0.16336937 -0.05794177 -0.16055761
000030 10 89 a3 3b e0 04 90 3d 5a 72 b9 bd bb a1 74 be
       0.0049907044 0.0703218 -0.09055014 -0.2388982
000040 cb cc 60 bc dc e9 34 bd 07 c9 99 3d 73 ba b2 3c
       -0.013720701 -0.04416834 0.07509046 0.021817422
000050 39 d4 ae 3e 08 be cb be 15 f0 b7 3e 93 4f 27 be
       0.34146288 -0.3979342 0.35925356 -0.16338949
000060 f8 2b 90 bb ed 97 ee 3d 24 63 e7 3d 85 5b 5b bc
       -0.0043997727 0.11650071 0.112982064 -0.013388519
000070 eb a0 36 3e 53 f0 d8 3e 11 08 02 3d 0a a5 3e bc
       0.17834823 0.42370853 0.031745974 -0.011636028
000080 ad 7e 68 be 1a 4e 1b 3e 4a 35 8b 3d 0d 05 0d 3e
       -0.22704573 0.15166512 0.067972735 0.13771458
000090 11 0d 77 3e 49 6b 34 be 6c 85 40 3e d1 3a 50 be
       0.24126078 -0.17619051 0.18800896 -0.20334937
0000a0 e5 55 75 bd de ff 44 3e 17 3c e7 3c 0e 21 ce 3d
       -0.05989637 0.1923823 0.028226895 0.100648984
0000b0 fb 23 a2 bd 1f 70 58 3e a2 78 d8 be a3 e8 2e be
       -0.07917019 0.21136521 -0.42279536 -0.17080931
0000c0 ce 1b fe 3d d2 03 32 be e5 9b 08 3e 73 fd 95 bd
       0.12407647 -0.1738427 0.13340719 -0.07323732
0000d0 8c 01 ce 3e 3f b0 05 bf 80 31 aa be 8a 6c a3 be
       0.40235555 -0.52222055 -0.3324089 -0.31918746
0000e0 97 68 cf bc 4e d2 c0 3e f6 52 68 bb ab 8f 17 3e
       -0.025318427 0.3766045 -0.003544984 0.14800899
0000f0 6c bf 03 bf cd d6 c4 3e c2 c2 7b be 5e b4 84 be
       -0.5146396 0.3844513 -0.24586013 -0.2591886
000100 5a 30 35 3e 3d df d4 bc 88 da c1 3e 3c 20 3e 3e
       0.17694226 -0.025985355 0.3786204 0.18566984
000110 a4 da 44 3e 29 9c 54 3e 00 bf b7 be 99 94 b2 3e
       0.1922403 0.20762695 -0.3588791 0.34878996
000120 76 03 a9 bb a3 d7 57 bd a6 f1 ec 3e 75 be 92 be
       -0.0051578833 -0.05269588 0.46278113 -0.28660932
000130 c7 b6 aa be f5 2f 55 be 8a f0 45 3e 89 ce 27 be
       -0.33342573 -0.20819075 0.1933004 -0.1638738
000140 95 62 8d 3e 9d 4a 07 be b1 46 cd be 4d 0a ff bd
       0.27614275 -0.13212056 -0.40092996 -0.124531366
000150 9f c6 e1 bd c6 fd 4b 3e ed 37 d0 3d bf 5d 03 3e
       -0.11024212 0.19921026 0.10166917 0.1282873
000160 0e 45 da bd 60 44 ed 3e 24 ed 57 bd 36 8b bb 3d
       -0.106577024 0.46341228 -0.05271639 0.09157412
000170 76 83 3b 3d bf 5b 17 be 13 58 59 3e f4 a2 6e bb
       0.045779668 -0.14781092 0.21225004 -0.0036413046
000180 4e b9 3e 3e 36 de 8f 3d a5 d6 0f 3e 6e d7 5d 3e
       0.18625376 0.07024805 0.14046724 0.21664211
000190 40 99 c4 bd 44 a1 50 3e f7 10 e8 be e0 f0 ab 3d
       -0.095995426 0.20374018 -0.45325443 0.08395553
0001a0 b8 f6 14 3d 2c e9 05 be 84 54 42 3d ff d9 66 be
       0.0363681 -0.1307723 0.04744388 -0.22544096
0001b0 e8 f5 58 3e e6 08 18 be 74 57 9a 3e b4 03 0a 3f
       0.21187556 -0.14847144 0.30144846 0.539119
0001c0 e3 b9 02 be 6a 6c 27 3e 3d b9 2a 3d 19 a9 68 3e
       -0.12766223 0.1634995 0.041680563 0.22720756
0001d0 27 8a 73 3d 0d b2 87 3e 57 33 98 3e 07 ad 96 3e
       0.059457924 0.2650303 0.2972667 0.29428884
0001e0 1c 77 05 bf c3 00 84 3f 08 24 0c be 8f 58 ba bd
       -0.5213487 1.0312732 -0.1368562 -0.090989225
0001f0 4b b7 a0 be f3 4b 88 3e f7 b4 20 3f 9a f7 c5 3e
       -0.3138984 0.26620445 0.6277613 0.38665468
000200 de 0b 13 bf 91 fe 86 bd b7 0f 1a 3e 7c 54 80 bc
       -0.5743998 -0.065915234 0.15045057 -0.015665285
000210 b1 f2 7a be 93 cd 13 3e 86 45 5a bc f0 42 22 be
       -0.24506642 0.14433889 -0.01332224 -0.15845847
000220 19 82 76 3e 31 e5 12 3e b8 61 84 be 12 8d 6e 3d
       0.24073066 0.14345242 -0.25855803 0.058240004
000230 b9 c6 cf 3e 13 d6 e2 bd 31 b1 a0 be a8 5e 46 3d
       0.405813 -0.11075988 -0.31385186 0.048430115
000240 3d 73 19 3d d8 78 8b 3d 69 8d b1 bd f5 0e c1 3c
       0.037463415 0.068101585 -0.0866955 0.023566702
000250 67 77 25 3e 76 c0 c3 be bd 93 3e be 33 0b 31 3e
       0.1615883 -0.38232774 -0.18611045 0.17289428
000260 bc 82 da bd f1 de bd 3e 17 e2 1c be 7c 5c 4f bc
       -0.10669467 0.37084153 -0.15320621 -0.012656327
000270 ab 2f fa 3d 01 10 cf 3c 45 69 47 3d d4 b5 a5 be
       0.12216123 0.025276186 0.048684377 -0.32365286
000280 0f ae 4b 3e 4e 01 56 be ec d6 81 3d cc 7c 1e be
       0.19890617 -0.20898935 0.06339821 -0.15477294
000290 61 55 a0 bd 8c 4a 3d 3e ac 31 c7 bd d6 97 41 3e
       -0.07828785 0.18485469 -0.09726271 0.18905577
0002a0 0c 9b c5 3d c8 4c 3c 3e cc 12 f2 be 08 1c 39 bc
       0.096487135 0.18388665 -0.47279966 -0.011298187
0002b0 f5 4f 27 3e 1f 1a 81 3d 18 2e b4 3d 4f 33 db 3d
       0.16339095 0.0630381 0.08797854 0.10703146
0002c0 d5 ad 01 bd 97 ea 42 be 62 e7 90 3e be 1c 4d 3e
       -0.03165992 -0.19034801 0.2830153 0.20030496
0002d0 58 82 8d 3d 7e ac 71 3d f8 58 ab 3e 2a f2 67 bc
       0.06909627 0.059002392 0.33466315 -0.0141568575
0002e0 37 35 f9 bd b1 b6 b3 3c 32 94 70 3e d7 62 08 be
       -0.12168353 0.0219377 0.23494032 -0.13318954
0002f0 eb 11 fe 3d 4c 0c 44 3e a8 b2 0a 3e 17 ed b2 be
       0.12405761 0.19145316 0.13544714 -0.3494651
000300 70 c6 31 3e f1 6f 54 3e d1 46 00 bd 06 06 94 3e
       0.17360854 0.20745827 -0.031317536 0.28910846
000310 a2 1d 5f bd bc 31 a5 3e 39 be a2 3e 20 5b 86 bd
       -0.05447162 0.32264507 0.31785753 -0.065603495
000320 3e 1f 8c 3e 57 ae 8e bd 1b 71 74 bd 3b 7d 91 3e
       0.27367586 -0.069668464 -0.05967818 0.28415856
000330 07 56 29 3e 03 79 05 be 7b 98 78 3e 77 04 17 bd
       0.16536723 -0.13034444 0.24276917 -0.036869492
000340 b8 dc 4e 3b 73 23 9c 3c f1 a2 4a 3d bd 16 10 3e
       0.0031564664 0.019059872 0.0494718 0.14071174
000350 eb a8 4c 3e da 96 42 3e f0 55 2b 3e 01 4a c4 3d
       0.19986312 0.19002858 0.16732001 0.095844276
000360 1c 26 13 bb 85 af d7 bc 4b ca 1a 3d 67 29 08 bd
       -0.0022453135 -0.026328811 0.037790578 -0.03324261
000370 f3 41 6c 3d 41 7b 05 3d 49 ef 83 3d a2 c7 d9 bd
       0.05768008 0.032588247 0.064421244 -0.1063378
000380 ea 59 21 3e fc ed 20 3e 54 48 8b bd c5 c9 03 3e
       0.15756956 0.15715784 -0.06800905 0.12869938
000390 95 19 31 be 97 91 94 bf 0c 9a 84 3e 37 30 ae 3d
       -0.17294915 -1.160693 0.25898778 0.0850529
0003a0 74 fa a8 3e 07 44 87 3e 7c 86 0f 3d 89 a1 75 bd
       0.3300358 0.26419088 0.035040364 -0.059968505
0003b0 be 68 15 3e 01 62 38 3e 7a 3f 18 bd f2 ec ff bd
       0.14590737 0.18006136 -0.03716991 -0.124963656
0003c0 98 50 12 be f8 33 42 bd 24 7e ad 3c 4b d6 20 3c
       -0.14288557 -0.047412843 0.021178313 0.009816716
0003d0 14 b5 14 3c a8 ad a7 3e 18 12 f0 bc 5c 04 a1 3d
       0.0090763755 0.32749677 -0.029305503 0.078621596
0003e0 01 20 05 3e 99 09 13 be 73 f0 12 be 3f 43 16 3d
       0.1300049 -0.1435913 -0.14349537 0.036685225
0003f0 be 1e aa 3d e3 d0 c4 bd ca b0 a1 3d d9 28 54 bd
       0.08306645 -0.096101545 0.07895048 -0.051796768

encoder.obs_encoder.1.bias f4 [64]
000000 72 68 4d be 99 63 07 3d 20 3f 06 3a c8 2f 96 3c
       -0.20059374 0.033053968 0.00051211007 0.01833333
000010 01 08 ab bd 30 2b 49 be 55 16 92 bc 83 33 b0 bd
       -0.08351136 -0.19645381 -0.017832914 -0.08603575
000020 fe c8 ca bd 0e a7 0b bc 35 f1 ea bc 31 d1 14 bb
       -0.099016175 -0.008523716 -0.02867947 -0.0022707696
000030 0a c7 61 be f3 19 34 be ab 0e 92 bd 81 2e 29 ba
       -0.22048584 -0.17588024 -0.07131704 -0.0006453768
000040 38 c2 c6 bc 5a f9 0c be d1 36 c5 bd f8 1e c3 bd
       -0.024262533 -0.13766995 -0.09629596 -0.09527391
000050 a8 9d 87 bd 62 58 c7 bd 13 d1 71 bd 03 f7 39 3e
       -0.066218674 -0.097336546 -0.05903728 0.18160634
000060 e0 bb c6 bc e4 bc 1e bd a9 3e d3 bd 86 2e 9a be
       -0.024259508 -0.03875436 -0.10314686 -0.3011362
000070 7f fe 38 bd a5 c6 0f bd b9 f6 f0 3c e4 a5 e7 bd
       -0.04516458 -0.03510155 0.029414522 -0.11310938
000080 1b 82 82 be ef e6 03 be e8 59 05 be 9f 7e 69 bd
       -0.25489888 -0.12881063 -0.13022578 -0.05700552
000090 d3 2d 13 bc a0 65 75 be 29 fc 23 bc 4c bc af bd
       -0.008983093 -0.23964548 -0.01000885 -0.08580837
0000a0 83 3f e2 bb 80 67 5d be f2 2f 11 be 01 c5 95 bd
       -0.006904544 -0.21621513 -0.14178446 -0.07312966
0000b0 78 88 92 bd 5d 1a a5 bd bc c8 33 3c 1c 10 e5 3c
       -0.071549356 -0.08061669 0.010973152 0.027961783
0000c0 38 ea 26 3d 11 5d b6 bd 5e 8b 5a bd 44 01 04 be
       0.040750712 -0.0890447 -0.053355567 -0.12891108
0000d0 8b a8 b8 bd 52 38 91 bd e0 f0 11 bd 98 75 7f bd
       -0.09016522 -0.0709082 -0.035630107 -0.062368006
0000e0 71 41 4c be dc a7 33 3e d0 2b 54 3d e8 a7 9d b9
       -0.19946839 0.17544502 0.051799595 -0.00030070473
0000f0 e7 6c 34 3d d4 67 1d bc e6 48 bc bd 05 7c ab bc
       0.04404917 -0.009607274 -0.09193592 -0.02093316

encoder.ln.weight f4 [64]
000000 47 0b 7e 3f a2 df 69 3f 2d 4f a8 3f fa b3 97 3f
       0.9923596 0.9135686 1.3149163 1.18518
000010 23 29 98 3f 73 49 2d 3f 0c 68 82 3f 97 01 a1 3f
       1.1887554 0.676902 1.0188003 1.257861
000020 85 16 88 3f ce 00 93 3f 21 1c 67 3f e2 16 91 3f
       1.0631872 1.148462 0.90277296 1.1335108
000030 16 67 52 3f ea 0d 84 3f 1b 38 50 3f 66 51 87 3f
       0.82188547 1.0316746 0.8133561 1.0571716
000040 48 83 80 3f 79 15 48 3f e7 0c 88 3f b7 02 9b 3f
       1.0040064 0.78157765 1.0628937 1.2110204
000050 d1 27 94 3f 02 f5 73 3f 94 81 68 3f 67 94 a4 3f
       1.1574651 0.9529573 0.9082272 1.2857789
000060 51 c4 72 3f d4 52 8c 3f 11 43 3e 3f 14 d8 50 3f
       0.94830805 1.0962777 0.74321085 0.8157971
000070 38 55 77 3f e2 ab 8e 3f af ed 97 3f c9 8e 36 3f
       0.9661441 1.1146204 1.186941 0.7131162
000080 94 4d 77 3f 99 e3 67 3f 37 bf 72 3f 59 60 9b 3f
       0.9660275 0.9058166 0.9482302 1.2138778
000090 35 cc 9a 3f b2 ac 3e 3f b6 a1 56 3f c7 36 19 3f
       1.2093569 0.7448226 0.838405 0.5984921
0000a0 bb c1 3c 3f 3d 02 71 3f 31 20 31 3f 19 79 67 3f
       0.7373311 0.9414404 0.69189745 0.90419155
0000b0 88 f2 67 3f 61 7f 47 3f 3c 16 60 3f c7 2d 87 3f
       0.9060445 0.7792874 0.87533927 1.0560845
0000c0 4f d9 90 3f 59 17 56 3f b9 68 a6 3f 35 60 7a 3f
       1.1316317 0.83629376 1.3000709 0.9780305
0000d0 23 ca b2 3f 38 ef 49 3f 4e ff 73 3f c1 01 8e 3f
       1.3967937 0.78880644 0.9531144 1.1094285
0000e0 7c c1 64 3f 66 bc a4 3f 53 b3 6f 3f 72 3e 32 3f
       0.89357734 1.2869995 0.93633 0.69626534
0000f0 54 6c 7a 3f e5 9e a8 3f 53 3a 4a 3f fa 1e 6b 3f
       0.97821546 1.3173491 0.78995246 0.9184414

encoder.ln.bias f4 [64]
000000 fc 0f 31 3e c9 46 8a 3d ef 46 2f bd ac 73 11 3c
       0.17291254 0.067517824 -0.042792257 0.008877676
000010 8b 3c 0d 3e c7 11 78 3e 20 df eb bd 69 d7 8c 3d
       0.13792627 0.24225532 -0.11517167 0.06877024
000020 b9 d0 84 3c 0d ce 36 3d 36 09 17 3e 42 64 ed 3b
       0.016212808 0.0446301 0.14749607 0.0072446177
000030 f7 5b 94 3e 34 e4 98 3d 8d 69 a7 bc 62 1a 10 3d
       0.28976414 0.07465401 -0.020436073 0.03518141
000040 78 91 27 3e 90 32 d2 3d 3b b4 d2 3d 88 8b 99 3d
       0.16364086 0.1026355 0.102882825 0.074973166
000050 cc 66 5d 3c 84 4a bd bd 3b 07 44 3e 14 1b 6c bd
       0.013513278 -0.09242728 0.19143383 -0.05764301
000060 a7 46 1f 3e aa bf 59 bd 21 28 be 3d 54 7e 6f 3e
       0.15554295 -0.0531613 0.09284998 0.23388034
000070 f5 2f d3 bc 0f fb de bd e7 cd 3a be cb 75 aa 3e
       -0.025779704 -0.108877294 -0.18242608 0.33292994
000080 d1 20 01 3e 75 61 03 3e 47 83 c2 3d df c6 e3 3d
       0.12610175 0.12830146 0.094976954 0.11121916
000090 3a b7 02 3d 44 a4 93 3e 09 ab b2 bd a5 77 a5 3d
       0.03191302 0.28836262 -0.087240286 0.08079461
0000a0 b9 e4 94 bd a3 a3 04 3e 0b 1e 9d 3e 71 70 02 3e
       -0.07270188 0.12953047 0.30686983 0.12738205
0000b0 40 96 5b bd df e8 1b 3e 3e 3f 37 bd 9a 89 92 bd
       -0.053610086 0.15225552 -0.044738047 -0.07155152
0000c0 5f e6 21 be af b0 d4 3d 20 c6 20 bd 36 ad 84 bc
       -0.15810536 0.10385262 -0.039251447 -0.016195875
0000d0 b7 db 7f bc a6 d5 14 3e 73 04 3e bd 4c c5 35 3c
       -0.015616349 0.14534625 -0.04639096 0.0110944025
0000e0 48 1b 7f 3e 7c 01 8e 3d 6f d7 e1 bb 6d 9b 13 be
       0.2491275 0.06933877 -0.0068921368 -0.14414759
0000f0 eb 4d b0 3d 88 ea 55 3d be ea 18 bc dd ec d4 3d
       0.08608612 0.05222562 -0.009333311 0.103967406

encoder.blocks.0.ln1.weight f4 [64]
000000 6c 30 6a 3f 62 8c 5c 3f 04 20 bd 3f f8 e0 a3 3f
       0.91480136 0.8615171 1.4775395 1.280303
000010 68 2c 8b 3f d6 03 0b 3f ce 6c 8f 3f 6d d4 a2 3f
       1.0872927 0.5430273 1.120508 1.2721077
000020 f6 eb 74 3f 21 ea 99 3f ec 0e 51 3f 41 26 75 3f
       0.9567255 1.2024575 0.81663394 0.95761496
000030 fe 80 75 3f 55 a4 8a 3f 0a 3a 3a 3f a4 6c 76 3f
       0.9589995 1.08314 0.7274481 0.9625952
000040 71 5b 86 3f 0b f3 1d 3f d5 b6 97 3f 29 5d 8e 3f
       1.0496656 0.6169898 1.1852671 1.112218
000050 31 a0 76 3f 77 92 72 3f 57 e7 5c 3f 0e c5 c6 3f
       0.9633818 0.9475474 0.86290497 1.5528886
000060 b6 9e 40 3f f9 74 9b 3f 2c 72 23 3f cb 03 5e 3f
       0.75242174 1.2145072 0.6384609 0.8672454
000070 d8 74 30 3f 8d ee 9d 3f 75 9e aa 3f 38 dc 36 3f
       0.6892829 1.2338425 1.3329607 0.7142978
000080 58 f9 8d 3f e3 46 39 3f ae 59 48 3f 0c c0 84 3f
       1.1091719 0.7237379 0.7826184 1.0371108
000090 a4 cd 98 3f 05 d2 1c 3f a1 9e 89 3f b6 20 20 3f
       1.1937757 0.61257964 1.0751535 0.6254991
0000a0 d9 f4 6d 3f 3f af 06 3f 94 24 d9 3e 26 b3 65 3f
       0.9295173 0.52611154 0.4241072 0.89726484
0000b0 29 d6 71 3f b5 70 55 3f 82 5e 71 3f 06 2e 80 3f
       0.9446741 0.833751 0.9428483 1.0014045
0000c0 dc 89 97 3f a8 d5 79 3f d6 f9 d6 3f d2 c2 80 3f
       1.1838946 0.9759164 1.6794994 1.0059454
0000d0 69 4c b8 3f 6d 97 4f 3f b7 ab 78 3f 2a 5d 60 3f
       1.4398319 0.8109043 0.97137016 0.8764216
0000e0 0d 95 30 3f 3d 31 bc 3f 20 00 9b 3f 57 52 79 3f
       0.68977433 1.4702526 1.2109413 0.97391266
0000f0 45 04 8c 3f 8c 33 9b 3f 8f 14 52 3f ad 7a 69 3f
       1.0938803 1.2125106 0.8206262 0.91202813

encoder.blocks.0.ln1.bias f4 [64]
000000 db eb a1 bd 26 cf e4 3d 82 7c 37 3e b0 46 51 3e
       -0.07906314 0.11172323 0.1791859 0.20437121
000010 f9 e0 65 bd 55 81 d1 bd ed 30 03 3e d1 f7 29 be
       -0.056122754 -0.10229746 0.12811632 -0.1659844
000020 46 97 bb bd 44 ec 31 bd 6a 59 b7 bd 5c 11 ed bd
       -0.091597125 -0.04343821 -0.08952601 -0.11575577
000030 28 e8 61 be 56 f7 12 be fd 1f 40 3d ff 12 cf bc
       -0.22061217 -0.14352164 0.046905506 -0.025277613
000040 43 bb 8f 3e fe cd 33 be 71 fe 16 3e 1a b4 0a bd
       0.28072557 -0.17559049 0.14745499 -0.033863164
000050 25 be 0b 3e 97 4c cd bd c4 a5 5e 3d 40 0d c8 bb
       0.13646753 -0.10024374 0.054357305 -0.006105095
000060 57 8f 36 3d 40 7f 75 3c 30 53 b8 3c 27 a1 85 be
       0.044570293 0.014983952 0.022500604 -0.26099512
000070 7a 10 38 bd 66 56 69 bd 39 f1 33 be f1 fc 68 3d
       -0.04493759 -0.05696716 -0.17572488 0.05688185
000080 69 e3 c4 bd 5b 19 46 bc fe 5d 1f be b2 55 19 be
       -0.096136875 -0.012091006 -0.15563199 -0.14974096
000090 9a ea ae bd 67 4e d9 bd 1f c2 3b 3d d5 8c 33 3d
       -0.085408404 -0.10610657 0.045839425 0.04383548
0000a0 ae 9d b9 3d 48 91 14 bd 93 f3 fd 3d ce a4 3a 3e
       0.09063278 -0.036271363 0.12399974 0.1822693
0000b0 d1 35 ba 3c 00 cd 2a 3d 2e e5 a3 3c 19 31 19 3e
       0.02273074 0.04169941 0.020006742 0.14960136
0000c0 43 ea 55 be 6e 86 42 3d a8 4d 15 3e d1 b1 7e be
       -0.20890145 0.047491483 0.14580405 -0.24872519
0000d0 34 ae 39 be c1 ce f2 3d 4b 3e 1f 3d e4 6a fe bd
       -0.1813286 0.118558414 0.038877767 -0.124227315
0000e0 df 11 67 3c 9b 57 c6 3d 6b a6 53 3e c1 07 6e 3c
       0.014103382 0.09684678 0.20668952 0.014528216
0000f0 9e 49 9d bd 01 9f 48 bd af 9f a6 3c e3 1e 4e bd
       -0.07680057 -0.048979763 0.020339815 -0.050322425

encoder.blocks.0.ln2.weight f4 [64]
000000 ff ff 7c 3f 51 7d a5 3f 5e e3 a0 3f 70 a4 9c 3f
       0.9882812 1.2928869 1.2569387 1.2237682
000010 cc d9 93 3f f8 7a a7 3f 37 9b aa 3f 74 9a b6 3f
       1.1550841 1.3084402 1.3328618 1.4265885
000020 9f 9f 7b 3f 06 ca 89 3f 70 a0 95 3f 61 a7 8e 3f
       0.9829044 1.0764778 1.1689587 1.114483
000030 75 ec 67 3f 8c 57 a7 3f 8c e1 6c 3f 40 72 ae 3f
       0.9059518 1.3073592 0.9253166 1.3628616
000040 1c 83 a1 3f 52 7f 70 3f 0f 03 ad 3f 31 0e c2 3f
       1.2618136 0.93944275 1.3516558 1.5160581
000050 81 4e 9d 3f c9 1f 98 3f 56 39 8b 3f fa 8f 9e 3f
       1.2289582 1.18847 1.0876873 1.2387688
000060 ca 75 9f 3f 14 90 97 3f 38 9c 9c 3f 83 0f a0 3f
       1.2457821 1.1840844 1.2235174 1.2504734
000070 41 f2 a1 3f 3b c8 8d 3f c2 ce a3 3f 80 3f 96 3f
       1.2652055 1.107673 1.2797472 1.1738129
000080 f6 0b 85 3f 6d f3 93 3f a0 48 8d 3f 38 b2 64 3f
       1.0394275 1.1558663 1.1037788 0.8933444
000090 8d 92 7b 3f 92 b7 bd 3f cc 3b b7 3f bb 77 b3 3f
       0.98270494 1.4821646 1.4315124 1.4020914
0000a0 61 e1 a2 3f 46 32 a0 3f c6 4e a8 3f b6 43 6f 3f
       1.272503 1.2515342 1.314904 0.93462694
0000b0 f3 73 bd 3f 26 ce 8f 3f e7 c5 aa 3f 4d 0e ad 3f
       1.480101 1.1234787 1.3341645 1.3519989
0000c0 35 71 c1 3f a5 97 85 3f b0 24 be 3f 13 39 a5 3f
       1.5112673 1.0436903 1.4854946 1.2908043
0000d0 f7 a7 a7 3f 83 40 b6 3f 7d 29 67 3f 11 32 90 3f
       1.3098134 1.4238437 0.9029768 1.1265279
0000e0 2d 5b a6 3f d1 ad bd 3f ac 35 93 3f 2a 7f 99 3f
       1.2996575 1.481867 1.1500754 1.1991932
0000f0 41 44 b0 3f ff e7 a4 3f d6 72 84 3f 06 e5 88 3f
       1.377083 1.28833 1.0347545 1.0694892

encoder.blocks.0.ln2.bias f4 [64]
000000 92 31 8d bd 9c bc 8b ba f2 21 70 3d 32 d2 bc ba
       -0.068942204 -0.0010661068 0.058626123 -0.0014405905
000010 db 0d e6 bd c4 0a 3c bc 89 d3 a2 3d c9 10 3c 3d
       -0.112331115 -0.011477176 0.079505034 0.045914445
000020 76 d7 87 bd 73 65 dd bc 30 c0 ac bd 4b 38 e1 bd
       -0.06632893 -0.027025914 -0.08435094 -0.10997065
000030 b1 cd ad bd 1a b6 4a 3d 6e 7b 71 bd 72 2c ef bc
       -0.08486498 0.04949007 -0.058955602 -0.029195998
000040 4e d3 8b bc 4d a8 0c be a6 13 ed 3c 22 cf 1f 3d
       -0.017068531 -0.13736077 0.028940033 0.039015897
000050 2a 12 d0 3d 4a d1 27 3d 6e b0 e7 3d 5e 91 4f bd
       0.101597145 0.040971078 0.11312948 -0.050675742
000060 fe fe 2e 3c d8 8f 57 3d 07 80 42 bb 1b 85 bb bd
       0.010680912 0.052627414 -0.002967836 -0.09156247
000070 7b b1 f9 bd a1 03 3e bd 72 20 c0 bd 43 82 1b be
       -0.12192055 -0.04639018 -0.093811885 -0.1518641
000080 cf 55 e4 3d 9f eb a6 3c 89 f1 b9 bd c0 21 74 bc
       0.11149179 0.020376025 -0.09079272 -0.014900625
000090 61 b5 0a 3e 7b f7 01 be 64 78 d2 3d 4e be c8 bd
       0.13545753 -0.12692063 0.10276869 -0.09801923
0000a0 9f e2 3b 3e f5 7c c5 3c b7 a3 68 bc e3 e5 14 be
       0.18348168 0.024107436 -0.014199189 -0.1454082
0000b0 de ba 89 bc d6 9f 53 3d df 6a af bc 8b 8e 0f 3a
       -0.016812738 0.051666103 -0.021413265 0.00054762576
0000c0 cc ac 74 bd 9e f9 cc 3d 28 a9 9b 3d 32 06 13 bd
       -0.059735104 0.10008548 0.07600623 -0.03589458
0000d0 83 96 18 bd 87 91 07 3e d6 ed 26 bd c2 06 90 3d
       -0.037252914 0.13239108 -0.04075416 0.07032539
0000e0 ae 84 25 3d 15 f7 e9 bc 56 35 3a 3d ec 17 8e 3c
       0.040409736 -0.0285602 0.04546102 0.017345391
0000f0 1b 90 24 3d 29 0a 95 3d 03 19 99 3d 6d f0 64 3c
       0.040176492 0.072773285 0.07475474 0.013973338

encoder.blocks.0.attn.mask f4 [1, 1, 12, 12]
000000 00 00 80 3f 00 00 00 00 00 00 00 00 00 00 00 00
       1.0 0.0 0.0 0.0
000010 00 00 00 00 00 00 00 00 00 00 00 00 00 00 00 00
       0.0 0.0 0.0 0.0
000020 00 00 00 00 00 00 00 00 00 00 00 00 00 00 00 00
       0.0 0.0 0.0 0.0
000030 00 00 80 3f 00 00 80 3f 00 00 00 00 00 00 00 00
       1.0 1.0 0.0 0.0
000040 00 00 00 00 00 00 00 00 00 00 00 00 00 00 00 00
       0.0 0.0 0.0 0.0
000050 00 00 00 00 00 00 00 00 00 00 00 00 00 00 00 00
       0.0 0.0 0.0 0.0
000060 00 00 80 3f 00 00 80 3f 00 00 80 3f 00 00 00 00
       1.0 1.0 1.0 0.0
000070 00 00 00 00 00 00 00 00 00 00 00 00 00 00 00 00
       0.0 0.0 0.0 0.0
000080 00 00 00 00 00 00 00 00 00 00 00 00 00 00 00 00
       0.0 0.0 0.0 0.0
000090 00 00 80 3f 00 00 80 3f 00 00 80 3f 00 00 80 3f
       1.0 1.0 1.0 1.0
0000a0 00 00 00 00 00 00 00 00 00 00 00 00 00 00 00 00
       0.0 0.0 0.0 0.0
0000b0 00 00 00 00 00 00 00 00 00 00 00 00 00 00 00 00
       0.0 0.0 0.0 0.0
0000c0 00 00 80 3f 00 00 80 3f 00 00 80 3f 00 00 80 3f
       1.0 1.0 1.0 1.0
0000d0 00 00 80 3f 00 00 00 00 00 00 00 00 00 00 00 00
       1.0 0.0 0.0 0.0
0000e0 00 00 00 00 00 00 00 00 00 00 00 00 00 00 00 00
       0.0 0.0 0.0 0.0
0000f0 00 00 80 3f 00 00 80 3f 00 00 80 3f 00 00 80 3f
       1.0 1.0 1.0 1.0
000100 00 00 80 3f 00 00 80 3f 00 00 00 00 00 00 00 00
       1.0 1.0 0.0 0.0
000110 00 00 00 00 00 00 00 00 00 00 00 00 00 00 00 00
       0.0 0.0 0.0 0.0
000120 00 00 80 3f 00 00 80 3f 00 00 80 3f 00 00 80 3f
       1.0 1.0 1.0 1.0
000130 00 00 80 3f 00 00 80 3f 00 00 80 3f 00 00 00 00
       1.0 1.0 1.0 0.0
000140 00 00 00 00 00 00 00 00 00 00 00 00 00 00 00 00
       0.0 0.0 0.0 0.0
000150 00 00 80 3f 00 00 80 3f 00 00 80 3f 00 00 80 3f
       1.0 1.0 1.0 1.0
000160 00 00 80 3f 00 00 80 3f 00 00 80 3f 00 00 80 3f
       1.0 1.0 1.0 1.0
000170 00 00 00 00 00 00 00 00 00 00 00 00 00 00 00 00
       0.0 0.0 0.0 0.0
000180 00 00 80 3f 00 00 80 3f 00 00 80 3f 00 00 80 3f
       1.0 1.0 1.0 1.0
000190 00 00 80 3f 00 00 80 3f 00 00 80 3f 00 00 80 3f
       1.0 1.0 1.0 1.0
0001a0 00 00 80 3f 00 00 00 00 00 00 00 00 00 00 00 00
       1.0 0.0 0.0 0.0
0001b0 00 00 80 3f 00 00 80 3f 00 00 80 3f 00 00 80 3f
       1.0 1.0 1.0 1.0
0001c0 00 00 80 3f 00 00 80 3f 00 00 80 3f 00 00 80 3f
       1.0 1.0 1.0 1.0
0001d0 00 00 80 3f 00 00 80 3f 00 00 00 00 00 00 00 00
       1.0 1.0 0.0 0.0
0001e0 00 00 80 3f 00 00 80 3f 00 00 80 3f 00 00 80 3f
       1.0 1.0 1.0 1.0
0001f0 00 00 80 3f 00 00 80 3f 00 00 80 3f 00 00 80 3f
       1.0 1.0 1.0 1.0
000200 00 00 80 3f 00 00 80 3f 00 00 80 3f 00 00 00 00
       1.0 1.0 1.0 0.0
000210 00 00 80 3f 00 00 80 3f 00 00 80 3f 00 00 80 3f
       1.0 1.0 1.0 1.0
000220 00 00 80 3f 00 00 80 3f 00 00 80 3f 00 00 80 3f
       1.0 1.0 1.0 1.0
000230 00 00 80 3f 00 00 80 3f 00 00 80 3f 00 00 80 3f
       1.0 1.0 1.0 1.0

encoder.blocks.0.attn.key.weight f4 [64, 64]
000000 39 0a 4a bd aa 30 9b 3d 61 e1 58 be da 71 83 3e
       -0.049326155 0.07577641 -0.21179725 0.256728
000010 32 9a 1e 3e 63 a4 b0 bd 39 f7 ad 3d c6 8c 39 3c
       0.15488508 -0.08625104 0.084944196 0.011325067
000020 3e 4b 51 be d3 a7 0d 3e cc fc 89 be 57 21 9c 3e
       -0.20438859 0.13833551 -0.2695068 0.30494186
000030 36 db 62 bc 4d 1a 81 bd a4 d8 a0 3d 26 cc f2 3e
       -0.013846209 -0.063038446 0.07853821 0.47421378
000040 84 ff 75 be 1d 01 20 be 67 60 37 be 4c 31 95 bd
       -0.24023253 -0.15625425 -0.17907868 -0.07284793
000050 91 fb 96 3e 85 dc f2 be b6 54 f5 bd a6 01 a7 3e
       0.29488805 -0.47433868 -0.11979048 0.32618445
000060 2b 25 75 be 88 f1 b0 bd 12 ba 16 bb f8 95 6e 3d
       -0.2393996 -0.086398184 -0.002299909 0.05824849
000070 29 1a 07 be 79 ca 97 3e 12 db b5 bd 7e e9 df bd
       -0.13193573 0.29646662 -0.08879675 -0.10933207
000080 24 04 a6 3d 0d a0 10 3e 56 2d 9e be 5e b9 89 bc
       0.081062585 0.14123555 -0.30893964 -0.016812023
000090 d5 9f 6e 3d b1 b1 7c be 4f b4 3a bd 5d 4f 22 bd
       0.058257896 -0.24677159 -0.045582112 -0.039626468
0000a0 e5 68 e8 bc 42 aa 83 bd 8c 06 18 3e fe 97 81 be
       -0.02837033 -0.064289585 0.14846247 -0.25311273
0000b0 92 e4 30 3d e3 e4 66 3c d0 e8 fc bd f2 46 6f be
       0.04318673 0.014092657 -0.12349093 -0.23366907
0000c0 3f e8 71 3e da 1c 04 3e 95 29 5b 3e 66 45 79 be
       0.23623751 0.12901631 0.21402581 -0.2434288
0000d0 7d f9 70 3e 83 e5 0b bd b8 01 e9 3d c8 d4 a0 be
       0.23532672 -0.034154426 0.11377281 -0.3141234
0000e0 29 d0 ce 3c 71 56 40 3e a8 88 8a 3d ee 94 b5 be
       0.025245743 0.18782975 0.06764346 -0.35465187
0000f0 ab 7c 54 be f6 cf c0 3d 47 ed 80 be 2a 15 02 3d
       -0.20750682 0.094146654 -0.25181028 0.031758465
000100 10 ab 27 3e 22 71 e2 3d 46 7e 1a be f1 55 b6 be
       0.16373849 0.110567346 -0.15087232 -0.35612443
000110 09 27 ea 3d 25 a7 c2 bd 40 7b 13 bd 35 fe 77 3c
       0.114332266 -0.095045365 -0.036006212 0.015136291
000120 97 e0 dc 3d 7d 7b 67 bc c4 76 8e 3d 54 20 c4 be
       0.107850246 -0.014128563 0.069562465 -0.38305914
000130 46 a3 e7 bd b7 f5 c7 3d 8a 23 39 3e 03 4d 4c be
       -0.11310439 0.09763663 0.18079963 -0.19951253
000140 4c 78 0a 3d 44 2e b0 3d a0 eb 38 3e dc 38 1d be
       0.03380613 0.086025745 0.18058634 -0.15353721
000150 cd 13 29 be 29 02 9b 3e fc 0a 81 3d 7b af 30 be
       -0.1651146 0.30275086 0.06300923 -0.1725444
000160 bf 22 f4 ba aa e2 e3 3d fe 12 86 bd 29 84 9b bd
       -0.0018626078 0.11127217 -0.06546591 -0.07593567
000170 1f 25 b0 be 5c 26 27 be 18 82 83 be f7 38 6b bd
       -0.3440332 -0.16323227 -0.2568519 -0.057427373
000180 11 2b 93 be 0e d8 66 be 58 b1 9b 3e de 50 6b 3d
       -0.28743795 -0.22543356 0.3040874 0.057450168
000190 7d a0 15 bd 66 ad 89 3d 08 b0 12 bd d8 e0 4c bc
       -0.036530007 0.06722526 -0.035812408 -0.012504779
0001a0 0e dc 13 3e 53 05 10 be 59 1a 80 be 61 e6 af 3e
       0.14439413 -0.14064531 -0.25020102 0.34355453
0001b0 2b 81 80 3e b3 6c ff bd ec 0e 44 3e 64 23 8c bc
       0.25098547 -0.124719046 0.19146317 -0.01710672
0001c0 60 55 1f be 8f af f8 3d a2 53 9c bd 09 32 c1 3d
       -0.15559912 0.1214286 -0.07633139 0.094333716
0001d0 ae 1d 67 be a5 84 08 3e 4e c2 58 3c 59 cd 3c bd
       -0.22569916 0.1333185 0.01322992 -0.046094272
0001e0 ab 43 1c be 23 fd 6c 3d 03 69 21 3c 8e a2 1f 3e
       -0.15260188 0.057858597 0.009851697 0.15589353
0001f0 43 11 d1 3e 2e 76 58 bd 58 aa a3 3d 7e fb 7c be
       0.40833482 -0.05284708 0.07991475 -0.24705312
000200 d9 24 5e bc c7 0b 12 3e bc 00 83 3e 87 7c 31 3e
       -0.01355859 0.14262305 0.25586498 0.1733266
000210 94 d4 9d bc 12 46 1d 3e 43 1c 5b 3e 60 cf 24 bd
       -0.019266404 0.15358761 0.213975 -0.04023683
000220 5d ac 3e 3e 01 53 0b 3b 8d eb 3d 3e d7 1c dd bb
       0.18620439 0.002125919 0.18546887 -0.0067478227
000230 3e 67 c3 3c d9 09 82 be 9a 0b 00 3d 93 2d 07 3e
       0.02385294 -0.25398138 0.031261064 0.13200979
000240 94 c8 31 be 3b 1c 1a 3e 12 ec 48 be 3a 14 da bc
       -0.1736167 0.15049832 -0.19621304 -0.026620973
000250 79 b5 b9 be 88 7e ed bd 49 bb 3c be fa d8 90 3e
       -0.36271265 -0.115963995 -0.18430819 0.2829054
000260 ea b7 3b 3d f9 eb 2d be db 12 84 3e 6d a1 43 3e
       0.04582969 -0.16984548 0.25795636 0.19104548
000270 df 01 54 bb 4d 36 28 3d 07 34 72 be c8 eb b5 3a
       -0.0032349748 0.04106741 -0.2365266 0.0013879472
000280 8e a9 ac 3d f3 7d 0d 3e d3 6e 1d 3e 35 68 4c 3e
       0.084307775 0.13817577 0.15374307 0.19961627
000290 73 a6 06 be 49 f2 b7 3d 21 0f 0b 3e 1a d0 92 bd
       -0.13149433 0.08981759 0.1357999 -0.071685985
0002a0 2d b1 17 bc a4 62 09 3e 0e 76 3f be f4 6e 4e bd
       -0.009258551 0.13416535 -0.18697378 -0.050398782
0002b0 57 4b 69 3d 63 f5 30 bd a4 64 15 be c8 43 4b be
       0.056956615 -0.04320277 -0.14589173 -0.19850075
0002c0 bf 7c 36 bd 5f c0 2c bd 87 59 94 bd 0f c4 77 bd
       -0.04455256 -0.042175647 -0.072436385 -0.06048971
0002d0 4a 95 e8 be 10 4e 2f bd f0 75 8b 3e de 56 a9 bd
       -0.454264 -0.042799056 0.27238417 -0.08268522
0002e0 49 d8 45 3c e3 ce e7 3d 13 64 78 be 49 6d 76 3c
       0.012075492 0.113187574 -0.24256925 0.015040704
0002f0 6c 49 67 bc c7 71 82 be 5c dd 17 be fd 63 40 3e
       -0.014116626 -0.2547743 -0.14830536 0.18788143
000300 2f bc 6d be df d5 31 be 67 93 05 be da b6 cb 3b
       -0.23216318 -0.17366742 -0.13044511 0.006216866
000310 2b c9 a3 bd a9 bf f0 bd 97 4d 02 be f3 f8 92 3d
       -0.07997354 -0.11755306 -0.1272491 0.071763895
000320 f3 20 ab be fe 01 17 3d d2 25 9c be e6 18 41 3e
       -0.33423576 0.036867134 -0.30497605 0.18857154
000330 c2 ff d5 3d 77 57 fc 3d 11 ec 94 3d 72 8e 26 3e
       0.104491726 0.1232137 0.072715886 0.16265276
000340 b0 7c 53 3e 83 76 be bd 1c 0d 08 3e 82 8f 87 3d
       0.20653033 -0.09299948 0.13286251 0.06619169
000350 96 38 6b 3e eb 29 0d bd 60 da 2e bb 6a 14 70 be
       0.22970805 -0.034463804 -0.0026680455 -0.23445287
000360 ac 80 1c be 51 da a2 3e 22 c8 b6 be f6 f3 1f be
       -0.1528346 0.31807187 -0.35699564 -0.15620407
000370 21 2a 28 bc ac e0 34 3e 8f d6 ea bd 07 a0 ad 3d
       -0.010263951 0.1766383 -0.11466705 0.084777884
000380 dd d5 0f 3e 85 bd f0 3d 4b 3a e4 be 34 dc da 3c
       0.14046426 0.11754898 -0.44575724 0.02671633
000390 0f 04 42 3e 28 b5 c3 bd 50 fc 21 be 52 f4 97 bd
       0.1894686 -0.09556037 -0.15818906 -0.07419647
0003a0 74 7b a4 bd fb 8d 82 be 59 b1 84 3e 7b ab d4 bd
       -0.08031359 -0.25498948 0.25916556 -0.1038427
0003b0 88 2a 77 3d 6d e2 1a be d3 6a 9f bc f8 a2 95 3d
       0.060343295 -0.15125437 -0.019460117 0.073064744
0003c0 98 df d5 3d 8b 1f f7 3d e2 38 0c 3e 62 a5 9f bc
       0.10443038 0.12066563 0.13693574 -0.01948804
0003d0 36 2b 91 3e b5 13 1f bb f2 81 25 bd cf 5e ef bd
       0.2835328 -0.002427322 -0.04040713 -0.11688005
0003e0 d5 17 0a 3e ad cb bc 3c 0d a8 58 3c 8a ab 2e be
       0.13485654 0.023046339 0.01322366 -0.17057624
0003f0 4d aa bf 3d 34 a2 49 3e 7b 8b d8 bc df ab 6e be
       0.09358654 0.19690782 -0.026433697 -0.23307751

encoder.blocks.0.attn.key.bias f4 [64]
000000 73 4f a8 b9 54 32 b2 3a c2 cc 48 3a 24 02 3e b9
       -0.0003210265 0.0013595321 0.0007659906 -0.0001812061
000010 cd a1 5c bb 8a 6d b1 3a 6d c4 31 3b ea 2c 39 b9
       -0.0033665777 0.0013536674 0.0027125136 -0.00017659707
000020 1a ae 94 3b bb ec 16 3a c4 e9 1c ba df b6 c0 ba
       0.004537356 0.00057573215 -0.00059857615 -0.0014702937
000030 0b 37 60 b9 b5 d1 db 3a 84 cd b2 ba 4b 7c 18 3b
       -0.0002138281 0.0016770872 -0.0013641571 0.0023267444
000040 ce ee 50 3b 08 1d 2a 3b 5d 7a 3b 39 ea 94 1b 3a
       0.003188062 0.0025957245 0.00017879294 0.00059349707
000050 f6 45 e0 3a 50 8e c3 ba 16 1f 03 3b bb 83 c6 ba
       0.0017110694 -0.0014919732 0.0020007542 -0.001514546
000060 49 83 20 ba 68 13 c9 ba a7 db 2e bb 9b 5e 16 bb
       -0.00061230786 -0.0015340867 -0.0026681216 -0.0022944573
000070 84 49 2d ba 96 df 4d 3a b1 a4 1e b8 27 93 ad ba
       -0.0006610381 0.00078534463 -3.7823516e-05 -0.0013242707
000080 f3 fa 79 bb 44 66 6c bb 11 ca 40 3a 85 a6 1e ba
       -0.0038143962 -0.0036071697 0.0007354329 -0.0006052035
000090 ce c1 71 bb 2b d6 8b 3a f1 e0 35 3b 29 2d 99 ba
       -0.0036889198 0.0010668685 0.0027752484 -0.0011686432
0000a0 4e 40 82 39 b8 1e 7c 3a 9e 2b 94 3a 93 76 40 3b
       0.00024843443 0.00096176146 0.0011304503 0.002936755
0000b0 e1 16 e2 38 fe 12 ae ba fc 0e 40 39 ce 7e 29 3b
       0.00010780781 -0.0013280807 0.00018316129 0.0025862935
0000c0 8b 6c 07 3a 43 ce 6c b7 cd d6 0f 3b 6a 80 af 3a
       0.00051660155 -1.411472e-05 0.00219481 0.0013389711
0000d0 d2 e9 b2 ba c0 5a 98 3b 1e b8 89 3b 3f 02 88 3a
       -0.0013650006 0.00464949 0.0042028567 0.0010376646
0000e0 7b af 8a 3b 06 0a 8e 3a ce 16 f9 ba 9a 3e 23 bb
       0.0042323447 0.0010836727 -0.0019003989 -0.002490914
0000f0 d5 80 19 ba 18 42 01 3b 6a bf fc 3a 8f c9 87 3b
       -0.0005855684 0.0019723233 0.001928312 0.0041439007

encoder.blocks.0.attn.query.weight f4 [64, 64]
000000 13 17 18 bc 31 c2 98 3e 4b 8d 98 be 21 da 41 3e
       -0.009282845 0.29835656 -0.29795298 0.18930866
000010 c9 a7 c2 3e 2a 55 7c bd 46 17 d5 3d ec b7 59 be
       0.38018635 -0.061604656 0.1040483 -0.21261567
000020 bc 9a 94 3c 67 ff 94 be 2f 83 be bd c5 63 c7 3e
       0.01814019 -0.29101107 -0.09302365 0.38943306
000030 d9 ba 5b bd 79 14 2f bd e4 f5 2b be dd 75 23 3e
       -0.05364499 -0.042744134 -0.16793019 0.1596293
000040 47 d2 28 be f0 4f 4a be 9c 56 dc 3d 25 5f e0 bd
       -0.16486464 -0.19757056 0.10758707 -0.109556474
000050 c4 40 a3 3e 50 17 80 3d c7 2c 68 bd d3 2c ca bd
       0.3188535 0.062544465 -0.056683328 -0.09871831
000060 57 ba 0d be a7 dd b9 be e0 29 a2 3e f0 69 48 bd
       -0.13840614 -0.3630192 0.31672573 -0.048929155
000070 0b 3f ab be 50 91 c8 bd 43 b7 83 be b2 fc 7c be
       -0.33446535 -0.09793341 -0.25725755 -0.2470577
000080 dc 49 75 bd 3a 9e 7c be 51 fe 66 be 80 24 8a be
       -0.05988489 -0.24669734 -0.22557952 -0.26980972
000090 ec f7 9c be 8c 65 54 bd a6 2c d5 3c 80 32 0a bb
       -0.306579 -0.051854655 0.026022267 -0.002108723
0000a0 8c 8c 00 3e 69 cd f4 3c cb 5a 5d 3d 9e 07 d2 3d
       0.12553614 0.029883103 0.054041665 0.10255359
0000b0 71 c7 e9 bd 5f fa 4a 3e bd 8e 1f 3e 5e 60 2c 3e
       -0.114149936 0.19822071 0.15581794 0.16833636
0000c0 8c 71 8a 3c bd 6b 8b 3e 42 d6 c4 bd 08 da 9b bd
       0.016899846 0.27230635 -0.09611179 -0.076099455
0000d0 8b 9d d3 bc 36 8a b2 3d 66 45 6c 3e fd 78 74 3e
       -0.025831958 0.08717768 0.23073348 0.23874278
0000e0 ab ce 8f 3e fa 03 60 be 96 d6 df 3d 70 1b 45 3e
       0.28087363 -0.21876517 0.10929601 0.19248748
0000f0 21 c8 6b 3e fa 5c 07 be 82 45 43 be b1 2d 79 3c
       0.23025562 -0.13219061 -0.19069484 0.015208648
000100 d5 8f b7 3d ef 18 37 be 63 9f ca 3e 53 16 88 bb
       0.08962981 -0.17880605 0.39574727 -0.004153052
000110 bd 62 81 be 21 3d 24 3e 28 5a 5b 3e d7 f7 fb bc
       -0.25270644 0.16038944 0.2142111 -0.030757828
000120 71 a1 01 3e f6 fb 1f 3e f2 6a c7 3c fa 28 98 be
       0.12659241 0.15623459 0.024342988 -0.29718763
000130 f1 9e ef 3d a9 4a f8 3d 82 60 03 3d ce f0 82 be
       0.117002375 0.12123615 0.03207446 -0.25574344
000140 f4 a6 0c be c2 ca e0 3d 49 40 bb bc 72 18 24 bb
       -0.13735563 0.10976173 -0.022857802 -0.0025038985
000150 21 7d c6 bd 58 a5 09 3e 1c 2e 03 3e 0a 4f 79 bd
       -0.09691835 0.1344198 0.12810558 -0.060866393
000160 77 7b 7a 3d 1f a7 b7 3e f1 8a 74 be c3 a0 cc 3d
       0.0611529 0.3586969 -0.23881127 0.099916
000170 7d 32 ea bd e4 06 be bb fd 24 08 3e 27 7e 88 3d
       -0.11435411 -0.0057991613 0.1329536 0.06664687
000180 d9 bf 07 bd 41 49 a8 3e 30 11 ef 3d 25 4a d8 3e
       -0.033141945 0.32868388 0.116732 0.42244068
000190 74 61 09 bd fa d4 08 3e fb c9 21 bd 24 d4 ec bd
       -0.033540204 0.13362494 -0.039499264 -0.115639
0001a0 f5 36 87 3d 91 ea 1e 3e f8 43 e3 bd b0 c1 c3 bd
       0.06602279 0.15519167 -0.110969484 -0.09558427
0001b0 37 e0 67 3e d5 d9 a5 3d f6 9a b0 3d 38 c1 41 3e
       0.22644125 0.08098189 0.086233065 0.18921363
0001c0 55 e3 8e be 22 87 49 be 0d 91 53 3e 09 fd 7c 3d
       -0.27907816 -0.19680455 0.20660801 0.06176475
0001d0 eb 9f 28 be 6e 31 74 be 7a 50 d6 bd 19 76 58 be
       -0.16467254 -0.23846981 -0.104645684 -0.211388
0001e0 db 69 e6 bd 2a cf fe bd b4 4c 34 bd 23 12 88 bd
       -0.11250659 -0.12441857 -0.044018462 -0.06644084
0001f0 72 16 cd bd 29 a8 70 3d 55 b5 1a bd 26 50 e0 bd
       -0.10014047 0.05875412 -0.037770588 -0.10952787
000200 43 f9 05 be 36 bc 1d 3e 3e f9 54 be 6b 58 10 3e
       -0.13083367 0.15403828 -0.20798203 0.14096229
000210 fa ad a8 be 02 a1 02 bc 26 09 3a be 7a 6d 1a 3e
       -0.32945234 -0.007972958 -0.18167552 0.15080824
000220 52 45 ed be 6f 3e 4d be 21 2a ed 3d f8 49 89 3b
       -0.4634195 -0.20043348 0.11580301 0.004189726
000230 39 d9 34 bd 8e 0b 8a 3c d6 63 8e 3d 8c 22 4c 3e
       -0.044152472 0.016851213 0.06952636 0.19935054
000240 1e f0 0f 3e f1 db b6 3c b1 f9 ba 3d ab 8d 26 bd
       0.14056441 0.022321673 0.09129656 -0.04066245
000250 b4 b2 6a bd 63 4c d1 3c 9b 72 05 be 78 95 09 be
       -0.05729933 0.02554912 -0.13032 -0.13435924
000260 87 88 fa 3d 21 2c 7c 3e ea f3 ff 3d 80 38 51 bd
       0.12233072 0.24626209 0.12497695 -0.051079273
000270 84 c5 c7 bd 23 4a 12 3e dd cf 03 3e 61 45 7a be
       -0.0975447 0.14286093 0.12872262 -0.24440528
000280 50 fe 81 bc 0a 66 93 bc 67 60 54 3e fe 84 ae be
       -0.015868336 -0.017992992 0.207399 -0.3408584
000290 d6 52 80 bc b5 c4 93 bd 31 e0 e2 bd 0b 8f d9 3e
       -0.0156645 -0.07215253 -0.11077917 0.42491946
0002a0 fe 76 71 3d 84 d4 2d 3d ff fe 96 bd 5f 20 ca bd
       0.05895137 0.042439 -0.073728554 -0.098694555
0002b0 40 f6 63 3e 4b 0d fb bd 1a 09 0d 3e 89 03 69 be
       0.22261906 -0.12258395 0.13773003 -0.22755255
0002c0 a9 31 78 3d eb 3f 06 3e ab d8 32 3d 46 87 3d be
       0.060594235 0.1311032 0.043663662 -0.18508634
0002d0 f1 a7 a0 be df 35 89 3e a1 1b 15 3d f0 ab 22 be
       -0.3137813 0.26798913 0.036403302 -0.15885901
0002e0 5a a7 5c be 77 1e 2a 3e 0c 0b 30 3e fd ca 49 3e
       -0.21548215 0.16613184 0.17191714 0.1970634
0002f0 1b e2 66 3e a5 c3 ae 3d 29 3b a9 bd 4e fa 50 bd
       0.2254719 0.0853341 -0.08263237 -0.05101996
000300 58 fb c1 3d e5 2d 59 bd ab 69 cc bb f9 6d 8e 3d
       0.09471768 -0.053022284 -0.0062381825 0.06954569
000310 3a a9 b0 3e 64 4c a9 bb c3 e9 80 3e 1d 8e 6e be
       0.3450411 -0.005166577 0.25178346 -0.232964
000320 4d 39 a4 3e da 90 22 3e 15 e5 9e bd 89 7d 87 3e
       0.32074967 0.15875569 -0.07758538 0.26462963
000330 15 ed 16 3d cc 3a 9e bd 8b 00 17 be da 3b c9 3d
       0.036847193 -0.07726058 -0.14746301 0.09825869
000340 2b c2 bb be 89 7e 60 bc 68 94 93 bc ea 63 84 bd
       -0.36671576 -0.013702043 -0.018015102 -0.064643696
000350 6b 66 2a bd 60 de e6 3d a9 b4 b0 bb 42 43 d3 3d
       -0.04160158 0.112728834 -0.00539263 0.10315563
000360 ec bc db bd dd f4 1a ba 78 54 54 3e 47 c6 1a bd
       -0.10729393 -0.0005911121 0.20735347 -0.03778675
000370 e3 35 5f 3d ea 41 96 bd 42 62 54 be fd 15 5f 3c
       0.05449475 -0.07336791 -0.20740607 0.013616082
000380 c0 fd 31 3e 01 06 66 3c 47 52 4f be 5f 60 66 3d
       0.17381954 0.014039517 -0.2024623 0.05624425
000390 bd 9f c7 bd a5 bb e1 3a c0 e4 a7 3d ba 28 9d 3a
       -0.097472645 0.001722206 0.081979275 0.0011990287
0003a0 68 68 37 3e 4d 44 13 be f4 56 2d 3d 05 6d 0d 3e
       0.17910922 -0.14381523 0.042319253 0.13811119
0003b0 f3 ed f4 3b cd 4c a3 3c 82 93 1c be ec a2 36 3d
       0.007474655 0.019934082 -0.15290645 0.04458897
0003c0 b9 b2 93 bd 3a 40 1a be ed a2 0a be 55 6b 03 3e
       -0.07211823 -0.15063563 -0.13538714 0.12833913
0003d0 0f a1 cf 3d 4f 2a ef bd 90 eb ef 3d e7 f6 83 3e
       0.10138141 -0.116779916 0.11714852 0.2577431
0003e0 b1 46 ba 3d 86 44 20 be 32 fc cf 3b 73 27 6b be
       0.090955146 -0.1565114 0.0063472027 -0.22964267
0003f0 55 e1 d9 bb 78 24 a6 be 04 73 07 3d 2c 9d d3 3d
       -0.006649176 -0.32449698 0.03306867 0.103327125
